models/forecasting/lstm/model.pth (torch, 786504 bytes, 13 tensors)

cnn_layers.0.weight f4 [100, 12, 3]
0.4535077 0.12388021 -0.002865325 0.115144975 -0.16175956 -0.06575634 0.19190398 -0.035901066
-0.13671067 -0.03660217 0.13254939 0.10549832 0.033091716 0.2519766 0.006307066 0.169268
-0.07055971 0.28643614 -0.2688608 -0.017448718 0.15135583 -0.05397514 -0.13781144 -0.09181826
-0.0053265532 0.057900064 0.030583106 0.19172685 -0.12565012 0.018471349 -0.18317614 -0.024103465
-0.28544748 -0.07533088 0.093281455 -0.158441 0.08656172 -0.07581083 -0.1301346 0.06389178
-0.061132427 -0.058117673 0.04842165 -0.19937073 -0.14311261 0.06633902 -0.012259649 -0.011093269
-0.10957583 -0.19707704 -0.06942826 0.09308776 0.07160313 -0.026210228 -0.060258154 -0.09470617
0.21501607 -0.13517341 0.3674844 -0.09661989 0.0723366 -0.048603863 -0.20359957 -0.12872708
-0.07141155 0.01195682 0.10948356 -0.113654174 0.042658515 -0.060395915 -0.10687124 0.06862957
0.092747174 -0.05670349 -0.04800022 0.050579477 -0.17685834 -0.20122454 0.11242015 0.07183869
0.047376666 0.10605421 -0.06909429 -0.03349533 0.20708606 0.29231828 -0.052745085 0.29620975
0.00033772297 0.088377714 7.4316435e-05 0.112036064 -0.17090398 0.022026751 -0.051394362 0.08310077
-0.04287406 0.042687684 0.15206511 0.09380957 0.12025709 -0.1166931 -0.046197847 -0.057159964
-0.26913556 0.010160856 0.09842806 -0.06772248 0.17817128 -0.26377198 -0.02847772 0.16572104
-0.05241324 -0.10929268 -0.091282286 -0.072059184 -0.17639118 0.29632744 -0.15364078 -0.02748738
-0.025315994 -0.043257758 -0.02827006 -0.09976909 -0.070849836 0.2227292 0.0057851374 0.054107193
0.1694336 -0.11265457 0.33006257 -0.1434032 0.048838068 0.18058315 -0.08330985 0.15922655
0.0307918 -0.038498793 -0.03875625 0.16782646 0.07886006 -0.06471623 -0.06812823 0.077466875
-0.17478167 0.009530104 -0.5165514 -0.044009283 0.21204108 0.114377454 0.08783525 -0.21372995
-0.32537806 0.019703558 -0.15312621 -0.23534463 -0.11334144 -0.07987621 -0.16453724 0.051747717
0.010072798 0.16065584 0.07610952 -0.053451207 0.20405534 0.024346247 0.39149356 -0.44334522
0.10362064 0.29012093 -0.12359042 -0.1755133 -0.10605972 -0.0038628282 0.2628002 0.28145608
-0.03315666 -0.080260284 -0.11591095 -0.04309724 0.07319168 -0.49671912 0.026456429 -0.08524408
0.1924572 0.25555554 -0.034052994 -0.0901011 0.23190959 -0.033736758 0.16890365 -0.113322034
0.0059437826 -0.14185187 0.057802826 -0.066672556 0.10868923 0.14937606 -0.007998708 -0.1803024
-0.24344377 -0.012007367 -0.016471451 -0.3230498 -0.08401775 -0.088755876 0.05116591 -0.10638459
-0.074061275 0.2517123 0.38041788 -0.18489328 -0.07685843 0.2717692 0.17369124 0.24461019
0.25165778 0.20461607 -0.17298305 0.31590113 -0.065556265 -0.17512764 0.25029182 0.01039558
-0.13181582 0.16202396 0.04204282 0.24507697 0.042041194 0.23629196 0.0965576 0.16821052
-0.027879596 0.077224776 -0.22364588 0.07164852 -0.22858188 -0.11656417 -0.34359005 0.11783523
-0.13775624 0.044078298 -0.22463638 0.039474644 -0.13573779 0.38264707 -0.027109995 0.017689377
-0.2610825 -0.012334834 0.047823343 -0.021770177 0.38096848 0.103223756 -0.17051788 0.09038238
00000000: 2932 e83e e8b4 fd3d 2dc8 3bbb 21d1 eb3d
00000010: 4ca4 25be 43ab 86bd 7a82 443e ff0c 13bd
00000020: e2fd 0bbe 28ec 15bd 07bb 073e 810f d83d
00000030: 2e8b 073d 1403 813e 81ab ce3b 9754 2d3e
00000040: 9c81 90bd c2a7 923e 1fa8 89be 9df0 8ebc
00000050: 06fd 1a3e 0915 5dbd 711e 0dbe 360b bcbd
00000060: 5e8a aebb 9e28 6d3d 6c89 fa3c 0b54 443e
00000070: 6daa 00be 3a51 973c 8792 3bbe a174 c5bc
00000080: 2c26 92be 1447 9abd 590a bf3d 5c3e 22be
00000090: 4547 b13d b542 9bbd 0142 05be b2d9 823d
000000a0: ff65 7abd cc0c 6ebd c855 463d d727 4cbe
000000b0: 1d8c 12be c1dc 873d b2dc 48bc 8bc0 35bc
000000c0: 4b69 e0bd 90ce 49be 6730 8ebd cca4 be3d
000000d0: a9a4 923d d5b6 d6bc 41d1 76bd 4ff5 c1bd
000000e0: 2c2d 5c3e e66a 0abe ea26 bc3e a6e0 c5bd
000000f0: 3625 943d d814 47bd 687c 50be 08d1 03be
00000100: 3840 92bd 8ae6 433c eb38 e03d 85c3 e8bd
00000110: b2ba 2e3d b561 77bd 4fdf dabd a98d 8c3d
00000120: 3bf2 bd3d eb41 68bd e19b 44bd 6d2c 4f3d
00000130: 5a1a 35be ce0d 4ebe 893c e63d 2a20 933d
00000140: 090e 423d f332 d93d 4f81 8dbd 6632 09bd
00000150: 5e0e 543e beaa 953e 3b0b 58bd cea8 973e
00000160: 6910 b139 60ff b43d 55da 9b38 2a73 e53d
00000170: 7401 2fbe 7271 b43c e582 52bd bd30 aa3d
00000180: b69c 2fbd 48d9 2e3d f5b6 1b3e 3b1f c03d
00000190: 5949 f63d cbfc eebd f439 3dbd 9120 6abd
000001a0: 23cc 89be b879 263c a794 c93d 15b2 8abd
000001b0: 8872 363e 1f0d 87be 1c4a e9bc c7b2 293e
000001c0: 44af 56bd d7d4 dfbd 35f2 babd c493 93bd
000001d0: e49f 34be 3bb8 973e 0254 1dbe 372d e1bc
000001e0: 7d63 cfbc 0c2f 31bd 9d96 e7bc bd53 ccbd
000001f0: b819 91bd 2013 643e 4091 bd3b 819f 5d3d
00000200: 0080 2d3e 70b7 e6bd f6fd a83e 4ad8 12be
00000210: 6d0a 483d caea 383e 5b9e aabd 490c 233e
00000220: 163f fc3c e9b0 1dbd e0be 1ebd b3da 2b3e
00000230: 6281 a13d f189 84bd d086 8bbd f4a6 9e3d
00000240: f7f9 32be 2724 1c3c b63c 04bf 1443 34bd
00000250: 4c21 593e ba3e ea3d f8e2 b33d 06dc 5abe
00000260: f497 a6be 5b69 a13c 1ecd 1cbe 2ffe 70be
00000270: 8f1f e8bd 2396 a3bd 737c 28be 6af5 533d
00000280: 6008 253c f782 243e 4fdf 9b3d a7ef 5abd
00000290: e2f3 503e c871 c73c d871 c83e 25fe e2be
000002a0: 0f37 d43d bb8a 943e f91c fdbd c2b9 33be
000002b0: d735 d9bd 8127 7dbb bf8d 863e 031b 903e
000002c0: 47cf 07bd 815f a4bd b862 edbd bb86 30bd
000002d0: 85e5 953d f851 febe 27bb d83c 7394 aebd
000002e0: 8013 453e 2dd8 823e 277b 0bbd ed86 b8bd
000002f0: b579 6d3e 8e2f 0abd 14f5 2c3e 6215 e8bd
00000300: 10c4 c23b 9e41 11be a8c2 6c3d 9f8b 88bd
00000310: 7698 de3d 0af6 183e 030d 03bc 31a1 38be
00000320: 5349 79be 8cba 44bc 23ef 86bc c966 a5be
00000330: 8011 acbd a4c5 b5bd 5893 513d 2ae0 d9bd
00000340: 70ad 97bd 6fe0 803e 22c6 c23e aa54 3dbe
00000350: f467 9dbd 5525 8b3e 1edc 313e 187b 7a3e
00000360: 4ad9 803e e086 513e 7822 31be cbbd a13e
00000370: 5d42 86bd a954 33be 4026 803e 3952 2a3c
00000380: bafa 06be 9ce9 253e 1835 2c3d 75f5 7a3e
00000390: 6333 2c3d 85f6 713e febf c53d 613f 2c3e
000003a0: c063 e4bc 0628 9e3d 6d03 65be 76bc 923d
000003b0: 5e11 6abe 32b9 eebd 09eb afbe 9953 f13d
000003c0: f90f 0dbe 728b 343d 1407 66be 2ab0 213d
000003d0: d9fe 0abe 51ea c33e c815 debc 50e9 903c
000003e0: 9bac 85be 0b18 4abc 69e2 433d 5f57 b2bc
000003f0: 4d0e c33e fa66 d33d 3d9c 2ebe 661a b93d

cnn_layers.0.bias f4 [100]
-0.18673134 -0.078574836 -0.022899771 0.10897434 0.33308688 0.09465866 -0.31154656 0.086773925
-0.015161421 -0.05514336 0.00184154 -0.0037662764 -0.09564748 -0.06397155 -0.13076396 -0.23610194
-0.20450832 -0.06432562 -0.105750054 -0.22293441 0.08940318 -0.12902229 -0.033641722 0.058822304
-0.053473964 -0.0647525 -0.013346372 0.009482944 -0.10994939 -0.54342806 -0.06690269 0.09166201
-0.0066994554 -0.026752152 -0.19972801 -0.2078612 0.01726466 -0.15026523 -0.15844277 0.059553444
0.028644206 0.114091955 -0.027862735 -0.42120507 0.03790013 -0.1768738 0.027095405 -0.2098613
0.14388548 -0.2814844 -0.11986432 0.028598588 0.0342635 -0.016107915 0.027042406 0.22654662
-0.15652163 0.10140458 -0.064905144 -0.0041074185 0.029472584 0.045166016 0.06370998 0.026783077
-0.19585106 -0.19440727 -0.2556641 0.007979283 0.07931199 0.0035032157 -0.27286157 -0.0054132505
-0.03395313 0.049548727 0.13679002 -0.15613465 -0.05282493 -0.03220931 -0.27590343 -0.21741496
-0.16242857 0.14541212 -0.21418713 0.07852354 0.011874441 -0.086131155 -0.21731332 -0.019316021
-0.1138228 -0.00478139 -0.17289732 0.07088662 -0.10405107 -0.067083 0.07388408 0.018575337
0.05880892 -0.0069456557 -0.2517366 -0.21428762
00000000: 8036 3fbe d8eb a0bd 4d98 bbbc f02d df3d
00000010: 5d8a aa3e 66dc c13d 0883 9fbe 87b6 b13d
00000020: 9c67 78bc 01de 61bd d45f f13a a2d3 76bb
00000030: d3e2 c3bd 8403 83bd fde6 05be b5c4 71be
00000040: a16a 51be 27bd 83bd 7c93 d8bd eb48 64be
00000050: 0419 b73d 6b1e 04be e7cb 09bd a8ef 703d
00000060: 8407 5bbd f59c 84bd beaa 5abc 5a5e 1b3c
00000070: 252d e1bd 1a1e 0bbf 4704 89bd 4bb9 bb3d
00000080: 1b87 dbbb 5427 dbbc 8085 4cbe 91d9 54be
00000090: 9e6e 8d3c 21df 19be d23e 22be 50ee 733d
000000a0: 41a7 ea3c 0ba9 e93d 6440 e4bc 31a8 d7be
000000b0: 2b3d 1b3d 681e 35be 2ff7 dd3c e1e5 56be
000000c0: b756 133e b91e 90be 6d7b f5bd 9647 ea3c
000000d0: e257 0c3d bff4 83bc 0988 dd3c d6fb 673e
000000e0: 3547 20be 34ad cf3d fdec 84bd 8697 86bb
000000f0: 7d70 f13c 0000 393d 617a 823d 2f68 db3c
00000100: 2e8d 48be b312 47be 68e6 82be 8abb 023c
00000110: 536e a23d 3596 653b 83b4 8bbe a361 b1bb
00000120: 7012 0bbd 9bf3 4a3d af12 0c3e c3e1 1fbe
00000130: f45e 58bd e9ed 03bd 3743 8dbe 07a2 5ebe
00000140: ad53 26be eae6 143e df53 5bbe f3d0 a03d
00000150: 048d 423c 8865 b0bd 6287 5ebe a23c 9ebc
00000160: ee1b e9bd 35ad 9cbb ff0b 31be 012d 913d
00000170: ba18 d5bd d062 89bd 8950 973d 4e2b 983c
00000180: 9fe1 703d 6298 e3bb 9fe3 80be 376e 5bbe

cnn_layers.1.weight f4 [100, 100, 3]
-0.017857814 -0.0905977 -0.03866632 -0.08511783 -0.039968707 -0.07624083 0.0073997867 -0.017511375
-0.041292638 -0.04475794 -0.061904952 -0.13059519 -0.11006258 -0.008354889 -0.10443581 0.0115138935
-0.02435674 -0.019467425 0.018833661 -0.017276986 -0.10607236 -0.050765682 -0.016866798 -0.090455726
-0.013505764 -0.119717635 -0.07722598 -0.047507405 -0.11060051 -0.07068114 -0.07952725 -0.0669862
-0.09560576 -0.06706767 -0.030811353 -0.027883328 -0.08144747 -0.035380416 -0.06333848 -0.00820903
-0.014109424 -0.12418001 -0.0034330394 -0.08375159 -0.114813596 0.020056136 -0.014761559 -0.06010215
-0.013838899 -0.022879684 -0.060883973 -0.112169914 -0.08178581 -0.10686241 -0.019935906 -0.05808706
-0.058425076 -0.025079828 -0.089949556 -0.03917656 -0.048005246 -0.09839126 -0.12334588 -0.007758895
-0.00959575 -0.09104046 -0.085719734 -0.08102436 -0.069247454 -0.08208663 -0.07433344 -0.0660973
-0.10065031 -0.09725841 -0.04975116 -0.027440857 -0.026952574 -0.09093226 -0.07696307 -0.060653236
-0.09262555 -0.0077020684 -0.030247219 -0.04309079 -0.10135562 -0.055323 -0.04935571 -0.07477565
-0.030024432 -0.015150192 -0.08445673 -0.046377108 -0.10362246 -0.011050406 0.019590972 -0.11498393
-0.054436553 -0.033462834 -0.034568995 -0.022046788 -0.029581975 -0.0615686 -0.005205079 -0.024972416
-0.07685857 -0.036954034 -0.07379639 -0.022647176 -0.029093474 -0.059377417 -0.051324323 -0.004277958
-0.1223413 -0.12557219 -0.005046405 -0.066321485 -0.104004614 -0.08430849 -0.078608245 -0.046053354
-0.03275648 -0.112009995 -0.08100393 -0.07438691 -0.11251459 -0.027237117 -0.029554753 -0.06985831
-0.050571643 0.0041862703 -0.0952932 -0.022354828 -0.10011785 -0.0767391 -0.13034709 0.016327236
-0.11615359 -0.08174651 -0.03676492 0.002548336 -0.087877855 -0.11345511 -0.083886646 -0.025685744
-0.032775614 -0.06669515 -0.13474606 -0.020305729 -0.048808437 -0.122947335 -0.09592185 -0.06337888
-0.10440845 -0.06723531 -0.030540206 -0.06954354 -0.024960432 -0.0676912 -0.03224498 -0.08013421
-0.018394625 -0.053442474 0.015844753 -0.04901431 -0.11002725 -0.03807323 -0.09055197 -0.06504683
-0.09506873 -0.05275255 -0.05399925 0.002058445 -0.059078485 -0.08698937 -0.0077096582 -0.0883146
-0.10428121 -0.041075423 0.0018908607 -0.099530995 -0.11884043 -0.010531223 -0.02928115 -0.06572958
-0.0822332 -0.03114396 -0.0052625104 -0.07055406 -0.026248945 -0.060860883 -0.041334424 -0.026455892
0.014100258 -0.11312403 -0.11959108 -0.00750117 -0.064077236 -0.06290923 -0.011292733 -0.04703979
-0.02513667 -0.057131313 -0.054593846 -0.109269425 -0.059573036 -0.07785281 -0.04612165 -0.035109937
-0.07541959 -0.018002171 -0.08382419 -0.041751202 -0.045425322 -0.042089995 -0.021155693 -0.03619161
-8.247776e-05 -0.035895936 -0.048978087 -0.004980871 -0.050105214 -0.10591229 -0.06284259 -0.06465334
-0.029701142 -0.008370655 -0.0492306 -0.11990847 -0.008760656 -0.065504365 -0.050299183 -0.015838819
-0.020410636 -0.107837446 -0.09596936 -0.11688331 -0.06917984 -0.020235604 -0.11172416 -0.07144125
-0.013318535 -0.105394244 -0.06765875 -0.064671636 -0.014132788 -0.053854782 -0.044477552 -0.04884825
-0.120145544 -0.08795746 -0.007515972 -0.09409074 -0.07522033 -0.016426932 -0.09858108 -0.088122435
00000000: 8d4a 92bc 498b b9bd 9360 1ebd 4252 aebd
00000010: 3ab6 23bd 2724 9cbd e979 f23b 0474 8fbc
00000020: 7822 29bd 1a54 37bd 0c90 7dbd bfba 05be
00000030: 7d68 e1bd f2e2 08bc 71e2 d5bd c5a4 3c3c
00000040: c987 c7bc 267a 9fbc 0d49 9a3c 7788 8dbc
00000050: 773c d9bd adef 4fbd 3d2c 8abc da40 b9bd
00000060: 4847 5dbc 852e f5bd a828 9ebd 2097 42bd
00000070: 8582 e2bd 46c1 90bd 2fdf a2bd 1030 89bd
00000080: f4cc c3bd c65a 89bd 1768 fcbc 946b e4bc
00000090: eecd a6bd 0eeb 10bd 9bb7 81bd 2b7f 06bc
000000a0: 372b 67bc 1752 febd d8fc 60bb f485 abbd
000000b0: 6423 ebbd c44c a43c 77da 71bc ac2d 76bd
000000c0: 8dbc 62bc 2d6e bbbc 7961 79bd 57b9 e5bd
000000d0: 527f a7bd aeda dabd a050 a3bc b2ec 6dbd
000000e0: 224f 6fbd 3674 cdbc 7937 b8bd 9a77 20bd
000000f0: 26a1 44bd 5b81 c9bd c49c fcbd 543e febb
00000100: 7e37 1dbc 6c73 babd d48d afbd 1af0 a5bd
00000110: 9cd1 8dbd 091d a8bd 213c 98bd 055e 87bd
00000120: c021 cebd 6b2f c7bd dfc7 4bbd a6cb e0bc
00000130: a5cb dcbc b13a babd d09e 9dbd 876f 78bd
00000140: 77b2 bdbd a261 fcbb 04c9 f7bc f87f 30bd
00000150: 8993 cfbd 5f9a 62bd 3729 4abd fa23 99bd
00000160: ccf5 f5bc 8338 78bc a6f7 acbd ecf5 3dbd
00000170: 0338 d4bd c30c 35bc 3f7d a03c b27c ebbd
00000180: ddf8 5ebd 5310 09bd 3898 0dbd 779b b4bc
00000190: e655 f2bc 5b2f 7cbd 5e8f aabb f492 ccbc
000001a0: 0768 9dbd 1d5d 17bd 9022 97bd 9286 b9bc
000001b0: 7055 eebc bc35 73bd 7439 52bd 1d2e 8cbb
000001c0: 138e fabd ff95 00be 505c a5bb 8fd3 87bd
000001d0: 5f00 d5bd eea9 acbd 5cfd a0bd 71a2 3cbd
000001e0: a92b 06bd 7f65 e5bd 63e5 a5bd 2a58 98bd
000001f0: 0d6e e6bd 6020 dfbc cf1c f2bc e011 8fbd
00000200: 3624 4fbd fb2c 893b 1529 c3bd 7921 b7bc
00000210: 960a cdbd 6429 9dbd b579 05be b2c0 853c
00000220: efe1 edbd b76a a7bd d096 16bd fc01 273b
00000230: 4ef9 b3bd 275b e8bd c3cc abbd e96a d2bc
00000240: b93f 06bd 7897 88bd dffa 09be 3358 a6bc
00000250: 5beb 47bd d0cb fbbd ad72 c4bd c9cc 81bd
00000260: 19d4 d5bd abb2 89bd 742f fabc d86c 8ebd
00000270: d279 ccbc afa1 8abd 5013 04bd 681d a4bd
00000280: 53b0 96bc 7fe6 5abd dbcc 813c 3bc3 48bd
00000290: f855 e1bd adf2 1bbd 5073 b9bd 4637 85bd
000002a0: 65b3 c2bd 0f13 58bd 512e 5dbd fae6 063b
000002b0: 48fc 71bd 7c27 b2bd 4da1 fcbb 49de b4bd
000002c0: 6391 d5bd b43e 28bd c2d6 f73a e8d6 cbbd
000002d0: 9d62 f3bd 278b 2cbc 06df efbc 3b9d 86bd
000002e0: e169 a8bd 9e21 ffbc 2371 acbb a67e 90bd
000002f0: 0708 d7bc 4349 79bd 494e 29bd 07ba d8bc
00000300: c504 673c 92ad e7bd 2bec f4bd 60cc f5bb
00000310: ed3a 83bd 8ed6 80bd 2805 39bc cbac 40bd
00000320: 6beb cdbc 8602 6abd cc9d 5fbd a6c8 dfbd
00000330: db02 74bd 4b71 9fbd 0eea 3cbd 70cf 0fbd
00000340: 9675 9abd 4a79 93bc 04ac abbd 4f03 2bbd
00000350: e70f 3abd 8f66 2cbd b44e adbc a73d 14bd
00000360: e9f7 acb8 9e07 13bd 3f9d 48bd 9336 a3bb
00000370: 203b 4dbd 8be8 d8bd 9eb3 80bd f868 84bd
00000380: cf4f f3bc 1225 09bc 07a6 49bd 9292 f5bd
00000390: db88 0fbc 2727 86bd 8406 4ebd 69c0 81bc
000003a0: 3534 a7bc e1d9 dcbd 958b c4bd 8460 efbd
000003b0: 29ae 8dbd 23c5 a5bc a3cf e4bd ca4f 92bd
000003c0: fc35 5abc f0d8 d7bd ac90 8abd 9072 84bd
000003d0: 368d 67bc d596 5cbd 182e 36bd 1a15 48bd
000003e0: de0e f6bd 0a23 b4bd 8b48 f6bb a5b2 c0bd
000003f0: 1e0d 9abd c691 86bc e1e4 c9bd 8979 b4bd

cnn_layers.1.bias f4 [100]
-0.040554043 -0.04347218 -0.0580432 -0.06515112 -0.028169196 -0.017277842 -0.045777537 -0.043286365
-0.052117165 -0.08363982 -0.021723056 -0.06652945 -0.12942758 -0.09640165 -0.006291195 -0.0061954674
0.0077026915 -0.02348136 -0.07006941 -0.10323688 -0.017488787 0.00034652048 -0.0034047754 -0.2592964
-0.06611845 -0.07308041 -0.0023925293 -0.029287176 -0.06879971 -0.09479932 -0.10774561 -0.015128689
-0.058968782 -0.031345915 -0.10453233 -0.08831727 -0.053697895 -0.016307948 -0.06491968 -0.024736231
-0.113827504 -0.049536753 -0.042307694 -0.06921393 -0.10036683 -0.100391604 -0.097695336 -0.06032333
-0.08742991 -0.124979906 -0.095318764 -0.02192756 -0.04098068 -0.10041326 -0.0336662 -0.10215025
-0.0889461 -0.053952415 -0.07242278 -0.074094795 -0.047530595 -0.032404333 -0.055062223 -0.018334992
-0.08088612 -0.031019151 -0.024950333 -0.09154757 -0.07575169 -0.09517013 -0.059393194 -0.06269197
-0.022055637 -0.039475296 -0.05172211 -0.022402152 -0.07407368 -0.0632931 -0.04249666 -0.07015282
-0.03263503 -0.05805838 -0.09504609 -0.047371224 -0.029843358 -0.04261657 -0.029412389 -0.07827645
-0.042366505 -0.046928924 -0.09923934 -0.09673777 -0.0073956456 -0.036500666 -0.11049401 -0.020132963
-0.08898031 -0.025594288 -0.051180072 -0.019383162
00000000: ff1b 26bd e20f 32bd b5be 6dbd f36d 85bd
00000010: 16c3 e6bc 438a 8dbc 3a81 3bbd 0b4d 31bd
00000020: cf78 55bd 5b4b abbd 8df4 b1bc 9840 88bd
00000030: aa88 04be 3a6e c5bd 5e26 cebb 5903 cbbb
00000040: dc66 fc3b fb5b c0bc 8d80 8fbd db6d d3bd
00000050: a544 8fbc 31ad b539 a722 5fbb 7fc2 84be
00000060: 1c69 87bd 2fab 95bd fbcb 1cbb a9eb efbc
00000070: dde6 8cbd 2526 c2bd bba9 dcbd 52de 77bc
00000080: 4089 71bd 9364 00bd 0c15 d6bd afdf b4bd
00000090: 53f2 5bbd 3f98 85bc 9cf4 84bd a3a3 cabc
000000a0: 651e e9bd 0de7 4abd d54a 2dbd 08c0 8dbd
000000b0: 208d cdbd 1d9a cdbd 7e14 c8bd 9915 77bd
000000c0: 740e b3bd 77f5 ffbd 7c36 c3bd 6da1 b3bc
000000d0: 5cdb 27bd 78a5 cdbd 92e5 09bd 2634 d1bd
000000e0: 5f29 b6bd 35fd 5cbd 6552 94bd 03bf 97bd
000000f0: 71af 42bd 68ba 04bd ed88 61bd 4433 96bc
00000100: 9fa7 a5bd e01b febc a464 ccbc 4b7d bbbd
00000110: b423 9bbd 8fe8 c2bd 4746 73bd a664 80bd
00000120: 06ae b4bc d9b0 21bd 90da 53bd b884 b7bc
00000130: f1b3 97bd d09f 81bd fa10 2ebd 48ac 8fbd
00000140: 4fac 05bd a0ce 6dbd 86a7 c2bd 5408 42bd
00000150: 0f7a f4bc b68e 2ebd 40f2 f0bc 674f a0bd
00000160: 8088 2dbd 8b38 40bd ff3d cbbd 741e c6bd
00000170: 2c57 f2bb b981 15bd af4a e2bd e2ed a4bc
00000180: 4f3b b6bd 1dab d1bc 32a2 51bd 70c9 9ebc

lstm.weight_ih_l0 f4 [400, 100]
0.013397799 0.00257775 0.00043446955 -0.10423759 -0.11208468 -0.1602039 -0.09668291 -0.10957972
-0.08024806 0.0055515957 -0.081348784 -0.094711766 0.021745142 -0.13183077 -0.071440496 -0.13243979
-0.021683967 0.038918678 -0.12686788 -0.036872942 -0.08917091 -0.08458392 -0.1640787 -0.10283367
0.016976934 -0.053284697 0.02387714 -0.04011033 0.008064326 -0.0467554 -0.07809594 0.00048753258
-0.017551607 -0.12575436 -0.14229688 -0.027059555 0.020840911 -0.116178855 -0.1662927 -0.038524833
0.01923542 -0.036534954 -0.08621862 0.015892083 -0.13891926 -0.050295953 0.030929672 -0.11836863
-0.0728066 -0.11387028 -0.0052602007 -0.10796997 -0.16270101 -0.021407355 -0.070504285 -0.14210911
-0.004432835 -0.08695947 -0.042658515 -0.0691558 -0.16260643 -0.11205215 -0.07389448 0.0067890985
-0.14610243 -0.06316106 -0.03164564 0.014552631 -0.1185738 0.031985786 -0.15221252 -0.041856676
-0.021936385 0.0050779586 -0.15785961 -0.036199488 -0.03998263 -0.015514245 -0.068628035 -0.124397695
-0.1697251 -0.11093556 -0.07613707 -0.039543457 -0.16855003 -0.12905443 -0.009953768 0.12450328
-0.025109388 -0.14801987 -0.1334 -0.1648731 -0.10053077 -0.07123796 0.027103616 -0.14414291
0.033607572 0.017538117 -0.012300248 0.045888208 -0.025125492 0.07736895 0.018999618 0.06961188
-0.05779024 -0.060575712 0.01826547 0.15672521 0.04815303 -0.13810618 -0.09420012 -0.0048078434
-0.11962784 -0.019256905 0.1455436 -0.10705399 -0.060181238 0.11321072 0.03702621 0.12761642
-0.06916669 0.015079118 -0.054318067 0.15073109 0.11468051 -0.011693436 0.15608345 0.0039480277
-0.006769281 0.06950607 -0.011746888 0.086887784 -0.1246007 0.055010688 0.052448407 0.10278994
-0.004430179 0.016578143 -0.08470828 0.042995125 0.13111639 -0.067503855 -0.020609869 -0.05127806
-0.101040825 -0.07242891 0.1008939 0.12310852 -0.0083247665 -0.12198977 0.022695126 -0.09852274
-0.092680104 0.029032063 -0.09419165 0.12519115 -0.028033039 -0.037421003 -0.027851492 0.030854069
-0.011237865 0.020311795 0.029378789 -0.0004177727 0.056811437 -0.11430009 0.022126844 -0.073997095
-0.11477386 -0.02541206 -0.026916534 0.1230793 0.08895366 0.03898682 0.015020148 0.034497045
-0.10112775 -0.032749422 0.020414112 0.043657836 -0.043048207 0.1514729 -0.011219139 0.11171377
0.05137367 0.07528616 -0.08391518 -0.035903804 -0.02888441 -0.06722861 -0.0067562982 -0.13878031
-0.098588675 -0.044808842 0.0759991 0.029255964 0.15581386 -0.06584908 0.03226336 -0.12806353
-0.14315403 0.035080235 -0.13652089 0.029643763 -0.007731765 -0.07716938 -0.02422536 0.033788968
-0.05406067 -0.03163451 -0.07622336 -0.15816456 0.10619925 -0.12797357 -0.11633727 -0.09798839
0.05121931 -0.136031 -0.071956135 -0.065838955 -0.027484378 -0.020802874 0.005157737 0.064455725
-0.110154346 -0.013341135 0.012797514 -0.11530257 -0.12702844 -0.06978012 -0.14521061 -0.04205557
-0.15070193 0.016229931 -0.11492984 -0.07705997 -0.09717674 -0.08126007 -0.13102834 -0.0957931
-0.14633651 -0.07833525 0.03139525 -0.119249195 -0.03623698 -0.11648313 -0.054783013 -0.07005157
-0.08934978 -0.16408728 -0.0014382103 -0.031020047 -0.14496124 -0.12378188 -0.1473344 0.01303283
00000000: 7182 5b3c 78ef 283b 84c9 e339 857a d5bd
00000010: a78c e5bd 7e0c 24be b101 c6bd 556b e0bd
00000020: 1859 a4bd 29ea b53b 319a a6bd 3ef8 c1bd
00000030: de22 b23c a5fe 06be 654f 92bd 4c9e 07be
00000040: 93a2 b1bc 3169 1f3d a7e9 01be 1508 17bd
00000050: 3d9f b6bd 563a adbd 3f04 28be 769a d2bd
00000060: 3613 8b3c 0e41 5abd fe99 c33c bb4a 24bd
00000070: 3c20 043c 9782 3fbd c4f0 9fbd 849b ff39
00000080: 63c8 8fbc c0c5 00be 46b6 11be 00ac ddbc
00000090: 8fba aa3c 2eef edbd a248 2abe 37cc 1dbd
000000a0: 9993 9d3c ada5 15bd 6393 b0bd 1d30 823c
000000b0: da40 0ebe 2103 4ebd 3960 fd3c 416b f2bd
000000c0: a01b 95bd d234 e9bd c35d acbb 5c1f ddbd
000000d0: 189b 26be 7a5e afbc 8d64 90bd 0d85 11be
000000e0: 5141 91bb ce17 b2bd b2ba 2ebd 8ea1 8dbd
000000f0: 4d82 26be 997b e5bd fd55 97bd 1677 de3b
00000100: e09b 15be 965a 81bd dc9e 01bd 296e 6e3c
00000110: d2d6 f2bd 8703 033d 99dd 1bbe e871 2bbd
00000120: efb3 b3bc 0165 a63b f3a5 21be ea45 14bd
00000130: d4c4 23bd 762f 7ebc db8c 8cbd 38c4 febd
00000140: 6bcc 2dbe 2f32 e3bd c1ed 9bbd 52f8 21bd
00000150: 6198 2cbe d826 04be 2115 23bc 93fb fe3d
00000160: 34b2 cdbc 8592 17be 029a 08be 7ed4 28be
00000170: 14e3 cdbd 35e5 91bd 6708 de3c 339a 13be
00000180: 18a8 093d 19ac 8f3c fb86 49bc 46f5 3b3d
00000190: fad3 cdbc 9d73 9e3d 16a5 9b3c ac90 8e3d
000001a0: 75b5 6cbd 3d1e 78bd 78a1 953c 937c 203e
000001b0: 1d3c 453d b56b 0dbe feeb c0bd 1d8b 9dbb
000001c0: 71ff f4bd a8c0 9dbc 6209 153e 1f3f dbbd
000001d0: 9a80 76bd 06db e73d cca8 173d e1ad 023e
000001e0: 44a7 8dbd 680e 773c 9f7c 5ebd 4059 1a3e
000001f0: 9ddd ea3d d395 3fbc 57d4 1f3e 755e 813b
00000200: d8d0 ddbb 3359 8e3d 0576 40bc 39f2 b13d
00000210: a72e ffbd e352 613d 24d4 563d 8883 d23d
00000220: 092b 91bb e3ce 873c 897b adbd a81b 303d
00000230: 6043 063e 763f 8abd 07d6 a8bc f108 52bd
00000240: 7eee cebd 9c55 94bd 76a1 ce3d 5220 fc3d
00000250: 9a64 08bc c6d5 f9bd 21eb b93c 4ac6 c9bd
00000260: 11cf bdbd a6d4 ed3c 8de7 c0bd 1c32 003e
00000270: 8ba5 e5bc c446 19bd d028 e4bc acc1 fc3c
00000280: 061f 38bc ec64 a63c c9ab f03c 8108 dbb9
00000290: 1cb3 683d 2a16 eabd 5b43 b53c ca8b 97bd
000002a0: 8f0e ebbd f42c d0bc 1080 dcbc 0011 fc3d
000002b0: 562d b63d a5b0 1f3d 1117 763c c64c 0d3d
000002c0: 111c cfbd 4224 06bd 7f3b a73c 8fd2 323d
000002d0: 5153 30bd b61b 1b3e 7bd0 37bc 30ca e43d
000002e0: 336d 523d a12f 9a3d b9db abbd de0f 13bd
000002f0: 009f ecbc 27af 89bd f063 ddbb 6d1c 0ebe
00000300: dce8 c9bd 7a89 37bd 6ba5 9b3d 34aa ef3c
00000310: ab8d 1f3e e2db 86bd 9626 043d 1623 03be
00000320: f896 12be 4bb0 0f3d 22cc 0bbe 7ad7 f23c
00000330: bf5a fdbb fb0a 9ebd 4374 c6bc 4d66 0a3d
00000340: b96e 5dbd 3093 01bd fe1a 9cbd e4f5 21be
00000350: fe7e d93d 810b 03be 3c42 eebd 23ae c8bd
00000360: 57cb 513d b64b 0bbe bd5d 93bd 93d6 86bd
00000370: eb26 e1bc ca6a aabc 3c02 a93b 5d01 843d
00000380: 9a98 e1bd c794 5abc aaac 513c c123 ecbd
00000390: be13 02be e1e8 8ebd 17b2 14be 7642 2cbd
000003a0: 9b51 1abe a2f4 843c 5660 ebbd 9ed1 9dbd
000003b0: 9904 c7bd ae6b a6bd 4b2c 06be 2c2f c4bd
000003c0: 3dd9 15be 3b6e a0bd 4e98 003d ec38 f4bd
000003d0: 3a6d 14bd b58e eebd 2764 60bd 3377 8fbd
000003e0: 04fd b6bd 7f06 28be 5482 bcba c11d febc
000003f0: b870 14be 5b81 fdbd d4de 16be a787 553c

lstm.weight_hh_l0 f4 [400, 100]
0.09737206 0.19030118 0.12679258 -0.017617587 0.005077532 0.11575017 0.17550775 -0.18887828
-0.32769898 0.09773068 -0.14978948 0.046672087 -0.11902703 0.077815235 -0.083242364 0.22734593
0.2512873 0.09969609 -0.22230642 0.09603929 -0.044198725 0.18339197 0.11250306 -0.021253329
0.06285392 0.20232408 -0.14174536 0.18539187 0.0738606 -0.19481333 0.10689817 -0.14612736
0.121070534 0.18195026 -0.2923897 0.015805615 -0.4317523 -0.32784265 -0.24157664 -0.095603235
-0.15151028 0.15345177 -0.14747995 0.10618759 -0.17590947 0.008502475 0.11862319 0.2672534
0.0983959 -0.16852891 0.009305861 0.052922945 -0.32559213 -0.13967125 0.08036854 0.034469612
0.049207207 0.013882203 0.36125526 -0.111177266 -0.09354252 0.06849449 -0.14649342 -0.115506105
-0.076657265 -0.14013644 -0.059183028 -0.10361046 -0.32346737 0.02850857 0.10910479 -0.21356905
0.2564535 0.11986816 -0.04804507 -0.089174286 -0.16857827 0.07816866 0.120833345 -0.046171773
-0.21171603 0.025531422 0.18439345 -0.12704241 0.17749165 -0.17056149 -0.06739543 -0.13960323
0.12178592 -0.020259628 -0.1812558 0.113307625 -0.06524001 0.017835524 -0.010904318 -0.3818712
0.20386817 0.20869586 0.24898332 -0.055633634 0.09378528 0.24635656 0.28335342 -0.071424335
-0.011168795 0.16119404 0.041528597 0.09207068 -0.30225334 0.21720064 -0.13241485 -0.02654935
-0.1231108 0.17656271 0.014781603 0.16081363 0.13783532 -0.07374158 -0.10352946 -0.2278452
-0.08051674 -0.054458752 -0.19614916 0.1050547 0.01645047 0.08035871 0.22336763 -0.14451809
-0.046222858 0.044808306 0.011845911 -0.2656205 -0.03584878 -0.12687941 -0.1442358 0.12686901
-0.07318934 -0.36683738 -0.03995871 -0.13665791 0.14907146 -0.024262669 -0.24805592 0.022620523
0.020997386 -0.22391279 0.1691558 0.12690394 0.12238158 -0.18112269 0.035409614 0.054638363
-0.17018372 0.06431291 0.11890085 -0.06962312 -0.15943792 -0.010499728 -0.01891375 -0.037136387
-0.124622725 0.11128211 0.040112846 -0.18116857 -0.006860103 -0.06274336 0.0064479266 -0.18565966
-0.22557227 -0.0408276 0.06327436 0.019144032 0.22348526 -0.17631805 -0.028642017 -0.035041414
0.18467417 0.049236268 0.058485314 -0.47067994 -0.00820616 0.00872239 0.12114077 -0.12893258
0.017998565 0.043898236 0.04489763 0.30346927 0.037111517 -0.048585467 -0.023513949 -0.032582827
0.103538975 0.07468115 0.11831867 -0.04412567 -0.24493916 0.14748234 0.20437324 0.16574363
0.35555983 0.21097401 0.23847598 -0.11201599 0.13441382 0.5922752 0.1454118 -0.104949236
-0.40574366 0.26528674 -0.3397726 -0.120890476 0.11459331 -0.048993796 0.090917826 -0.105732545
0.2807405 0.2534782 -0.23545703 -0.3517912 -0.08016139 0.08741998 -0.25377375 0.07648135
0.24966325 0.24078262 0.1342185 0.06839029 0.08730192 0.1072897 0.18311274 -0.09564616
-0.14571266 -0.30382746 0.0015481845 0.15423842 0.036879133 -0.39760962 -0.08650184 -0.39006495
0.07652115 0.24324742 -0.13480957 0.39170414 0.40073192 0.076125495 0.5723619 0.2712683
0.034159176 -0.27311602 -0.08851995 0.042984203 -0.6611603 -0.049583603 0.188869 -0.052826755
00000000: 016b c73d 50de 423e ead5 013e c252 90bc
00000010: 6d61 a63b 6d0e ed3d 4eb8 333e 4f69 41be
00000020: 29c8 a7be 0627 c83d 6a62 19be 3b2b 3f3d
00000030: 72c4 f3bd 985d 9f3d f97a aabd 5fcd 683e
00000040: bba8 803e 772d cc3d 4ba4 63be 3fb0 c43d
00000050: b909 35bd 1bcb 3b3e 0168 e63d 761b aebc
00000060: 8eb9 803d 0b2e 4f3e b225 11be 5ed7 3d3e
00000070: 3a44 973d 257d 47be 6eed da3d 69a2 15be
00000080: d4f3 f73d 2b51 3a3e 1ab4 95be c77a 813c
00000090: a30e ddbe feda a7be de5f 77be a1cb c3bd
000000a0: 8325 1bbe 7622 1d3e fc04 17be e178 d93d
000000b0: 9d21 34be f74d 0b3c b7f0 f23d 70d5 883e
000000c0: ca83 c93d d892 2cbe 9c77 183c bbc5 583d
000000d0: 03b4 a6be fb05 0fbe 4398 a43d 0230 0d3d
000000e0: 7f8d 493d 2e72 633c 73f6 b83e e8b0 e3bd
000000f0: 3993 bfbd d746 8c3d 5f02 16be 778e ecbd
00000100: 7cfe 9cbd ed7f 0fbe e769 72bd b931 d4bd
00000110: 849d a5be ce8a e93c 5572 df3d d8b1 5abe
00000120: e04d 833e 707d f53d e8ca 44bd 02a1 b6bd
00000130: c89f 2cbe e416 a03d 7977 f73d 9d1e 3dbd
00000140: 16cc 58be 4627 d13c a3d1 3c3e 6817 02be
00000150: 5fc0 353e aca7 2ebe 9d06 8abd 26f4 0ebe
00000160: e56a f93d 85f7 a5bc 1f9b 39be d40d e83d
00000170: 8e9c 85bd ce1b 923c 06a8 32bc 9f84 c3be
00000180: d1c2 503e 5eb4 553e 7cf5 7e3e 18e0 63bd
00000190: 7f12 c03d e544 7c3e b313 913e ec46 92bd
000001a0: 52fd 36bc 0d10 253e e419 2a3d 8d8f bc3d
000001b0: f3c0 9abe d869 5e3e c297 07be 067e d9bc
000001c0: 8421 fcbd dbcc 343e 892e 723c 54ac 243e
000001d0: b424 0d3e d305 97bd 4107 d4bd 4150 69be
000001e0: f6e5 a4bd 2410 5fbd 53db 48be eb26 d73d
000001f0: 23c3 863c 1b93 a43d 7cba 643e 8dfc 13be
00000200: 2e54 3dbd ea88 373d 5a15 423c 69ff 87be
00000210: 2cd6 12bd adec 01be 8db2 13be f3e9 013e
00000220: 4be4 95bd 1cd2 bbbe bfab 23bd 0df0 0bbe
00000230: 30a6 183e 81c2 c6bc 5f02 7ebe ad4e b93c
00000240: b602 ac3c 6549 65be 2e37 2d3e 1bf3 013e
00000250: 32a3 fa3d 3a78 39be ac09 113d 7acc 5f3d
00000260: a444 2ebe 7db6 833d 4a82 f33d 9196 8ebd
00000270: b243 23be 0d07 2cbc 02f1 9abc 531c 18bd
00000280: 333a ffbd e0e7 e33d 5e4d 243d 4184 39be
00000290: b7ca e0bb 977f 80bd 2149 d33b 911d 3ebe
000002a0: 6bfc 66be d73a 27bd fd95 813d f2d3 9c3c
000002b0: 52d9 643e b88c 34be aaa2 eabc 9687 0fbd
000002c0: 3a1b 3d3e f8ab 493d 4c8e 6f3d f6fc f0be
000002d0: 2173 06bc 5be8 0e3c a718 f83d e706 04be
000002e0: ba71 933c a3ce 333d 94e6 373d 5360 9b3e
000002f0: 3f02 183d 8e01 47bd 53a0 c0bc 9275 05bd
00000300: 3e0c d43d 6ef2 983d 0f51 f23d 1ebd 34bd
00000310: 55d1 7abe 9c05 173e 3847 513e b3b8 293e
00000320: f00b b63e 9209 583e 0c33 743e a468 e5bd
00000330: c7a3 093e 599f 173f d5e6 143e a0ef d6bd
00000340: a2bd cfbe aad3 873e adf6 adbe 6d95 f7bd
00000350: e6af ea3d b8ad 48bd 2033 ba3d 4e8a d8bd
00000360: 38bd 8f3e e5c7 813e a61b 71be fa1d b4be
00000370: a82b a4bd 3f09 b33d a2ee 81be 41a2 9c3d
00000380: b9a7 7f3e b88f 763e 9370 093e 3510 8c3d
00000390: 59cb b23d b4ba db3d e881 3b3e 22e2 c3bd
000003a0: b335 15be 468f 9bbe 74ec ca3a adf0 1d3e
000003b0: 930e 173d 7d93 cbbe e027 b1bd 98b6 c7be
000003c0: 1fb7 9c3d da15 793e 850b 0abe 728d c83e
000003d0: bc2c cd3e afe7 9b3d 4f86 123f aee3 8a3e
000003e0: 7eea 0b3d ddd5 8bbe f349 b5bd 3410 303d
000003f0: cd41 29bf 2d18 4bbd e066 413e de60 58bd

lstm.bias_ih_l0 f4 [400]
-1.2084585 -1.4154326 -1.8603439 -1.4140302 -1.3652406 -1.2452126 -1.6330152 -1.4644772
-1.1889735 -1.3345964 -1.6700712 -1.6300458 -1.5353178 -1.2783794 -1.5506998 -1.7076354
-1.2608943 -1.7750825 -1.2750529 -0.95892334 -1.4299419 -1.4155769 -1.6116965 -1.0898671
-1.2942795 -1.4611405 -1.384821 -1.3336558 -1.4570522 -1.5507382 -1.5463477 -1.7029494
-1.335492 -1.7276325 -1.6117272 -1.6725873 -1.6201503 -1.4448854 -1.6235774 -1.3236251
-1.2647784 -1.3017279 -1.1583945 -1.403689 -1.113229 -1.3945956 -1.5368193 -1.4379449
-1.5693016 -1.544383 -1.2617499 -1.670677 -1.40923 -1.4533907 -1.4056894 -1.6729351
-1.212933 -1.3130937 -1.0619483 -1.338101 -1.6397693 -1.4884188 -1.2358124 -1.6488208
-1.4289379 -1.0135 -1.7281984 -1.0376192 -1.5675793 -1.6593797 -1.4885083 -1.3982847
-1.7503319 -1.6438695 -1.5270078 -1.6744177 -1.907037 -1.7135739 -1.0207238 -1.5943134
-1.7789043 -1.8273119 -1.736246 -1.4250655 -1.7360841 -1.4514621 -1.4615895 -1.0672182
-1.6669937 -1.4636066 -1.3471773 -1.3732623 -1.3214371 -1.932455 -1.5015937 -1.401237
-1.4421175 -1.8497891 -1.3215753 -1.6741148 -1.1655794 -1.0567391 -0.82485324 -0.85058635
-1.0630999 -1.1579502 -0.94803756 -0.9598736 -1.1180638 -0.8520463 -1.0224388 -1.1364219
-1.0306525 -0.7517132 -0.98899573 -1.0265632 -0.857779 -1.1078236 -0.8476285 -0.743821
-1.0680381 -0.9526563 -1.027129 -0.95065224 -1.2008032 -0.93873954 -1.017741 -0.97796583
-1.1211562 -1.0193994 -0.994177 -1.0220678 -0.9169892 -0.8250754 -1.089634 -1.2774734
-1.1614912 -0.91195154 -0.91199106 -1.0841751 -1.0557842 -1.0398822 -0.8103365 -1.0924035
-1.2200358 -0.98156077 -1.1353017 -0.9233958 -1.1619925 -1.0960511 -0.8190567 -1.3172995
-0.6981581 -1.2045801 -0.93018365 -1.2415413 -0.9033199 -1.0512993 -1.1544662 -0.91483873
-0.90417534 -0.93145365 -1.0227796 -0.91155607 -0.8877998 -0.8268205 -0.9421625 -0.87928396
-1.110359 -1.1468484 -0.7318543 -1.1593784 -1.1391954 -0.92859507 -1.1086904 -1.1043683
-1.4649761 -1.0419611 -0.8192633 -1.0244317 -1.1102375 -1.0740392 -1.0056581 -1.0738977
-1.266416 -1.0368302 -1.1333303 -0.71682817 -1.0077928 -1.1395665 -1.2900625 -1.0552227
-1.0082814 -1.2040701 -0.92426074 -0.85735303 -0.66027904 -1.0657203 -0.96768904 -1.0641078
-0.0035022656 -0.00625755 -0.01961406 -0.044185065 0.025670879 0.018387632 0.008049558 0.0041135643
0.028554294 -0.01821889 0.0702212 0.024934255 -0.0067180186 0.05956504 0.0051513705 0.0085927015
0.034278553 -0.07596208 0.08788899 -0.027873442 -0.09052612 -0.043768108 0.021402994 -0.007583132
0.016640328 -0.033029407 0.025047513 -0.006350775 0.011808046 -0.014767673 0.084215805 0.003948612
0.035869386 0.066081375 0.0047856467 0.0031246224 0.010168237 0.020246506 -0.010085139 -0.048468553
-0.047090214 -0.01071812 -0.008110896 -0.05338502 0.011549626 0.06515107 -0.051820777 -0.053298462
-0.0018798524 0.03760457 0.039348155 -0.10907938 -0.037579313 0.024839167 0.0023175671 -0.030462459
00000000: c5ae 9abf e52c b5bf c01f eebf f1fe b4bf
00000010: 34c0 aebf 2063 9fbf a406 d1bf fd73 bbbf
00000020: 4930 98bf 0ed4 aabf e5c4 d5bf 57a5 d0bf
00000030: 4b85 c4bf f0a1 a3bf 557d c6bf cc93 dabf
00000040: fc64 a1bf e735 e3bf ef34 a3bf 007c 75bf
00000050: 5608 b7bf a031 b5bf 124c cebf c480 8bbf
00000060: f3aa a5bf a706 bbbf d141 b1bf 3cb5 aabf
00000070: b080 babf 977e c6bf b9ee c5bf 3ffa d9bf
00000080: 67f1 aabf 1023 ddbf 144d cebf 5717 d6bf
00000090: 1661 cfbf 01f2 b8bf 62d1 cfbf 8c6c a9bf
000000a0: 42e4 a1bf 059f a6bf 4546 94bf 15ac b3bf
000000b0: 4a7e 8ebf 1c82 b2bf 7fb6 c4bf 940e b8bf
000000c0: e0de c8bf 58ae c5bf 0581 a1bf bed8 d5bf
000000d0: a661 b4bf b508 babf a1ed b3bf bd22 d6bf
000000e0: 6341 9bbf 7413 a8bf eced 87bf e546 abbf
000000f0: f6e3 d1bf 8284 bebf 1a2f 9ebf 8f0c d3bf
00000100: 70e7 b6bf 5eba 81bf 9b35 ddbf b5d0 84bf
00000110: 70a6 c8bf 8e66 d4bf 7187 bebf fefa b2bf
00000120: e00a e0bf 516a d2bf fe74 c3bf 5253 d6bf
00000130: ca19 f4bf 6456 dbbf 14a7 82bf 7612 ccbf
00000140: 23b3 e3bf 5be5 e9bf 4f3d debf 8c68 b6bf
00000150: 0138 debf 83c9 b9bf 5d15 bbbf 9b9a 88bf
00000160: 0d60 d5bf 7657 bbbf 4e70 acbf 0fc7 afbf
00000170: da24 a9bf af5a f7bf 3934 c0bf bc5b b3bf
00000180: 4e97 b8bf e4c5 ecbf 6129 a9bf 6549 d6bf
00000190: b531 95bf 3a43 87bf 9529 53bf 07c0 59bf
000001a0: a813 88bf b637 94bf 97b2 72bf 47ba 75bf
000001b0: b71c 8fbf b51f 5abf 46df 82bf 4676 91bf
000001c0: 6cec 83bf 4770 40bf d32e 7dbf 6c66 83bf
000001d0: 6897 5bbf 2acd 8dbf 2efe 58bf 0e6b 3ebf
000001e0: 79b5 88bf 49e1 73bf f778 83bf f25d 73bf
000001f0: ebb3 99bf 3c51 70bf 5645 82bf f85b 7abf
00000200: 0c82 8fbf ae7b 82bf 6282 7ebf 1ed3 82bf
00000210: cebf 6abf 2438 53bf 2079 8bbf 4084 a3bf
00000220: beab 94bf a875 69bf 3f78 69bf 40c6 8abf
00000230: f023 87bf dc1a 85bf 3672 4fbf e1d3 8bbf
00000240: 222a 9cbf 9147 7bbf 9151 91bf ab63 6cbf
00000250: 2cbc 94bf 674b 8cbf b3ad 51bf 459d a8bf
00000260: 7dba 32bf ae2f 9abf 8420 6ebf d3ea 9ebf
00000270: f93f 67bf fa90 86bf 8cc5 93bf df32 6abf
00000280: 0978 67bf bf73 6ebf 71ea 82bf bd5b 69bf
00000290: d946 63bf 82aa 53bf 9031 71bf c118 61bf
000002a0: 3e20 8ebf eecb 92bf ce5a 3bbf 8366 94bf
000002b0: 28d1 91bf 68b8 6dbf 91e9 8dbf f15b 8dbf
000002c0: 5684 bbbf fb5e 85bf 3dbb 51bf 9420 83bf
000002d0: 431c 8ebf 1e7a 89bf 68b9 80bf 7b75 89bf
000002e0: eb19 a2bf dab6 84bf f810 91bf 0d82 37bf
000002f0: 5bff 80bf 51dd 91bf c520 a5bf 8a11 87bf
00000300: 5d0f 81bf f81e 9abf 5a9c 6cbf 7d7b 5bbf
00000310: 0c08 29bf 8669 88bf 78ba 77bf af34 88bf
00000320: 4486 65bb 220c cdbb aaad a0bc 66fb 34bd
00000330: bc4b d23c a9a1 963c 4be2 033c 14cb 863b
00000340: b2ea e93c c83f 95bc 22d0 8f3d ec42 cc3c
00000350: d322 dcbb 79fa 733d d4cc a83b 67c8 0c3c
00000360: ab67 0c3d 0292 9bbd 25ff b33d d856 e4bc
00000370: c265 b9bd 3046 33bd 5555 af3c ec7b f8bb
00000380: 4c51 883c d849 07bd 7130 cd3c 291a d0bb
00000390: 8976 413c 1cf4 71bc 5679 ac3d 5c63 813b
000003a0: c7eb 123d ac55 873d ead0 9c3b 77c6 4c3b
000003b0: ad98 263c 00dc a53c 243c 25bc f686 46bd
000003c0: abe1 40bd 0e9b 2fbc 90e3 04bc 40aa 5abd
000003d0: a43a 3d3c ed6d 853d 0642 54bd 7d4f 5abd
000003e0: 6165 f6ba 4007 1a3d 882b 213d 0365 dfbd
000003f0: c4ec 19bd 827b cb3c 53e2 173b 688c f9bc

lstm.bias_hh_l0 f4 [400]
-1.3814211 -1.4792677 -1.8718214 -1.2449704 -1.3946788 -1.3663931 -1.5528188 -1.5351199
-1.0881572 -1.3150408 -1.7069128 -1.6273609 -1.4187758 -1.2685821 -1.480042 -1.7437941
-1.1127117 -1.802602 -1.2810253 -0.97545564 -1.3082577 -1.438128 -1.4373198 -1.098001
-1.3204137 -1.3706619 -1.402292 -1.300185 -1.5040205 -1.5387473 -1.5184491 -1.738155
-1.3387351 -1.646878 -1.6739933 -1.7259364 -1.5430312 -1.4666835 -1.5719781 -1.3502269
-1.1785045 -1.2789582 -1.2200791 -1.3554 -1.2486999 -1.3996588 -1.460823 -1.507915
-1.5609131 -1.4666924 -1.2262306 -1.4855671 -1.4474611 -1.5567013 -1.3538657 -1.5787947
-1.3190587 -1.4561636 -1.1045336 -1.1908075 -1.6039543 -1.5852144 -1.3682404 -1.6286424
-1.3138446 -0.9881356 -1.6510104 -1.0483943 -1.4003334 -1.5257211 -1.4704278 -1.3338842
-1.6714997 -1.7483708 -1.5716474 -1.701228 -1.9000597 -1.8447945 -1.0955801 -1.5079074
-1.7061198 -1.6768938 -1.5749022 -1.3037559 -1.6042324 -1.5021232 -1.5974772 -0.9756716
-1.5139441 -1.4029499 -1.3048496 -1.213554 -1.3067654 -1.9952295 -1.4919975 -1.3621476
-1.4126382 -1.8051947 -1.3856826 -1.522397 -0.9964549 -1.03803 -0.85745245 -0.79269934
-1.1767528 -1.0418237 -0.89705694 -0.8018103 -0.9903956 -0.8469565 -1.0389802 -1.101542
-1.1035113 -0.7040676 -1.0988647 -0.9929025 -0.959412 -1.0006236 -1.0177215 -0.91763675
-0.8978175 -1.0641261 -1.1613907 -1.0986748 -1.1452165 -0.95181465 -0.955793 -1.0284411
-1.1495745 -0.9713495 -1.129433 -1.088032 -0.9971521 -0.8620727 -1.1462182 -1.3672943
-1.1368823 -1.0547754 -0.7813228 -1.0291661 -1.0983733 -0.94095737 -0.83599186 -1.2167803
-1.0399911 -0.9572442 -1.0878392 -0.9706324 -1.1520524 -0.9696334 -0.81288797 -1.3363694
-0.6406662 -1.1252043 -0.9337568 -1.2984178 -0.93493015 -1.0376159 -1.0225403 -1.0185606
-1.0002286 -0.8965941 -1.1359261 -0.8594597 -0.90892696 -1.0152072 -0.88626003 -0.9293255
-1.1979706 -1.0268776 -0.8797025 -1.2065563 -1.1575606 -0.74698406 -1.1153771 -1.0425963
-1.4616439 -0.8583559 -0.98220056 -0.88311374 -0.9751582 -1.0766507 -0.9947716 -1.129769
-1.0776186 -1.0489889 -1.1236178 -0.7143424 -1.1518185 -1.1968312 -1.2175708 -1.1867495
-0.97907156 -1.2271665 -1.0609424 -0.792268 -0.732728 -1.0474861 -1.0563834 -1.079008
0.0037102746 -0.03772816 0.0066447677 0.044073686 -0.02771667 -0.018666295 -0.008393131 -0.0057494687
-0.026875611 0.017509835 -0.07069807 -0.025729058 0.02592096 -0.06784297 -0.0051077465 -0.008375797
-0.03360546 0.041343406 -0.088276334 0.02763781 0.09759 0.04231377 -0.021228341 0.0074576037
-0.018050287 0.039473698 -0.02970875 0.006419835 -0.012026652 0.014333948 -0.09249914 0.005779427
-0.049279023 -0.06700001 -0.0031285544 -0.0034543697 -0.009655946 -0.02000793 0.010838693 0.048417646
0.04723944 0.010773551 0.012514554 0.054508187 -0.011614643 -0.061933532 0.051938266 0.061223112
0.0015545202 -0.035418928 -0.038946666 -0.11327397 0.039363846 -0.016407877 -0.0023881916 0.007767655
00000000: 68d2 b0bf a558 bdbf d897 efbf 315b 9fbf
00000010: d684 b2bf f8e5 aebf c4c2 c6bf cf7e c4bf
00000020: bc48 8bbf 4253 a8bf 1e7c dabf 5d4d d0bf
00000030: 729a b5bf e660 a2bf 0472 bdbf a534 dfbf
00000040: 566d 8ebf aabb e6bf a3f8 a3bf 76b7 79bf
00000050: fd74 a7bf 9414 b8bf 18fa b7bf 4c8b 8cbf
00000060: 5103 a9bf d971 afbf 4e7e b3bf 766c a6bf
00000070: be83 c0bf acf5 c4bf 8a5c c2bf dd7b debf
00000080: ac5b abbf e6cc d2bf 6a45 d6bf 7ceb dcbf
00000090: 0c82 c5bf 49bc bbbf 9436 c9bf 3cd4 acbf
000000a0: 3cd9 96bf e7b4 a3bf 8d2b 9cbf bf7d adbf
000000b0: 66d5 9fbf 0528 b3bf 40fc babf 5c03 c1bf
000000c0: 00cc c7bf 94bc bbbf 20f5 9cbf 1027 bebf
000000d0: 6846 b9bf fd41 c7bf 794b adbf f215 cabf
000000e0: ead6 a8bf 9263 babf 5b61 8dbf 616c 98bf
000000f0: 604e cdbf 4ee8 cabf 8022 afbf 5b77 d0bf
00000100: 0f2c a8bf 74f6 7cbf 4f54 d3bf c931 86bf
00000110: 203e b3bf d44a c3bf fa36 bcbf b8bc aabf
00000120: b4f3 d5bf 9dca dfbf be2b c9bf d7c1 d9bf
00000130: 2835 f3bf 3a22 ecbf f83b 8cbf 1c03 c1bf
00000140: 2262 dabf 75a4 d6bf 6596 c9bf 79e1 a6bf
00000150: 7d57 cdbf 9345 c0bf 227a ccbf 9dc5 79bf
00000160: ecc8 c1bf dd93 b3bf 5005 a7bf bd55 9bbf
00000170: 1744 a7bf ae63 ffbf c6f9 bebf da5a aebf
00000180: 54d1 b4bf 9f10 e7bf 0c5e b1bf e8dd c2bf
00000190: ab17 7fbf 2bde 84bf 0182 5bbf 58ee 4abf
000001a0: d69f 96bf 7b5a 85bf 86a5 65bf 7143 4dbf
000001b0: 918a 7dbf 24d2 58bf 4efd 84bf 54ff 8cbf
000001c0: dc3f 8dbf c63d 34bf 99a7 8cbf dc2e 7ebf
000001d0: 069c 75bf 6f14 80bf b344 82bf 3eea 6abf
000001e0: 5ed7 65bf 4935 88bf 73a8 94bf 60a1 8cbf
000001f0: 7496 92bf 20aa 73bf daae 74bf f5a3 83bf
00000200: 4225 93bf 5caa 78bf 4391 90bf a244 8bbf
00000210: 5c45 7fbf ccb0 5cbf 47b7 92bf 8003 afbf
00000220: 5c85 91bf e102 87bf c504 48bf b7bb 83bf
00000230: 7f97 8cbf 95e2 70bf 9003 56bf 75bf 9bbf
00000240: 6e1e 85bf f50d 75bf 513e 8bbf 5d7b 78bf
00000250: 7476 93bf e539 78bf 6d19 50bf 270e abbf
00000260: b302 24bf b206 90bf b00a 6fbf 8e32 a6bf
00000270: 9557 6fbf 99d0 84bf 9ae2 82bf 3260 82bf
00000280: 7e07 80bf 3187 65bf 0766 91bf 8d05 5cbf
00000290: 70af 68bf 4ff2 81bf f0e1 62bf 47e8 6dbf
000002a0: 1a57 99bf ba70 83bf 2f34 61bf 7070 9abf
000002b0: f22a 94bf 593a 3fbf adc4 8ebf cc73 85bf
000002c0: 2617 bbbf 36bd 5bbf 7f71 7bbf be13 62bf
000002d0: f8a3 79bf b1cf 89bf 5aa9 7ebf 459c 90bf
000002e0: 68ef 89bf 4545 86bf b5d2 8fbf 25df 36bf
000002f0: ca6e 93bf c431 99bf 5cd9 9bbf 68e7 97bf
00000300: 6fa4 7abf cb13 9dbf f6cc 87bf 13d2 4abf
00000310: 1094 3bbf 0614 86bf 9237 87bf ef1c 8abf
00000320: 1428 733b d888 1abd 5abc d93b 9c86 343d
00000330: 120e e3bc 0fea 98bc 5883 09bc 0a66 bcbb
00000340: 3e2a dcbc c970 8f3c 26ca 90bd bfc5 d2bc
00000350: 3158 d43c 41f1 8abd e25e a7bb a43a 09bc
00000360: e1a5 09bd b457 293d 39ca b4bd b068 e23c
00000370: 44dd c73d 3451 2d3d 0fe7 adbc ea5e f43b
00000380: 32de 93bc 2caf 213d c45f f3bc 7b5d d23b
00000390: 6f0b 45bc efd8 6a3c 3070 bdbd 5961 bd3b
000003a0: cdd8 49bd 4d37 89bd 6f08 4dbb b562 62bb
000003b0: f933 1ebc ace7 a3bc c694 313c 9551 463d
000003c0: 257e 413d 8c83 303c d809 4d3c fa43 5f3d
000003d0: 584b 3ebc 04ae 7dbd 38bd 543d 16c5 7a3d
000003e0: 0bc1 cb3a 7013 11bd 8a86 1fbd 2ffc e7bd
000003f0: fc3b 213d d069 86bc 3583 1cbb d087 fe3b

lstm.weight_ih_l0_reverse f4 [400, 100]
0.048930045 0.11526063 -0.03380073 0.01445082 -0.080884226 -0.15236022 -0.13142407 0.003961967
0.022759734 0.03287961 0.0029832704 -0.034025624 -0.08936144 -0.13563246 0.062117346 -0.14096636
-0.10497953 0.1349611 -0.04894088 0.04680471 0.014845363 -0.03631936 -0.14392915 -0.08185355
0.106190324 -0.01265919 0.0825034 0.0106219165 -0.011256927 -0.018235056 -0.0821868 0.032769386
-0.11590116 -0.0770499 -0.025536686 0.08664133 0.06439094 -0.12017067 -0.007491973 -0.032119796
0.017857084 -0.10670768 0.035123076 -0.11728834 -0.1324525 -0.044049058 -0.037702102 -0.010659411
-0.046925142 0.049834676 -0.12604648 -0.12960023 -0.050589938 -0.010064014 -0.017213074 0.044102974
0.13724382 0.037305206 -0.12364722 -0.09739651 -0.035805836 0.13313495 4.628442e-05 -0.001846439
0.04996695 -0.13967013 0.033786632 0.039824937 -0.09037429 0.06638243 0.03974731 -0.0348828
0.04929573 0.007173275 -0.1718489 -0.105617955 -0.032614823 0.13954686 -0.020914633 -0.094812624
0.03571264 -0.121672064 0.0211992 -0.03394647 -0.10693948 0.0660143 -0.030099759 0.111308806
0.008962882 -0.015878046 -0.13397314 -0.03660938 -0.16005963 -0.051805966 -0.022863317 -0.0046843323
-0.038374547 0.0113994535 0.07229329 0.0077705504 -0.048790853 -0.040094495 -0.001120803 -0.040538073
-0.014787025 -0.17659296 -0.15898742 -0.0684642 0.016286843 -0.018336255 0.025302248 -0.001454448
-0.10695512 -0.11400146 -0.09869424 -0.13141283 -0.15893076 -0.13617273 -0.12575625 -0.10128675
-0.044884097 -0.034400653 -0.07132266 -0.090573296 0.060930565 -0.015445879 -0.15121618 -0.022783522
0.015792739 0.025492959 -0.04777036 -0.065829754 -0.06165573 0.12515216 -0.08025971 0.0094821965
-0.0062285764 -0.096249916 -0.12684855 -0.07575318 -0.03834583 -0.09292276 -0.1647537 -0.05366111
-0.08716664 -0.11772794 -0.103618905 -0.025961883 -0.091978684 0.029298965 -0.12209827 -0.14499791
-0.11892846 -0.09811458 0.008178898 -0.00041188832 -0.01905951 -0.008846476 0.004393151 -0.051504396
-0.054394003 -0.05566338 -0.050691653 -0.054773584 -0.048970748 -0.05069662 -0.047815394 -0.0146275135
0.0024190878 -0.10024424 0.035465896 -0.035830896 -0.051527224 -0.101272255 -0.047957733 -0.10989632
-0.0378556 -0.034857366 -0.12084398 -0.05791798 -0.066308804 -0.15943931 -0.10791275 -0.0466009
-0.06083317 -0.072308265 -0.14980413 0.032747693 0.0074822195 -0.045524247 -0.15734239 -0.020999545
0.008831969 0.023316836 0.0009043392 0.011929334 -0.14351332 0.0044611963 -0.032808673 -0.089246035
-0.027974965 0.14058807 0.03652829 0.046514828 -0.037126742 -0.08871787 -0.061843883 0.14581655
-0.061944246 -0.03068409 0.012435661 0.15648296 0.086608954 -0.123746015 0.004533252 0.031500217
-0.12879007 0.04012014 -0.050983366 -0.019129336 0.007920192 -0.12486086 -0.15770733 -0.009653484
-0.035652816 -0.03780679 -0.032211438 0.021504007 0.12701303 0.033755895 0.055296037 -0.0118240295
-0.021764565 0.0513644 0.15494916 0.0909113 -0.01410944 -0.014394322 0.036163755 0.0071082525
0.1291374 -0.013867133 0.0105545325 -0.05728263 -0.013347383 0.042986244 -0.019059673 0.15942053
-0.028518235 -0.057242654 -0.07303542 0.035315193 0.027114145 0.039508477 -0.0043540485 0.039376263
00000000: df6a 483d c40d ec3d a272 0abd 22c3 6c3c
00000010: a1a6 a5bd 5104 1cbe 0894 06be 63d3 813b
00000020: 9f72 ba3c c5ac 063d f982 433b 745e 0bbd
00000030: 2103 b7bd 3ce3 0abe c26e 7e3d 7c59 10be
00000040: 82ff d6bd 3e33 0a3e 3b76 48bd 4cb6 3f3d
00000050: f739 733c 9cc3 14bd 2a62 13be d6a2 a7bd
00000060: 507a d93d 7e68 4fbc 8bf7 a83d 8c07 2e3c
00000070: f96e 38bc af61 95bc 8e51 a8bd 3139 063d
00000080: 965d edbd 57cc 9dbd 5032 d1bc 0271 b13d
00000090: 66df 833d 0a1c f6bd 3a7f f5bb 0c90 03bd
000000a0: 0549 923c 8e89 dabd 37dd 0f3d df34 f0bd
000000b0: a1a1 07be c96c 34bd 856d 1abd cfa4 2ebc
000000c0: 9434 40bd 721f 4c3d 5412 01be ecb5 04be
000000d0: 6537 4fbd 89e3 24bc 6f02 8dbc 52a5 343d
000000e0: a589 0c3e 58cd 183d c13a fdbd d277 c7bd
000000f0: 24a9 12bd 8754 083e 8421 4238 3604 f2ba
00000100: 25aa 4c3d b005 0fbe da63 0a3d 791f 233d
00000110: 2816 b9bd 83f3 873d 13ce 223d 44e1 0ebd
00000120: 52ea 493d cb0d eb3b 28f9 2fbe 3a4e d8bd
00000130: 1f97 05bd 5fe5 0e3e 2a55 abbc 1f2d c2bd
00000140: 6b47 123d 342f f9bd f2a9 ad3c 740b 0bbd
00000150: 1603 dbbd 8132 873d c593 f6bc dff5 e33d
00000160: 0dd9 123c ad12 82bc 4130 09be b8f3 15bd
00000170: ace6 23be 7e32 54bd da4b bbbc 077f 99bb
00000180: a12e 1dbd c6c4 3a3c 810e 943d 1aa0 fe3b
00000190: ebd8 47bd 203a 24bd e8e7 92ba 400b 26bd
000001a0: 4745 72bc c9d4 34be 99cd 22be f536 8cbd
000001b0: fc6b 853c ea35 96bc a946 cf3c 2da3 beba
000001c0: 490b dbbd 9979 e9bd 3520 cabd 1691 06be
000001d0: bfbe 22be dd70 0bbe 3fc6 00be 6d6f cfbd
000001e0: 63d8 37bd b3e7 0cbd 9d11 92bd 7e7e b9bd
000001f0: 5492 793d b610 7dbc 6ad8 1abe 82a4 babc
00000200: c65f 813c 9cd6 d03c daaa 43bd c0d1 86bd
00000210: b88a 7cbd e327 003e 345f a4bd 375b 1b3c
00000220: 1619 ccbb ad1e c5bd 96e4 01be 7c24 9bbd
00000230: 8410 1dbd 4a4e bebd 32b5 28be c1cb 5bbd
00000240: 6c84 b2bd 591b f1bd 2636 d4bd 04ae d4bc
00000250: 525f bcbd 6204 f03c a80e fabd 557a 14be
00000260: c490 f3bd 4cf0 c8bd c900 063c b7f2 d7b9
00000270: b122 9cbc cff0 10bc 6cf4 8f3b 46f6 52bd
00000280: 3fcc 5ebd 49ff 63bd 0da2 4fbd 445a 60bd
00000290: 8d95 48bd 42a7 4fbd 13da 43bd 3da8 6fbc
000002a0: 8f89 1e3b da4c cdbd b044 113d 6bc3 12bd
000002b0: 360e 53bd d467 cfbd 546f 44bd 5211 e1bd
000002c0: 790e 1bbd 99c6 0ebd 0c7d f7bd 673b 6dbd
000002d0: e9cc 87bd 0f44 23be 5c01 ddbd 96e0 3ebd
000002e0: 342c 79bd 5b16 94bd 4166 19be 7222 063d
000002f0: 682d f53b a277 3abd 5d1e 21be 3d07 acbc
00000300: f7b3 103c f302 bf3c 2d11 6d3a 4173 433c
00000310: 28f5 12be 3a2f 923b 6362 06bd a0c6 b6bd
00000320: c12b e5bc 52f6 0f3e b09e 153d 5586 3e3d
00000330: 3612 18bd b7b1 b5bd 0350 7dbd ef50 153e
00000340: 40b9 7dbd 335d fbbc f1be 4b3c 123d 203e
00000350: 0960 b13d 8d6e fdbd ad8b 943b 5f06 013d
00000360: 8be1 03be 0455 243d efd3 50bd 20b5 9cbc
00000370: b1c3 013c 0db7 ffbd 087e 21be a629 1ebc
00000380: b008 12bd 4bdb 1abd 24f0 03bd 2c29 b03c
00000390: b40f 023e 9f43 0a3d 197e 623d 93b9 41bc
000003a0: 9a4b b2bc 7a63 523d feaa 1e3e b42f ba3d
000003b0: 482b 67bc 2ad6 6bbc 7220 143d 58ec e83b
000003c0: 983c 043e f932 63bc ebec 2c3c 31a1 6abd
000003d0: fbae 5abc 5812 303d 0823 9cbc 233f 233e
000003e0: 139f e9bc 4677 6abd 9893 95bd aaa6 103d
000003f0: 7c1e de3c a4d3 213d 68ac 8ebb 0149 213d
