models/forecasting/lstm/model.pth (torch, 191516 bytes, 9 tensors)

lstm1.weight_ih_l0 f4 [240, 12]
0	0xbd94878a	-0.072524145
1	0xbe01ea6a	-0.12687078
2	0xbcdaacdd	-0.026693756
3	0xbd09624d	-0.033541013
4	0xbd2d2a26	-0.042276524
5	0xbd866fc4	-0.06564286
6	0x3d919117	0.07107752
7	0x3dca1b12	0.098684445
8	0x3ddd6847	0.10810905
9	0x3d83f79e	0.064437136
10	0x3e220b23	0.15824561
11	0x3d413d8c	0.047177836
12	0x3e63a1b2	0.2222965
13	0xbe05269c	-0.1300301
14	0x3d4166c4	0.047217146
15	0x3eeb4278	0.4594915
16	0x3ebb72fd	0.36611167
17	0x3e88401f	0.2661142
18	0x3e6ce86a	0.23135534
19	0x3e8ec734	0.27886355
20	0x3eec4350	0.46145105
21	0x3e7506ab	0.23928325
22	0x3f39f703	0.72642535
23	0x3e0b1f2e	0.13586113
24	0x3f385f53	0.72020453
25	0x3f186a28	0.5953698
26	0xbdaeba28	-0.085316
27	0x3efe8b5a	0.49715692
28	0x3ef01a90	0.46895266
29	0xbe4f1396	-0.20222315
30	0xbe8faa35	-0.28059545
31	0x3ecbcd67	0.39805147
32	0x3f02bd94	0.51070523
33	0xbd9df15a	-0.0771205
34	0xbdbff5b0	-0.09373033
35	0x3e7e69a3	0.24844985
36	0x3df18699	0.117932506
37	0xbe873f87	-0.26415655
38	0xbe1d97d0	-0.15389943
39	0x3e5e2f5e	0.21697757
40	0x3e50f029	0.20404114
41	0x3c2efdd4	0.0106806345
42	0xbc99e0b5	-0.018783906
43	0xbe14fc4a	-0.14549366
44	0x3e91d0af	0.28479525
45	0x3cc2ff70	0.023803443
46	0xbd886d12	-0.066614285
47	0x3e347ef0	0.17626548
48	0x3e03cead	0.1287181
49	0x3e51e3fc	0.20497125
50	0x3b01e61d	0.0019820996
51	0x3e3bcc6e	0.18339702
52	0x3d8ba116	0.06817834
53	0x3d92f752	0.07176079
54	0x3e514ab3	0.20438652
55	0xbabc425b	-0.0014363037
56	0x3c2a839a	0.010407353
57	0x3d1f5222	0.038896687
58	0x3e836a8a	0.2566722
59	0x3debd040	0.1151433
60	0x3f072ca9	0.5280252
61	0x3d9caa1a	0.07649632
62	0xbeb4d8e4	-0.35321724
63	0x3adf15a0	0.0017019995
64	0x3e642664	0.2228027
65	0xbe8c4c77	-0.27402088
66	0x3e624a2f	0.22098611
67	0x3d6c9c4f	0.057766255
68	0x3e102d84	0.14079863
69	0x3b693368	0.003558362
70	0x3f2f3f1e	0.68455684
71	0x3bf21ada	0.007388455
72	0x3d16e67d	0.036840905
73	0x3c258ef8	0.010104887
74	0xbe2a61f5	-0.1663893
75	0x3e8dbbf1	0.2768245
76	0x3dca5096	0.09878652
77	0x3e8ff1af	0.28114077
78	0x3e1bfbf7	0.15232836
79	0x3dd5c7d7	0.10438507
80	0xbc5f90e8	-0.013645388
81	0x3e50dc6c	0.20396584
82	0xbd3bbead	-0.04583614
83	0x3db12c65	0.08651046
84	0xbe7e5028	-0.24835265
85	0xbe06724a	-0.13129535
86	0xbe26a12b	-0.16272418
87	0xbd3107bb	-0.043220263
88	0x3e03594f	0.12827037
89	0xbc578666	-0.013154602
90	0x3c934881	0.017978908
91	0x3d39d271	0.04536671
92	0xbde6feed	-0.11279092
93	0x3ea584cc	0.32327878
94	0xbd85e786	-0.065383
95	0xbc7e4a22	-0.015520604
96	0xbe934df7	-0.2877042
97	0xbc4fb1e3	-0.012676689
98	0xbe9fe8e7	-0.31232378
99	0x3dc96e51	0.09835494
100	0xbd181789	-0.03713182
101	0x3e8b8738	0.272516
102	0x3e406490	0.18788362
103	0x3e6184d2	0.22023323
104	0x3e5360fb	0.20642464
105	0x3e2edc21	0.1707616
106	0x3ebfaac3	0.37434968
107	0x3e5e3744	0.2170077
108	0x3f38d8bf	0.7220573
109	0x3ece4983	0.4029046
110	0xbe7481f8	-0.23877704
111	0x3e9896fd	0.29802695
112	0x3ba0ca68	0.004906941
113	0x3ca2442c	0.019807898
114	0xbca58301	-0.02020407
115	0x3e2314c7	0.15925895
116	0x3f42c53c	0.76082206
117	0x3e3e6bb4	0.18595773
118	0xbc582a1f	-0.013193636
119	0x3ebfaa89	0.37434795
120	0xbcdfb7c1	-0.0273093
121	0xbe475b92	-0.19468525
122	0xbe2e32c0	-0.17011547
123	0xbe024e88	-0.1272527
124	0x3db457d5	0.08805815
125	0xbdfd05df	-0.123546354
126	0x3e93203b	0.28735527
127	0x3d4182d2	0.0472439
128	0x39f9a423	0.00047615272
129	0x3e169b71	0.14707734
130	0x3e6a6862	0.22891381
131	0x3dda5b76	0.10661976
132	0xbd91cfca	-0.07119711
133	0x3e578968	0.2104851
134	0x3c858e50	0.016303211
135	0xbdf5c168	-0.1199978
136	0x3d77e736	0.060523234
137	0x3e9cae00	0.306015
138	0x3e22f1c9	0.15912546
139	0x3e4b3a1c	0.19846386
140	0x3ea70da6	0.326276
141	0x3eafe023	0.3435069
142	0xbd6038e7	-0.054741766
143	0x3e4e6895	0.20157082
144	0x3c9d5057	0.019203348
145	0x3c36b5e8	0.011151768
146	0x3d932b88	0.07186037
147	0x3e061cbb	0.13096897
148	0x3dd56e98	0.10421485
149	0x3e850a1c	0.25984275
150	0x3d791844	0.060814157
151	0x3e5a0aea	0.21293226
152	0x3e96c352	0.29445893
153	0x3e92c312	0.28664452
154	0x3ece1467	0.4024994
155	0x3db50e75	0.08840648
156	0x3da7ca60	0.08192897
157	0xbd6568e2	-0.056008227
158	0xbc7493ce	-0.0149278175
159	0x3df37a1e	0.118885264
160	0xbce04abc	-0.027379386
161	0x3d41d669	0.047323618
162	0x3e32e4f8	0.17470157
163	0x3e46a466	0.1939865
164	0xbd09ca25	-0.033640046
165	0xbe14de23	-0.14537863
166	0x3da737d0	0.08164942
167	0x3d1296de	0.03578841
168	0x3edad3b4	0.42739642
169	0xbea1f8f3	-0.31635246
170	0x3f843147	1.0327538
171	0x3c120701	0.008912803
172	0x3d481d7d	0.048856247
173	0x3f187912	0.5955974
174	0xbe16582e	-0.14682075
175	0x3ef24aaf	0.47322604
176	0xbce59efd	-0.028029913
177	0xbb4fa8d9	-0.0031686334
178	0x3f863c3b	1.0487131
179	0xbee4eb3d	-0.44710723
180	0xbed3d1e7	-0.4137108
181	0x3e8c2b93	0.27376994
182	0xbdbab018	-0.091156185
183	0x3f981b89	1.1883403
184	0xbea56b8d	-0.32308617
185	0x3ebd16e4	0.36931527
186	0xbf031b01	-0.5121308
187	0xbcb550a8	-0.022133186
188	0x3f5b968e	0.85776603
189	0xbf39f26d	-0.7263554
190	0x3e3286f0	0.17434287
191	0xbe3defc5	-0.18548496
192	0x3d91203a	0.07086225
193	0x3e66aef0	0.22527671
194	0xbd9df832	-0.07713355
195	0x3dfe7734	0.1242508
196	0x3dc5d88c	0.09660444
197	0xbe761ea5	-0.24035127
198	0x3e3fd612	0.18734005
199	0x3f0a5056	0.5402883
200	0xbccfede3	-0.025381988
201	0x3f15278b	0.5826346
202	0x3e1d79a3	0.15378432
203	0x3ef6b517	0.48185036
204	0x3f0a3749	0.5399061
205	0xbb11e139	-0.0022259487
206	0xbe7b53b4	-0.24543649
207	0x3d81dd0f	0.06340992
208	0x3df0e89f	0.11763119
209	0x3e16f2ae	0.14741012
210	0xbb584cbf	-0.0033004729
211	0x3e0cbb9b	0.13743441
212	0x3e37ffd1	0.1796868
213	0x3ddedcdf	0.108819716
214	0x3d8117cc	0.06303367
215	0xbd87a0ff	-0.066225044
216	0x3d5da071	0.054108087
217	0xbdaf715b	-0.08566543
218	0x3e12664b	0.14296834
219	0x3dcca125	0.099916734
220	0x3e56ed09	0.20988859
221	0x3e04adb4	0.12956887
222	0x3e707ba6	0.23484668
223	0x3cb669e2	0.022267286
224	0x3edcc511	0.431191
225	0x3e5bb815	0.2145694
226	0x3e533364	0.20625073
227	0xbd6e5b4d	-0.05819254
228	0xbdbe33f1	-0.09287251
229	0xbcab930e	-0.020944145
230	0xbeb181c4	-0.34669316
231	0xbc126398	-0.008934878
232	0x3d9f97e5	0.077926435
233	0x3efab062	0.48962694
234	0xbddb67c2	-0.107131496
235	0x3eacf2c9	0.3377898
236	0x3ddfe1ec	0.10931763
237	0x3e171938	0.14755714
238	0x3e32ac4d	0.1744854
239	0x3ddb49c8	0.10707432
240	0x3e822068	0.2541535
241	0xbe2f4d88	-0.1711942
242	0xbeb002c5	-0.34377113
243	0xbe504af5	-0.20341094
244	0x3d363782	0.04448653
245	0x3efe9e16	0.49729985
246	0x3da2bccd	0.07946167
247	0xbcfe9ea7	-0.03108151
248	0x3ebd2501	0.36942294
249	0xbd4a2876	-0.049354993
250	0x3e03ed4f	0.12883495
251	0x3eb29595	0.34879747
252	0xbe8dace6	-0.27670974
253	0xbe3d8844	-0.18509012
254	0x3d4edfd2	0.05050642
255	0x3daf2a70	0.08553016

lstm1.weight_hh_l0 f4 [240, 60]
0	0xbdd68f1e	-0.10476516
1	0x3db0ebf6	0.08638756
2	0xbe8e1722	-0.27752024
3	0xbd0056af	-0.031332668
4	0x3d5d4522	0.05402101
5	0xbcb951eb	-0.02262207
6	0xbdf6b6ce	-0.12046586
7	0x3d98f11e	0.074678645
8	0xbcad9a62	-0.02119178
9	0xbc3e6cd7	-0.011622629
10	0x3e6fb875	0.23410209
11	0xbcdebf56	-0.027190845
12	0xbe81b5b1	-0.25333932
13	0xbd74bfae	-0.059753112
14	0xbe2f026e	-0.1709077
15	0xbe73ceea	-0.238094
16	0x3e222744	0.15835291
17	0xbdad1837	-0.08451884
18	0xbb95e8a7	-0.0045748535
19	0xbdaaead0	-0.08345568
20	0x3ecfca02	0.40583807
21	0xbea53bcb	-0.3227218
22	0xbeab08cc	-0.3340515
23	0x3e5960fc	0.21228403
24	0xbe2f8594	-0.171408
25	0xbe41dcef	-0.18931936
26	0xbec3ee66	-0.3826782
27	0xbdab3e12	-0.08361448
28	0xbc855f29	-0.016280727
29	0xbe826b81	-0.25472644
30	0x3e7a3871	0.24435593
31	0xbeb14c37	-0.3462846
32	0xbd886ed2	-0.06661762
33	0x3d828174	0.063723475
34	0x3db6831c	0.08911726
35	0x3d42a8f4	0.047524408
36	0xbe89290c	-0.2678913
37	0xbe278a23	-0.16361289
38	0xbd8c598f	-0.068530194
39	0x3a4bdb41	0.0007776507
40	0x3c3a202c	0.011360209
41	0x3e30382a	0.17208925
42	0x3e42f1d5	0.19037564
43	0x3e5e3dce	0.21703264
44	0x3cafe302	0.02147055
45	0xbe84d307	-0.2594225
46	0x3e0c85bd	0.13722892
47	0x3de32bf0	0.11092365
48	0x3da2a432	0.07941474
49	0xbeac4ca2	-0.33652216
50	0x3e412de7	0.18865167
51	0x3e50902c	0.20367497
52	0x3e15dad3	0.14634256
53	0x3de160bb	0.11004778
54	0x3e164f6d	0.14678736
55	0x3e53e836	0.2069405
56	0xbe015edc	-0.12633842
57	0xbeb0c30c	-0.3452381
58	0x3d3b0759	0.045661304
59	0x3dab3098	0.08358878
60	0xbea59498	-0.3233993
61	0xbd834ac3	-0.06410744
62	0xbe678ab3	-0.22611503
63	0x3d9f8636	0.077892706
64	0x3dd099e5	0.10185603
65	0x3e6d5245	0.23175915
66	0xbd36850e	-0.044560485
67	0x3eaddb88	0.33956552
68	0x3e17dab0	0.14829516
69	0xbe6e6f38	-0.23284614
70	0x3e5d2134	0.21594697
71	0x3e4b9515	0.19881089
72	0xbdd4a21a	-0.10382481
73	0x3e80f0d6	0.25183743
74	0x3e1b5efe	0.15172955
75	0xbd21b27c	-0.039476857
76	0x3e122021	0.14270069
77	0x3dba60ed	0.091005184
78	0xbd674c9e	-0.056469552
79	0xbe4efce2	-0.20213655
80	0x3ed9d162	0.4254256
81	0xbe3fbe65	-0.18724973
82	0xbda6044c	-0.08106288
83	0x3e6b4f3b	0.22979443
84	0xbeccd181	-0.4000359
85	0xbe5565c9	-0.20839609
86	0xbe9057e8	-0.28192067
87	0x3e504631	0.20339276
88	0xbe869837	-0.26288006
89	0x3ccc38c0	0.024929404
90	0x3f3deaf3	0.7418663
91	0xbf316f5f	-0.69310564
92	0x3ec1d525	0.3785793
93	0xbe0d0f87	-0.13775454
94	0xbdd7c63a	-0.105358556
95	0x3f2474c5	0.64240676
96	0xbe5143eb	-0.20436065
97	0x3ef83826	0.48480338
98	0xbddb305e	-0.10702585
99	0x3e1cc33b	0.1530885
100	0xbd3e5440	-0.046467066
101	0x3ebf23bd	0.37331954
102	0x3f16e3b5	0.58941203
103	0x3e944e42	0.28965956
104	0xbd88c8a8	-0.06678897
105	0xbf0a67bc	-0.54064536
106	0x3edd40cc	0.432135
107	0xbeb5c868	-0.3550446
108	0x3e8fdb26	0.28096884
109	0xbf1a1073	-0.6018135
110	0xbe2273e9	-0.15864529
111	0xbe8f0a32	-0.27937466
112	0x3dc13391	0.09433664
113	0xbedbb6de	-0.42912954
114	0xbcd41868	-0.025890544
115	0x3e632229	0.22181
116	0xbe11a17a	-0.14221755
117	0xbe809764	-0.25115502
118	0x3ed5af6f	0.41735408
119	0xbd897553	-0.06711831
120	0x3e2558f0	0.16147208
121	0x3f93eba5	1.1556288
122	0x3d7b84b1	0.06140584
123	0xbec09e99	-0.37621
124	0xbe9286b0	-0.28618383
125	0x3f6d55fa	0.92709315
126	0x3ed844aa	0.42239887
127	0x3f0e4a8b	0.55582494
128	0x3f127bdb	0.5722024
129	0x3ed6702a	0.4188245
130	0x3e42d519	0.19026603
131	0x3f1ec9fa	0.6202694
132	0xbf315392	-0.69268143
133	0x3e9ab1b9	0.30213717
134	0x3f8504c3	1.0392078
135	0xbe8b6559	-0.2722576
136	0xbf638dfd	-0.8888853
137	0xbe2b21c3	-0.16712098
138	0x3e9cedf8	0.30650306
139	0xbeb0d057	-0.3453395
140	0x3f4bd429	0.79620606
141	0xbf39779f	-0.7244815
142	0xbdabbbc0	-0.0838542
143	0xbf25e5de	-0.64803874
144	0xbde43706	-0.111433074
145	0xbd90a97b	-0.07063576
146	0xbee11cda	-0.43967324
147	0xbe15ce9e	-0.146296
148	0xbf65055a	-0.8946129
149	0x3e5abb91	0.21360613
150	0xbeb8bf4b	-0.36083445
151	0xbf9aac85	-1.2083899
152	0xbd334090	-0.043762743
153	0x3e8a81d7	0.27052185
154	0xbe77b327	-0.24189435
155	0xbde5bcfa	-0.11217685
156	0xbef267bc	-0.47344768
157	0xbf105957	-0.5638632
158	0x3dcad601	0.09904099
159	0xbe2f9b73	-0.17149143
160	0x3e1ab439	0.15107812
161	0x3e97a791	0.2962003
162	0x3e1fdc3e	0.1561136
163	0x3eff32ec	0.49843538
164	0x3e3ad90f	0.18246864
165	0x3edd2507	0.43192312
166	0x3ed12e75	0.40855756
167	0xbf4602e6	-0.7734817
168	0xbe69819b	-0.22803347
169	0xbf4bbeb6	-0.79587877
170	0x3ebb1f8d	0.3654751
171	0xbeec5dcc	-0.4616531
172	0xbd38f1b9	-0.0451524
173	0xbdc7ab6e	-0.097494945
174	0xbdd2f756	-0.10301082
175	0x3d04b15c	0.032395706
176	0x3e86a61c	0.26298606
177	0x3e10f94b	0.14157598
178	0x3dfc584e	0.1232153
179	0x3f23532b	0.6379878
180	0xbea5f9c0	-0.32417107
181	0xbd8536f9	-0.06504626
182	0xbecc6c8e	-0.3992657
183	0xbd6031ad	-0.054734875
184	0xbeacffd8	-0.33788943
185	0x3e147ea3	0.14501433
186	0xbe0f82ec	-0.14014786
187	0x3ec3ee51	0.38267758
188	0x3e4c5d6c	0.19957513
189	0x3e839c6a	0.25705272
190	0x3eaa079e	0.33208936
191	0x3f0a787e	0.54090106
192	0xbf3aaefd	-0.7292326
193	0x3ebbb257	0.366595
194	0xbe602cc2	-0.21892074
195	0xbe779d19	-0.24181022
196	0x3e799be0	0.24375868
197	0xbe3454b0	-0.1761043
198	0x3f2d0bad	0.6759594
199	0xbe89c3b0	-0.2690711
200	0x3f34a0b5	0.7055772
201	0xbe34d532	-0.17659453
202	0xbe8d1ae7	-0.27559587
203	0x3cea7b23	0.02862317
204	0xbe98e32e	-0.29860824
205	0xbebb7a4d	-0.36616746
206	0xbf29a5c8	-0.6626859
207	0xbbdc0ff6	-0.00671577
208	0x3e5366f8	0.20644748
209	0x3dcefefe	0.1010723
210	0x3e1f9ce5	0.15587194
211	0xbed81ced	-0.4220957
212	0xbeb65a41	-0.35615733
213	0x3eaa96b3	0.333181
214	0xbe21e25f	-0.1580901
215	0x3eff2ad3	0.4983736
216	0xbf6f696a	-0.93520224
217	0xbdb9bf76	-0.090697214
218	0x3e9e7fcd	0.3095688
219	0x3d7a1b78	0.061061352
220	0xbda2fced	-0.07958398
221	0x3edd4623	0.43217573
222	0x3ef7a651	0.48369077
223	0x3e2083de	0.15675303
224	0xbdc69346	-0.09696059
225	0xbeefa590	-0.46806002
226	0x3ebd3226	0.36952323
227	0x3ce992fe	0.028512474
228	0x3eb9dd8d	0.36301842
229	0xbef7bd26	-0.48386496
230	0x3e32b069	0.17450108
231	0xbeb9fa82	-0.36323935
232	0xbe3f0038	-0.18652427
233	0x3e02f6af	0.12789415
234	0x3ea5fa13	0.32417354
235	0x3d2939aa	0.04131476
236	0xbe5f30f7	-0.21796022
237	0x3d00ceec	0.031447336
238	0x3ea79af9	0.32735422
239	0x3bab094f	0.0052196155
240	0xbe8a3217	-0.2699134
241	0x3eb5c908	0.35504937
242	0xbf060de8	-0.5236497
243	0xbe1e534b	-0.15461461
244	0xbe0195ee	-0.1265485
245	0x3e09d8f7	0.13461672
246	0x3e301cdb	0.17198507
247	0x3e553cfe	0.20824048
248	0xbd6dcd0d	-0.05805688
249	0x3e7c9407	0.24665843
250	0x3e492412	0.19642666
251	0x3e1442e4	0.14478642
252	0xbf17db28	-0.5931878
253	0x3d90565a	0.0704772
254	0xbde0241d	-0.10944388
255	0xbe999746	-0.29998225

lstm1.bias_ih_l0 f4 [240]
0	0xbfb30a81	-1.398758
1	0xbfd3d3db	-1.6549028
2	0xbfd673b2	-1.6754057
3	0xbfaa6628	-1.3312426
4	0xbfba24bc	-1.454246
5	0xbfb0df71	-1.3818189
6	0xbfa1cd3a	-1.2640755
7	0xbfb261ea	-1.3936131
8	0xbfba5c76	-1.4559467
9	0xbfc22313	-1.5166954
10	0xbfa32419	-1.2745391
11	0xbfd183ab	-1.6368307
12	0xbfbf7a9e	-1.4959295
13	0xbfcc08d0	-1.5940189
14	0xbf9c9fe4	-1.2236295
15	0xbf564138	-0.83693266
16	0xbfb7b2c0	-1.4351425
17	0xbfc4cf65	-1.5375792
18	0xbfa942d2	-1.3223517
19	0xbfb92f15	-1.4467493
20	0xbfc23e9c	-1.5175357
21	0xbf9ee47c	-1.2413478
22	0xbfa8e60e	-1.3195207
23	0xbfb4b3f4	-1.4117417
24	0xbfb1c837	-1.3889226
25	0xbfb67853	-1.425547
26	0xbfba0adb	-1.4534563
27	0xbfd79277	-1.6841573
28	0xbfc0b6a9	-1.5055743
29	0xbfeaceef	-1.8344401
30	0xbfb64527	-1.4239854
31	0xbf94d29c	-1.1626773
32	0xbfc35e35	-1.5263125
33	0xbfaef6e9	-1.3669101
34	0xbf9e4dc6	-1.2367485
35	0xbfb22129	-1.391637
36	0xbfc2da52	-1.5222876
37	0xbf88dc6a	-1.0692265
38	0xbfbd5497	-1.479144
39	0xbfa87bd1	-1.3162786
40	0xbfcf5a43	-1.6199421
41	0xbfc808af	-1.562765
42	0xbfd25c26	-1.6434371
43	0xbfae9f05	-1.3642279
44	0xbfb4a462	-1.4112666
45	0xbfd0f5ec	-1.6325049
46	0xbfd479ca	-1.6599667
47	0xbfb652ab	-1.4243978
48	0xbfacace0	-1.3490257
49	0xbfd876c5	-1.6911246
50	0xbfdcdef5	-1.7255541
51	0xbfb2ca49	-1.3967983
52	0xbfbab33a	-1.4585946
53	0xbfa93dfd	-1.3222042
54	0xbfb2eaf3	-1.3977951
55	0xbfc9308f	-1.5717944
56	0xbfa04d05	-1.2523504
57	0xbfb03130	-1.3765011
58	0xbfbc2a9a	-1.4700501
59	0xbfad94db	-1.3561052
60	0xbed15aba	-0.4088953
61	0xbf853b7b	-1.0408777
62	0xbec2cf3d	-0.38048735
63	0xbf01a591	-0.5064326
64	0xbf0b841e	-0.5449847
65	0xbf2a0c6e	-0.66425216
66	0xbf4bee0a	-0.79660094
67	0xbf12b210	-0.5730295
68	0xbf6ba663	-0.9205076
69	0xbeb00e91	-0.34386113
70	0xbed466c7	-0.41484663
71	0xbe1c58e7	-0.15268289
72	0xbf6f2620	-0.9341755
73	0xbf332cab	-0.6999003
74	0xbf0bf6b5	-0.5467332
75	0xbdf0a71d	-0.11750624
76	0xbf266010	-0.6499033
77	0xbf6fcbf9	-0.9367061
78	0xbf6bce5e	-0.92111766
79	0xbf29153a	-0.66048014
80	0xbf92389c	-1.1423526
81	0xbf406683	-0.7515642
82	0xbf285672	-0.65756905
83	0xbf0e4898	-0.5557952
84	0xbf2a5ade	-0.665449
85	0xbf67c6c1	-0.9053765
86	0xbf0cb133	-0.54957885
87	0xbf3227e3	-0.6959211
88	0xbf306dfc	-0.6891782
89	0xbf803ef3	-1.001921
90	0xbf322870	-0.6959295
91	0xbf6f5e3c	-0.93503165
92	0xbf363529	-0.71174866
93	0xbf66f3d9	-0.9021583
94	0xbea1f617	-0.31633064
95	0xbf13024a	-0.5742537
96	0xbf648a19	-0.8927322
97	0xbf9cc652	-1.2248023
98	0xbf38d66c	-0.7220218
99	0xbf1f43d0	-0.6221285
100	0xbf3b3b89	-0.7313772
101	0xbf262f94	-0.6491635
102	0xbf96dbf9	-1.178588
103	0xbe49de97	-0.19713818
104	0xbf0a633d	-0.54057676
105	0xbf80f8ac	-1.0075889
106	0xbf0be0de	-0.54639995
107	0xbee483e5	-0.44631878
108	0xbf4cd1c7	-0.80007595
109	0xbf760290	-0.9609766
110	0xbf3047ab	-0.68859357
111	0xbf284648	-0.6573224
112	0xbd23cc71	-0.039989892
113	0xbf2d6b0b	-0.6774146
114	0xbf276129	-0.6538263
115	0xbe2c0262	-0.16797784
116	0xbf475de3	-0.77877635
117	0xbec08153	-0.37598667
118	0xbf8438c9	-1.032983
119	0xbf42b745	-0.760609
120	0x3bfa0273	0.0076296865
121	0x3d3ce863	0.04612006
122	0x3e0938af	0.1340053
123	0x3cb78a8f	0.022404937
124	0x3ca0be6d	0.019622052
125	0xbe5c7a20	-0.21530962
126	0x3cc54ac0	0.024083495
127	0xbcd139e4	-0.0255403
128	0x3d935a4e	0.071949586
129	0xbe7454a0	-0.23860407
130	0xbdcfc772	-0.10145463
131	0xbbd03177	-0.006353553
132	0xbc3ea728	-0.011636533
133	0xbd10e2c9	-0.03537253
134	0xbc80b85a	-0.015712906
135	0x3f1b4510	0.60652256
136	0xbdb4feb6	-0.08837645
137	0x3d0bfab6	0.034174643
138	0xbd172a4c	-0.03690557
139	0x3d1afdbe	0.037839644
140	0x3e465246	0.19367322
141	0xbdb4fada	-0.08836909
142	0x3e074765	0.13210829
143	0x3d49042e	0.04907625
144	0xbe956055	-0.29175058
145	0x3d8a8053	0.06762757
146	0x3bde6826	0.006787318
147	0x3cedf6dd	0.029048378
148	0x3d8025d4	0.06257215
149	0x3cf604c3	0.030031567
150	0x3d024ac8	0.0318096
151	0x3d8c7f4a	0.06860216
152	0x3cd572f9	0.0260558
153	0xbdf50aa2	-0.11964919
154	0x3ca8a8d0	0.020588309
155	0xbc498b71	-0.012301312
156	0xbcba9322	-0.022775237
157	0xbdc142ea	-0.09436591
158	0x3d1636f9	0.03667352
159	0x3c6fe575	0.014642109
160	0xbddba7a1	-0.10725332
161	0xbd6741ab	-0.05645911
162	0x3c583bc0	0.013197839
163	0xbcefd457	-0.029276056
164	0xbc5b5cd0	-0.013388827
165	0xbe606504	-0.21913534
166	0xbda73abc	-0.081654996
167	0xbdb8755b	-0.09006759
168	0x3d7f45d8	0.062322468
169	0x3ec2caa6	0.38045233
170	0x3d868b75	0.06569568
171	0x3c95a90a	0.01826908
172	0xbd81cd68	-0.06338006
173	0x3d687ac7	0.056757715
174	0xbe23228f	-0.15931152
175	0xbd0e11f9	-0.03468511
176	0x3d3de6b4	0.046362594
177	0xbd6f5ecb	-0.05844001
178	0x3d45ec30	0.04832095
179	0xba26f676	-0.0006369123
180	0xbf9faaf0	-1.2474041
181	0xbfc9e8a3	-1.577412
182	0xbfb533b7	-1.4156407
183	0xbfa1ee47	-1.2650841
184	0xbfbaff3c	-1.4609141
185	0xbfb608fc	-1.4221492
186	0xbfd2ae9f	-1.645954
187	0xbfaab112	-1.3335288
188	0xbfb9ff07	-1.4530953
189	0xbfc9132d	-1.5708977
190	0xbfa37de0	-1.2772789
191	0xbfbde460	-1.483532
192	0xbfa3ea7c	-1.2805934
193	0xbfd1f4a6	-1.6402786
194	0xbfddd129	-1.7329456
195	0xbfebfc8e	-1.8436449
196	0xbfc257c0	-1.5183029
197	0xbfccb8da	-1.5993912
198	0xbfb009ca	-1.3752987
199	0xbfc6bd42	-1.5526507
200	0xbfd171a1	-1.6362802
201	0xbfaa86ff	-1.3322448
202	0xbf954a41	-1.1663285
203	0xbfb1b160	-1.3882256
204	0xbff21f96	-1.8915889
205	0xbfad0ef4	-1.3520188
206	0xbfae89e2	-1.3635828
207	0xbfccde7d	-1.6005398
208	0xbfa5bcc9	-1.2948238
209	0xbffabf47	-1.9589623
210	0xbfa8b6f5	-1.3180834
211	0xbfa036ea	-1.2516758
212	0xbfbf7ef8	-1.4960623
213	0xbfb27de1	-1.3944665
214	0xbfc51841	-1.5398027
215	0xbfc7c802	-1.5607913
216	0xbfa73f06	-1.3066108
217	0xbfb8c201	-1.4434205
218	0xbfa40f60	-1.2817192
219	0xbfb726a3	-1.4308666
220	0xbfb7be41	-1.4354936
221	0xbfb17f07	-1.3866891
222	0xbfcba101	-1.590851
223	0xbfa49df2	-1.2860701
224	0xbfa4846b	-1.2852911
225	0xbfadc681	-1.3576204
226	0xbfd12345	-1.6338888
227	0xbfafbfb8	-1.3730383
228	0xbfcce715	-1.6008021
229	0xbfca37b3	-1.5798248
230	0xbfdb0262	-1.7110102
231	0xbfae3f38	-1.3613043
232	0xbfb9faa5	-1.4529616
233	0xbfae6a12	-1.362612
234	0xbfc11e87	-1.5087441
235	0xbfc6e2e1	-1.5537988
236	0xbfad6244	-1.3545613
237	0xbfb884d5	-1.4415537
238	0xbfafc50c	-1.3732009
239	0xbface6b4	-1.3507905

lstm1.bias_hh_l0 f4 [240]
0	0xbfbf7875	-1.4958636
1	0xbfdad9a9	-1.7097675
2	0xbfd32d8e	-1.6498277
3	0xbfc5a22e	-1.5440118
4	0xbfc91ce2	-1.5711939
5	0xbfb25296	-1.3931453
6	0xbfa2b17c	-1.2710414
7	0xbf95bc9a	-1.1698182
8	0xbfc35e7a	-1.5263207
9	0xbfc26b67	-1.5189027
10	0xbfb36312	-1.4014609
11	0xbfc81f0f	-1.5634478
12	0xbfb93e14	-1.447207
13	0xbfcdf054	-1.6088967
14	0xbf9f077c	-1.2424159
15	0xbf54ea64	-0.8317015
16	0xbfbd8155	-1.4805094
17	0xbfc1204d	-1.5087982
18	0xbfc17e1a	-1.5116608
19	0xbfae90fd	-1.3637997
20	0xbfc61b27	-1.5477036
21	0xbfa63b84	-1.2986913
22	0xbfa9e9b2	-1.3274443
23	0xbfb0c333	-1.380957
24	0xbfb76dc9	-1.4330379
25	0xbfacf6c7	-1.351281
26	0xbfa8363f	-1.3141555
27	0xbfc31f67	-1.5243958
28	0xbfc7ae19	-1.5600005
29	0xbff95c6d	-1.9481331
30	0xbfba80bf	-1.457054
31	0xbfa71796	-1.3054073
32	0xbfb46503	-1.4093326
33	0xbfb76d3d	-1.4330212
34	0xbf91ec04	-1.1400151
35	0xbfa2fd87	-1.273362
36	0xbfc3cba2	-1.5296519
37	0xbf8c253c	-1.0948863
38	0xbfb77bc3	-1.4334644
39	0xbfbb3847	-1.462655
40	0xbfb500ad	-1.4140831
41	0xbfb708f3	-1.4299606
42	0xbfd6ddbe	-1.678642
43	0xbfa87a5c	-1.3162341
44	0xbfb3392d	-1.4001824
45	0xbfe40b30	-1.7815914
46	0xbfd43d7e	-1.6581266
47	0xbfbcad83	-1.4740452
48	0xbfbd34b6	-1.4781711
49	0xbfd6537d	-1.6744229
50	0xbfd84b15	-1.6897913
51	0xbfa29aa7	-1.2703446
52	0xbfb3d9f2	-1.4050887
53	0xbfa2965d	-1.2702137
54	0xbfab6b57	-1.3392133
55	0xbfc54f45	-1.5414816
56	0xbf9c6834	-1.22193
57	0xbfb32892	-1.3996756
58	0xbfb13ad6	-1.384608
59	0xbfc5b37d	-1.54454
60	0xbea1b424	-0.3158275
61	0xbf78277b	-0.9693524
62	0xbec1a439	-0.37820604
63	0xbe918013	-0.28418025
64	0xbf3383e3	-0.7012312
65	0xbefbf195	-0.4920775
66	0xbf5bfd2f	-0.859332
67	0xbf098378	-0.5371623
68	0xbf3f2c1b	-0.74676675
69	0xbec64428	-0.38723874
70	0xbec24d61	-0.3794966
71	0xbe901d21	-0.28147224
72	0xbf848b4a	-1.0355008
73	0xbf4404b2	-0.76569664
74	0xbf2183bb	-0.6309163
75	0x3d91e955	0.07124583
76	0xbf0192f0	-0.50614834
77	0xbf812176	-1.0088336
78	0xbf7f391c	-0.99696517
79	0xbf29b194	-0.6628659
80	0xbf873f6b	-1.0566229
81	0xbf4cae4e	-0.7995347
82	0xbef98303	-0.48732767
83	0xbf05ad24	-0.52217317
84	0xbf1259d6	-0.5716833
85	0xbf3ebaa7	-0.7450356
86	0xbf28161f	-0.65658754
87	0xbf629525	-0.88508826
88	0xbf4f93d8	-0.81084967
89	0xbf63915f	-0.88893694
90	0xbf6f2c76	-0.93427217
91	0xbf8c9e73	-1.0985855
92	0xbf177e7e	-0.59177387
93	0xbf51dd7f	-0.819786
94	0xbe692e97	-0.22771679
95	0xbedc6769	-0.43047646
96	0xbf3b5f15	-0.7319196
97	0xbf892051	-1.0712987
98	0xbf50a99c	-0.81508803
99	0xbf185dad	-0.5951794
100	0xbf3bf357	-0.7341818
101	0xbef8766e	-0.48527855
102	0xbfabefa5	-1.3432509
103	0xbe889810	-0.26678514
104	0xbed0e39a	-0.40798646
105	0xbf8f8372	-1.1211989
106	0xbf261924	-0.6488211
107	0xbe98f5fa	-0.29875165
108	0xbf174176	-0.5908426
109	0xbf3624f9	-0.71150166
110	0xbf4384f7	-0.76374763
111	0xbf1d24e2	-0.61384404
112	0xbe80d03f	-0.2515888
113	0xbf3f4af3	-0.7472374
114	0xbf0481d0	-0.5176058
115	0xbe2b1cc6	-0.16710195
116	0xbf4a726d	-0.7908085
117	0xbe3c42cf	-0.1838486
118	0xbf9b84c3	-1.2149891
119	0xbf314ffd	-0.6926268
120	0xbcaecf38	-0.021339044
121	0x3d29d3cd	0.041461755
122	0xbcc5f23e	-0.024163362
123	0x3dcffbb2	0.10155429
124	0xbcf11627	-0.029429508
125	0xbdceead0	-0.10103381
126	0xbd1dce3a	-0.03852675
127	0xbd71085f	-0.058845874
128	0x3da653c2	0.08121444
129	0xbdaba208	-0.083805144
130	0xbd665f29	-0.056243096
131	0x3c7acdb3	0.015307832
132	0x3d4eb5f5	0.050466496
133	0xbded5281	-0.11588002
134	0x3e03b2b0	0.12861133
135	0x3f07196b	0.5277316
136	0xbd9e53e0	-0.07730842
137	0x3e02898a	0.1274778
138	0xbdbbdd65	-0.09173087
139	0x3d47a478	0.048740834
140	0x3e90c4a7	0.28275034
141	0x3cc453fc	0.023965828
142	0x3e061db0	0.13097262
143	0xbcb933c7	-0.022607697
144	0xbe882fd5	-0.26598993
145	0x3d3f14c9	0.04665068
146	0xbcf9b459	-0.030481504
147	0x3bbc6d95	0.005750368
148	0x3cc4c01a	0.024017382
149	0xbe0320dd	-0.12805505
150	0x3c669544	0.014073674
151	0x3e4fa8c1	0.20279218
152	0xbe06f6e1	-0.13180114
153	0xbd864c9e	-0.06557582
154	0x3d81898c	0.06325063
155	0x3d2cebd7	0.042217102
156	0x3d8cd847	0.06877189
157	0xbd122d8b	-0.035687964
158	0xbd64561c	-0.055746183
159	0xbd44bc81	-0.048031334
160	0xbc16f1bf	-0.00921291
161	0xbca9e607	-0.020739568
162	0x3d8b558d	0.06803427
163	0xbd30167c	-0.042990193
164	0xbc0526ad	-0.008126897
165	0xbe51c4e9	-0.20485272
166	0xbd090cf7	-0.03345963
167	0x3d68ff58	0.05688414
168	0xbd55d7fa	-0.052207924
169	0x3e537efa	0.20653906
170	0xbcca3349	-0.024682658
171	0xbdcf5dda	-0.10125323
172	0xbc168b64	-0.009188507
173	0xba8cbc11	-0.00107372
174	0x3d9bcf64	0.07607916
175	0x3c46df3a	0.012138182
176	0x3d285f36	0.041106425
177	0x3a9bb3a0	0.0011879094
178	0x3e38ab0b	0.18033998
179	0xbc06f602	-0.008237364
180	0xbfb291a2	-1.3950694
181	0xbfe0d7dd	-1.7565876
182	0xbfcb2139	-1.5869514
183	0xbfa4806b	-1.285169
184	0xbfca6334	-1.5811524
185	0xbfa466f8	-1.2843924
186	0xbfcebc1f	-1.615116
187	0xbfa535d2	-1.290705
188	0xbfc118e9	-1.5085727
189	0xbfd16f3d	-1.6362072
190	0xbf9bfd0a	-1.2186596
191	0xbfaa6016	-1.3310573
192	0xbfad316c	-1.3530707
193	0xbfc2b62c	-1.5211844
194	0xbfcfdb3b	-1.6238779
195	0xbfd5bcdb	-1.6698259
196	0xbfc3b740	-1.5290298
197	0xbfbcb726	-1.4743392
198	0xbfa66bac	-1.3001609
199	0xbfc4aa34	-1.5364442
200	0xbfc9ad65	-1.5756041
201	0xbfb1640b	-1.3858656
202	0xbfa2a20a	-1.27057
203	0xbfa1f2b8	-1.2652197
204	0xc00334c5	-2.0500958
205	0xbfae59e9	-1.3621188
206	0xbfb4d45f	-1.412731
207	0xbfc10ddb	-1.5082353
208	0xbfabdd95	-1.3426996
209	0xbff4f63d	-1.9137646
210	0xbfbb536b	-1.4634832
211	0xbfb0a02a	-1.3798878
212	0xbfbb699e	-1.4641607
213	0xbfc36abc	-1.5266948
214	0xbfc48889	-1.5354167
215	0xbfc499a2	-1.5359385
216	0xbf9eaf40	-1.2397232
217	0xbfa6e5d5	-1.3038889
218	0xbfbd7958	-1.4802656
219	0xbfc575f7	-1.5426625
220	0xbfb6206f	-1.4228648
221	0xbfbdf43b	-1.4840158
222	0xbfd2de75	-1.6474138
223	0xbfb9889f	-1.4494818
224	0xbfaa51e6	-1.3306243
225	0xbfb1a329	-1.3877918
226	0xbfc9a00d	-1.5751969
227	0xbfb0ae60	-1.3803215
228	0xbfb4bf4d	-1.412088
229	0xbfd0bbd3	-1.6307319
230	0xbfd49d94	-1.6610589
231	0xbfaf1651	-1.3678685
232	0xbfbb7b34	-1.4646974
233	0xbfb013db	-1.375606
234	0xbfa99717	-1.3249234
235	0xbfba380d	-1.4548355
236	0xbfba8b2a	-1.457372
237	0xbfc17645	-1.5114218
238	0xbfc40530	-1.5314083
239	0xbfb84cab	-1.4398397

lstm2.weight_ih_l0 f4 [240, 60]
0	0x3dbea967	0.09309655
1	0xbdc30f74	-0.09524432
2	0x3d85bf18	0.06530589
3	0xbd3c9bc2	-0.04604698
4	0xbbc83839	-0.006110218
5	0xbdb8ec71	-0.090294726
6	0x3d388426	0.0450479
7	0xbd7998cd	-0.060936738
8	0x3dbbc54e	0.09168492
9	0xbdeefe82	-0.11669637
10	0xbd659c28	-0.056057125
11	0x3da4ebf3	0.08052816
12	0xbd788e09	-0.06068233
13	0xbda184e4	-0.07886675
14	0x3d601166	0.054704092
15	0xbdf42cc2	-0.119225994
16	0xbdd241a8	-0.10266429
17	0xbdf80f84	-0.12112334
18	0xbd2069b6	-0.039163314
19	0x3d12b3bd	0.035815943
20	0x3ba73581	0.0051028137
21	0x3d74bc0f	0.05974966
22	0x3da8231a	0.0820982
23	0x3d7a7b80	0.061152935
24	0x3d24fd10	0.0402804
25	0xbdfeb396	-0.12436597
26	0x3bc1121c	0.0058920514
27	0x3df95a5e	0.12175439
28	0x3db6d362	0.08927037
29	0xbca712f8	-0.020394787
30	0xbdea0d7f	-0.114283554
31	0x3dea1721	0.11430193
32	0x3de40c7b	0.11135193
33	0xbd937058	-0.07199162
34	0xbd5133a1	-0.051074628
35	0xbb6772f7	-0.0035316327
36	0x3d11b9c5	0.035577554
37	0x3db502b0	0.08838403
38	0x3d9abc8b	0.07555493
39	0x3d8e07d5	0.069350876
40	0x3dd1f6e0	0.10252166
41	0x3c616d84	0.013759021
42	0x3becf5e4	0.007231461
43	0xbdcdec92	-0.10054888
44	0x3cd0a948	0.025471345
45	0x3cd2b412	0.02572063
46	0x3d083152	0.03325016
47	0xbdd41b7c	-0.10356805
48	0xbdc25b61	-0.094900854
49	0xbd7a1055	-0.06105073
50	0x3dacb188	0.08432299
51	0x3d9f7387	0.07785707
52	0xbd04dbe5	-0.03243627
53	0xbcbffef7	-0.023437006
54	0xbdf0aab3	-0.11751308
55	0x3e038834	0.12844926
56	0xbc18af60	-0.009319156
57	0xbdbecd21	-0.09316469
58	0xbdac34a9	-0.08408482
59	0x3db77105	0.08957104
60	0x3da75e3c	0.08172271
61	0xbd96ba99	-0.073598094
62	0x3dff39d3	0.12462201
63	0xbc1a8b0a	-0.009432564
64	0x3caa3721	0.02077824
65	0x3d27281c	0.040809736
66	0xbd7aace6	-0.061200045
67	0xbcb96ccd	-0.022634888
68	0xbd087ecc	-0.033324048
69	0xbd4b8605	-0.049688358
70	0x3d284a80	0.041086674
71	0xbdd36b90	-0.1032325
72	0x3db79b30	0.089651465
73	0xbd1f4687	-0.03888562
74	0x3d9bc24b	0.07605418
75	0x3daaabd4	0.08333555
76	0xbdbda7c6	-0.09260516
77	0x3dffb0d1	0.12484897
78	0xbd80d05d	-0.06289742
79	0x3de52fe6	0.111907765
80	0xbc7b599e	-0.015341191
81	0x3dc9e34b	0.09857806
82	0x3d6a4911	0.057198588
83	0xbdfc658c	-0.12324056
84	0x3d24d659	0.04024348
85	0xbd0185d6	-0.031621777
86	0x3d993cc5	0.07482294
87	0x3d6f935f	0.058490153
88	0xbd9c29c4	-0.07625154
89	0xbdb9fce6	-0.0908144
90	0x3cfa1931	0.03052959
91	0xbdf45ced	-0.11931787
92	0xbdb188e3	-0.08668687
93	0xbde134cd	-0.10996399
94	0xbdc28f1b	-0.094999515
95	0xbde92510	-0.11384022
96	0x3c97e39f	0.018541155
97	0x3da70f5b	0.08157226
98	0xbd1bd0e3	-0.038041007
99	0xbcfcb3d4	-0.030847467
100	0xbdb1c97a	-0.08681007
101	0x3d80733e	0.06271981
102	0xbdd54d94	-0.104151875
103	0xbd914248	-0.0709272
104	0xbda3d249	-0.07999093
105	0x3dac24cc	0.08405456
106	0xbca07a72	-0.019589636
107	0x3d374f11	0.044753138
108	0x3de26b9c	0.11055681
109	0xbc0da6be	-0.0086457115
110	0x3c05d361	0.008168072
111	0x3de80312	0.113287106
112	0xbd890d4d	-0.0669199
113	0xbda6991d	-0.08134673
114	0xbc010607	-0.007874972
115	0xbd744eb2	-0.059645362
116	0x3db035d1	0.08604015
117	0xbdf583a5	-0.11988
118	0x3dafa254	0.085758835
119	0xbdd4ac17	-0.10384386
120	0x3de1882b	0.110123
121	0x3d2d75c9	0.042348657
122	0x3db19120	0.086702585
123	0x3daeba09	0.08531577
124	0xbdb94677	-0.09046643
125	0x3d3a6f5f	0.045516368
126	0xbde1c590	-0.1102401
127	0xbc3fd4b8	-0.011708431
128	0x3d04091b	0.032235246
129	0xbdf0f1dc	-0.11764881
130	0x3e03c3d6	0.12867674
131	0x3dca3fbe	0.09875439
132	0xbdc340f5	-0.09533874
133	0x3d249fa0	0.040191293
134	0xbddc75fa	-0.1076469
135	0x3cab5ab3	0.020917272
136	0x3cb63f50	0.022246987
137	0xbdd8ce41	-0.10586215
138	0xbd90e9fc	-0.07075879
139	0x3d9f66fd	0.07783315
140	0x3caa3ad7	0.02078001
141	0x3ce2688d	0.027637744
142	0x3d8c5f97	0.0685417
143	0xbd857915	-0.06517235
144	0xbd98a7af	-0.07453858
145	0xbdabbb67	-0.083853535
146	0xbcbda60a	-0.023150463
147	0xbdb5f29a	-0.08884163
148	0x3dab11e5	0.083530225
149	0xbdc93de6	-0.09826259
150	0x3d12be89	0.03582624
151	0x3c475744	0.012166802
152	0x3d83b925	0.06431798
153	0x3c808ce7	0.015692187
154	0x3de2cc04	0.11074069
155	0xbd6c962e	-0.05776041
156	0x3c12d688	0.008962281
157	0xbd6a6685	-0.057226676
158	0xbd7516dd	-0.059836257
159	0xbc99cf0a	-0.018775482
160	0xbe03cda4	-0.12871414
161	0x3dfc254d	0.12311802
162	0xbe03fb89	-0.12888922
163	0xbd389e35	-0.045072753
164	0x3d2da3d8	0.04239258
165	0xbdd0bd05	-0.101923026
166	0x3c9f28c1	0.019428613
167	0xbe0189ae	-0.12650177
168	0x3dcfaf02	0.10140802
169	0x3d7b1188	0.061296016
170	0xbd632ed9	-0.0554646
171	0xbd9add6a	-0.07561763
172	0xbd9ade64	-0.07561949
173	0x3d6ad44d	0.057331372
174	0x3ce7250d	0.02821591
175	0xbc2b0603	-0.010438445
176	0xbdd12a81	-0.10213185
177	0x3ddd7f04	0.10815242
178	0x3c8d016e	0.017212596
179	0xbd24e8e8	-0.04026118
180	0x3dd904ea	0.105966404
181	0x3da92a52	0.08260025
182	0x3dd9c330	0.10632932
183	0x3d71d44c	0.059040353
184	0x3d720f2f	0.05909651
185	0x3dbaf4e0	0.091287374
186	0x3dc6d5cc	0.09708747
187	0xbdeff995	-0.11717526
188	0xbdeac9bf	-0.11464261
189	0xbde330cb	-0.11093291
190	0x3da7a507	0.08185773
191	0xbda2baa6	-0.079457566
192	0x3d846615	0.06464783
193	0xbdbcf4e6	-0.09226398
194	0xbdf9ee25	-0.122036256
195	0xbdba0c7d	-0.09084413
196	0x3bf02ce7	0.0073295715
197	0xbdcd289b	-0.100175105
198	0xbdecc0ac	-0.11560187
199	0xbdd5d20d	-0.10440455
200	0xbd77dcf1	-0.06051344
201	0xbcfae1b7	-0.030625207
202	0xbcc006c7	-0.023440732
203	0xbdb3bd60	-0.08776355
204	0x3dd072fd	0.10178182
205	0xbd3a9d3c	-0.045560107
206	0xbdafd7e3	-0.08586099
207	0x3de90ec0	0.113797665
208	0x3d147d0a	0.03625206
209	0x3d9387cf	0.07203638
210	0xbd989535	-0.07450334
211	0x3d15b759	0.036551807
212	0xbd890dfa	-0.06692119
213	0xbd886ca5	-0.06661347
214	0x3dd2e43e	0.1029744
215	0x3ded0149	0.11572511
216	0xbda04e8b	-0.07827481
217	0xbd1f66d1	-0.038916413
218	0xbd8cb888	-0.06871134
219	0xbdebf07d	-0.11520479
220	0xbde1e48c	-0.1102992
221	0xbd9480d3	-0.07251134
222	0xbcb08110	-0.021545917
223	0x3dfe9ca6	0.12432222
224	0x3df1317f	0.11777019
225	0x3d564e05	0.0523205
226	0x3db0d766	0.08634834
227	0x3d6ba2a7	0.057528164
228	0xbdb966ab	-0.090527855
229	0x3ce35918	0.027752444
230	0xbdae1680	-0.08500385
231	0x3d987375	0.07443897
232	0xbdf378e6	-0.11888294
233	0xbd13b391	-0.03605992
234	0x3d0dbe5e	0.034605376
235	0xbd1999c5	-0.03750016
236	0x3d6ed203	0.05830575
237	0x3d853001	0.06503297
238	0xbd1b945b	-0.03798328
239	0x3e009277	0.12555872
240	0x3daca5aa	0.084300354
241	0x3dd1af3a	0.102385
242	0x3d1443ee	0.036197595
243	0xbc44b92d	-0.01200704
244	0xbdc7d02d	-0.09756503
245	0xbd8ca01d	-0.06866477
246	0xbccf7d18	-0.025328204
247	0xbdb33956	-0.0875117
248	0x3d9666a0	0.07343793
249	0x3de6d5ea	0.112712696
250	0xbd6060a7	-0.054779675
251	0x3d1a12e6	0.03761568
252	0x3d550a5a	0.052011825
253	0xbdea530d	-0.11441622
254	0xbce1dccd	-0.027571106
255	0x3d61b475	0.055103738

lstm2.weight_hh_l0 f4 [240, 60]
0	0xbc784ba9	-0.015154758
1	0xbc9b2338	-0.018937692
2	0xbdd8b06b	-0.10580524
3	0xbd670bcc	-0.056407735
4	0x3de0d6cb	0.109784685
5	0xbdf293cd	-0.11844597
6	0x3dc3424e	0.09534131
7	0xbcf220a5	-0.029556582
8	0x3c2f2197	0.010689161
9	0x3dc5eab3	0.09663906
10	0x3d8e95a6	0.06962137
11	0x3d4947f6	0.049140893
12	0xbc075d53	-0.008261996
13	0xbd381c45	-0.044948835
14	0x3df40476	0.11914913
15	0x3dca9596	0.098918125
16	0x3dd26f85	0.10275177
17	0xbd9f1801	-0.0776825
18	0xbc7c186d	-0.015386683
19	0x3e034352	0.1281865
20	0x3c8f2db8	0.017477855
21	0xbd2711df	-0.040788528
22	0x3d0befad	0.03416412
23	0x3dedb290	0.11606324
24	0x3dbe7964	0.09300497
25	0x3c43354c	0.011914562
26	0x3d37f2fe	0.04490947
27	0xbdb7f615	-0.08982483
28	0xbe03eb0b	-0.1288263
29	0x3d134e66	0.03596344
30	0x3d90671a	0.07050915
31	0xbdf864a6	-0.12128572
32	0x3dd46083	0.10369971
33	0xbdef20cd	-0.11676178
34	0x3d9a6d0d	0.07540331
35	0xbdeeaa48	-0.11653572
36	0x3d17b5ba	0.037038542
37	0xbdbefc06	-0.093254134
38	0x3dd32b54	0.103109986
39	0xbddc583c	-0.10759017
40	0xbd023f67	-0.031798746
41	0x3dcb49ec	0.09926209
42	0xbcc56fda	-0.024101187
43	0x3deddd7d	0.11614511
44	0x3ca83058	0.020530865
45	0x3dd30c07	0.103050284
46	0x3b535e39	0.0032252206
47	0xbd77f8bf	-0.060539957
48	0xbd81714f	-0.0632044
49	0x3cb6838b	0.022279521
50	0xbcbb4203	-0.022858625
51	0xbc93d4a1	-0.018045725
52	0xbd979711	-0.074018605
53	0x3d17a2b8	0.037020415
54	0x3caa7784	0.020808943
55	0xbc3d5ac7	-0.011557288
56	0xbde3f404	-0.11130527
57	0x3dbaab14	0.09114662
58	0x3df061a7	0.11737376
59	0x3d5c99bf	0.05385756
60	0xbd23374b	-0.039847653
61	0x3e003111	0.12518717
62	0x3ca5b988	0.02023007
63	0x3d305ffb	0.043060284
64	0x3c080938	0.008302979
65	0xbd806161	-0.062685736
66	0x3d2ca4be	0.042149298
67	0xbd9e141a	-0.07718678
68	0x3d88775a	0.066633895
69	0x3d0b0c38	0.0339472
70	0xbdf5709e	-0.11984371
71	0x3c64b436	0.013958981
72	0xbd1386ee	-0.03601735
73	0xbcd7cc44	-0.026342519
74	0x3df391f5	0.118930735
75	0x39d59643	0.0004073848
76	0x3d846736	0.064649984
77	0x3cdca312	0.026933227
78	0x3d82d202	0.06387712
79	0x3d75ac89	0.059978995
80	0xbd38a115	-0.045075495
81	0x3dee2c16	0.116295025
82	0xbd3ca270	-0.04605335
83	0x3dfd9fa3	0.12383964
84	0x3dbdbc11	0.092643864
85	0xbcceaec3	-0.025229817
86	0x3de2d09d	0.11074946
87	0xbd64d605	-0.055868167
88	0x3c4de72c	0.012567323
89	0x3d2276ba	0.039664008
90	0x3d137864	0.036003485
91	0xbcd1bbd0	-0.025602251
92	0x3dbd4bf0	0.092429996
93	0x3df2336c	0.11826214
94	0xbd79d41b	-0.060993295
95	0xbdc003d1	-0.09375728
96	0xbde0f2f2	-0.10983838
97	0xbdb9efa7	-0.09078913
98	0x3ccefbde	0.025266584
99	0x3d0eaeb0	0.034834564
100	0x3dd8e0ce	0.10589753
101	0xbdcd2a7f	-0.10017871
102	0xbc97740c	-0.018487953
103	0x3dd072e4	0.10178164
104	0x3c84c9b9	0.01620947
105	0xbd861186	-0.06546311
106	0x3d2bf181	0.041978363
107	0x3d4616bf	0.048361536
108	0xbd6d79c9	-0.05797747
109	0x3ce4b789	0.027919548
110	0xbce8c3f2	-0.028413747
111	0xbdcb5874	-0.099289805
112	0xbd9f5197	-0.07779234
113	0x3df7a363	0.120917104
114	0x3cf694da	0.030100275
115	0xbb86c781	-0.004113138
116	0xbc26277e	-0.010141252
117	0x3da51257	0.08060139
118	0xbdb1090a	-0.08644302
119	0x3df203fe	0.11817168
120	0xbddc1222	-0.10745646
121	0x3d9f82a5	0.0778859
122	0x3a79ff3e	0.000953663
123	0x3df9d968	0.1219967
124	0x3cba3263	0.022729104
125	0xbc020753	-0.007936317
126	0x3d2e7847	0.042595174
127	0xbd167dc6	-0.03674104
128	0x3d6ec98e	0.058297686
129	0x3cd4073f	0.025882361
130	0xbdfab5f1	-0.12241734
131	0x3d5fcc59	0.05463824
132	0xbca587bb	-0.020206323
133	0xbdb39ed7	-0.08770531
134	0xbdf64ea1	-0.12026716
135	0xbbc0b16a	-0.0058805244
136	0xbdc7548a	-0.097329214
137	0x3df88d04	0.121362716
138	0xbd410d7a	-0.047131993
139	0x3d9419a6	0.072314546
140	0xbd1d50e9	-0.03840724
141	0x3d7866bd	0.060644854
142	0x3d9fcff6	0.07803337
143	0x3e02ad0f	0.12761329
144	0xbdc2b7d4	-0.09507719
145	0xbcc529a8	-0.024067715
146	0x3d33a8ef	0.04386228
147	0xbdc151ed	-0.09439454
148	0xbd7cc8e3	-0.061715018
149	0xbce2db8c	-0.027692579
150	0xbd4c1de3	-0.04983319
151	0xbd7b8a14	-0.06141098
152	0x3dc737df	0.097274534
153	0xbdd1bf13	-0.10241523
154	0x3dd9a13a	0.10626455
155	0xbdfc4a92	-0.12318911
156	0xbd661830	-0.05617541
157	0xbd3e7385	-0.046496887
158	0xbcdc11b5	-0.026863912
159	0x3d1c6228	0.038179547
160	0xbdd4edbb	-0.10396906
161	0x3b8c933f	0.004290014
162	0x3b10c4d6	0.002208998
163	0xbdb06ead	-0.0861486
164	0xbd6ef387	-0.058337715
165	0xbdb0ec06	-0.08638768
166	0xbd98bafc	-0.074575394
167	0x3d91c24e	0.07117139
168	0xbd08418e	-0.033265643
169	0x3de47a3f	0.11156129
170	0x3d57ad8a	0.052655734
171	0x3de61d98	0.11236113
172	0x3dd690f5	0.10476867
173	0x3e018a5b	0.12650435
174	0x3ddb0461	0.106941946
175	0xbd38125d	-0.044939388
176	0xbe006ed1	-0.12542273
177	0xbd9d37c7	-0.07676654
178	0x3ca947d0	0.020664126
179	0xbd4fe1db	-0.050752502
180	0x3d273c06	0.040828727
181	0x3d0f4a30	0.03498286
182	0xbd2927d4	-0.04129775
183	0xbd109b59	-0.0353044
184	0xbd50bac3	-0.05095936
185	0xbd844ade	-0.06459592
186	0xbd34d0b0	-0.044144332
187	0xbdcd67d7	-0.100295715
188	0xbbf04edb	-0.007333619
189	0xbd088f00	-0.0333395
190	0x3c4369d7	0.01192709
191	0x3d9d1e5c	0.07671806
192	0xbdee7deb	-0.11645111
193	0xbdf30533	-0.11866226
194	0x3d738513	0.05945308
195	0xbd48da11	-0.04903609
196	0xbdf689e9	-0.12038023
197	0x3dbcaf5f	0.09213137
198	0xbdaff12f	-0.08590924
199	0x3d822ed8	0.06356591
200	0x3d59fdea	0.053220667
201	0xbd7f8348	-0.06238106
202	0x3db68f8a	0.08914097
203	0xbd45292c	-0.048134968
204	0x3db31a8e	0.08745299
205	0x3de7cd5a	0.113184646
206	0x3d6b2748	0.05741051
207	0xbdb6e1d1	-0.0892979
208	0xbd740deb	-0.059583586
209	0x3de098f4	0.109666735
210	0xbe006662	-0.12539056
211	0x3ccc24a6	0.02491982
212	0xbdef58f4	-0.11686888
213	0x3cd7ba10	0.026333839
214	0x3d844ca8	0.064599335
215	0x3dd5041d	0.10401175
216	0xbda651ce	-0.08121072
217	0x3cad6fc0	0.02117145
218	0x3d649bbf	0.055812594
219	0x3d496787	0.049170997
220	0xbd113f24	-0.035460606
221	0x3be17e6e	0.0068815267
222	0x3de81d26	0.113336846
223	0xbd7f1611	-0.062276904
224	0xbd92923b	-0.071567975
225	0x3d17c8bd	0.037056673
226	0x3dd1908c	0.10232648
227	0xbdadaefe	-0.08480643
228	0xbdd0b22b	-0.10190233
229	0x3b89ba38	0.004203107
230	0x3db95c11	0.090507634
231	0xbd6a57cd	-0.05721264
232	0xbd196a3b	-0.037454825
233	0xbd83af98	-0.06429976
234	0x3db6735d	0.089087225
235	0x3d60cb4a	0.05488137
236	0x3d50f7ba	0.0510175
237	0x3d848f35	0.06472627
238	0x3e034590	0.12819505
239	0x3d6eaeb8	0.058272094
240	0xbdeaab4a	-0.11458452
241	0x3da947a8	0.082656205
242	0xbd419891	-0.04726464
243	0x3cb64b73	0.022252774
244	0x3d6f3034	0.05839558
245	0x3d7e8d93	0.062146734
246	0xbdc639ad	-0.096789695
247	0xbc98fda4	-0.018675633
248	0xbd464fd3	-0.04841597
249	0xbd6848b8	-0.056709975
250	0xbe015ef9	-0.12633885
251	0xbdbecc00	-0.09316254
252	0x3ccb2b22	0.02480084
253	0xbca36630	-0.019946188
254	0xb659eb7c	-3.247259e-06
255	0xbdbbc8f2	-0.09169187

lstm2.bias_ih_l0 f4 [240]
0	0xbc48fdf0	-0.012267575
1	0x3deae9e9	0.11470396
2	0xbda33a85	-0.07970146
3	0xbd375b65	-0.044764895
4	0x3d4a2752	0.049353905
5	0x3da059c4	0.078296214
6	0xbdf50450	-0.11963713
7	0x3de9e64f	0.11420881
8	0x3db6a170	0.089175105
9	0x3da34104	0.07971385
10	0xbcbc4dbb	-0.022986284
11	0x3dda5ff9	0.106628366
12	0x3c8e25f0	0.017352074
13	0xbe02e841	-0.1278391
14	0x3d86e4a4	0.065865785
15	0xbdd50a64	-0.104023725
16	0xbc9f8662	-0.019473258
17	0x3da97bab	0.08275541
18	0xbc924395	-0.017854491
19	0xbdfaebdf	-0.1225202
20	0x3c8efc4f	0.017454294
21	0xbe0060c7	-0.12536918
22	0xbde8839f	-0.1135323
23	0x3de14927	0.11000281
24	0xbd51d7dc	-0.05123125
25	0xbdc41117	-0.09573572
26	0xbd294df6	-0.041334115
27	0xbd03348b	-0.03203253
28	0x3cb372ae	0.02190527
29	0xbd9fb81c	-0.07798788
30	0xbde431e7	-0.111423306
31	0xbd8cd109	-0.06875808
32	0xbdda894d	-0.10670719
33	0x3def9c36	0.11699717
34	0xbdf7c338	-0.12097782
35	0x3d4f04eb	0.0505418
36	0xbdd4fddc	-0.10399982
37	0x3dc8643b	0.097847424
38	0x3d53fe9d	0.05175649
39	0x3d1a0b71	0.037608568
40	0xbdc7f4a6	-0.0976346
41	0xbd679d78	-0.05654666
42	0xbc940c67	-0.01807232
43	0xbe01a5fd	-0.12660976
44	0x3e035bc1	0.1282797
45	0x3cecf03e	0.02892315
46	0x3de4be4e	0.1116911
47	0xbd738a24	-0.059457913
48	0x3db1f498	0.08689231
49	0x3d9f9ed2	0.077939644
50	0xbc8eb7a9	-0.01742156
51	0xbb1ef425	-0.0024254408
52	0xbdaef97b	-0.085436784
53	0xbcf19be6	-0.029493283
54	0x3d8c03b4	0.06836644
55	0xbdf2e1ff	-0.118595116
56	0x3c53b645	0.012921874
57	0xbdd4bf1c	-0.10388014
58	0xbdf5ab52	-0.119955674
59	0xbda53813	-0.08067336
60	0xbbc2726c	-0.0059340503
61	0xbcffff44	-0.03124965
62	0xbdb2e789	-0.08735568
63	0x3d999478	0.07499021
64	0xbd091005	-0.033462543
65	0xbdea41b6	-0.114383146
66	0xbdb22086	-0.086976096
67	0x3db1d97e	0.086840615
68	0x3d84c51c	0.06482908
69	0x3da0e7ec	0.078567356
70	0x3d4267eb	0.047462385
71	0x3d2c2508	0.042027503
72	0xbdbfa1c2	-0.09357025
73	0xbd5d9baf	-0.05410355
74	0x3dc031f6	0.09384529
75	0xbdaffd9e	-0.085932955
76	0xbd885834	-0.066574484
77	0xbd284fb3	-0.041091632
78	0x3d9a887a	0.07545562
79	0xbdb51e57	-0.088436775
80	0x3e003432	0.12519911
81	0xbc7bacb1	-0.015360997
82	0xbd4f3602	-0.050588615
83	0x3cbf2034	0.023330785
84	0x3e021d24	0.12706429
85	0x3dc9ad82	0.09847547
86	0xbcad7afc	-0.021176808
87	0xbc48053b	-0.012208278
88	0xbcd33deb	-0.02578636
89	0xbd96d688	-0.07365137
90	0x3d26a70b	0.04068665
91	0x3d0ad835	0.033897597
92	0xbb54f24e	-0.0032493058
93	0xbd894cbc	-0.06704089
94	0xbd7bd509	-0.061482463
95	0xbd036f76	-0.03208872
96	0xbd6dd672	-0.05806584
97	0xbddd0ab9	-0.10793061
98	0x3da092de	0.07840513
99	0x3c402947	0.011728591
100	0xbc714b1d	-0.014727381
101	0xbd489756	-0.04897245
102	0x3cb0e7dc	0.021594934
103	0xbc64eb67	-0.01397214
104	0x3d6c5204	0.057695404
105	0xbde45926	-0.11149816
106	0x3ca1d5f3	0.01975534
107	0xbdc66c3e	-0.09688614
108	0xbda782cb	-0.08179244
109	0x3c14e742	0.009088339
110	0x3dd5f160	0.10446429
111	0xb89e4ee6	-7.548723e-05
112	0xbde30e4e	-0.11086713
113	0x3cd16d42	0.025564793
114	0x3d1a9d91	0.037747923
115	0xbd6c3129	-0.05766407
116	0x3af1b033	0.0018439352
117	0xbd9f1c05	-0.07769016
118	0xbdc55eff	-0.0963726
119	0x3d59bf24	0.0531608
120	0xbbad9c8d	-0.0052982033
121	0x3c360727	0.011110104
122	0xbd974cf7	-0.07387727
123	0xbc99d9a0	-0.01878053
124	0xbd235b86	-0.039882205
125	0x3dd988bb	0.106217824
126	0xbd4046f9	-0.046942685
127	0xbce0c8c1	-0.027439477
128	0x3d8bfd77	0.06835454
129	0xbdcf221f	-0.1011393
130	0xbc26c459	-0.010178649
131	0x3d843b89	0.06456668
132	0x3d7b7d4c	0.06139879
133	0xbd71cea7	-0.05903497
134	0x3d91de18	0.07122439
135	0xbde2af21	-0.110685594
136	0xbdfe0084	-0.12402442
137	0x3cfdb530	0.030970186
138	0xbdf615e8	-0.12015897
139	0x3df11754	0.117720276
140	0xbd391d42	-0.045193918
141	0x3e025aaf	0.12729906
142	0xbdeb5592	-0.114909306
143	0x3e0409a4	0.12894303
144	0x3d2a9056	0.041641556
145	0x3e0211b1	0.12702061
146	0xbc82487c	-0.015903704
147	0xbb03824b	-0.0020066674
148	0xbcc63660	-0.02419585
149	0x3ce4aa5e	0.027913269
150	0xbe000400	-0.12501526
151	0x3dc7f419	0.09763355
152	0xbdb3ccc1	-0.08779288
153	0x3d9da55c	0.076975554
154	0x3d334eb2	0.04377622
155	0x3dede27e	0.116154656
156	0xbcd6c08c	-0.02621486
157	0xbd1f1042	-0.038833864
158	0xbd5c9114	-0.053849295
159	0x3d53daf3	0.051722478
160	0x3df67990	0.12034905
161	0xbd08313e	-0.033250086
162	0x3c96e596	0.018420022
163	0x3cbeaadb	0.02327483
164	0x3d76ebbc	0.060283408
165	0xbde2555d	-0.11051438
166	0x3d2b081c	0.04175578
167	0x3d3458f2	0.044030137
168	0x3d150f2a	0.036391415
169	0x3cd6ad3f	0.026205657
170	0xbdffc887	-0.124894194
171	0xbd70047e	-0.058598034
172	0xbd8aa960	-0.06770587
173	0x3cec3fdd	0.028839046
174	0xbd8789d3	-0.06618085
175	0x3dbe4057	0.092896156
176	0x3ccfea69	0.02538033
177	0xbca841b5	-0.020539144
178	0x3dbe8e74	0.093045145
179	0xbd263dae	-0.040586166
180	0x3c98b782	0.01864219
181	0x3d8e30f2	0.06942929
182	0xbd31fd79	-0.04345462
183	0x3d0662a1	0.032808904
184	0x3d20dac1	0.03927112
185	0x3de1ff85	0.110350646
186	0x3d065327	0.032794144
187	0xba6cd119	-0.00090338435
188	0x3de93fcb	0.11389121
189	0xbd4542ed	-0.04815953
190	0x3d622f54	0.055220917
191	0xbdc077ff	-0.093978874
192	0xbca93428	-0.020654753
193	0xbcf7b9e8	-0.030240014
194	0xbdff2bb0	-0.124595046
195	0xbdcaf6b4	-0.09910336
196	0x3d8b3bc7	0.06798511
197	0x3d4ae408	0.049533874
198	0x3db80ede	0.08987211
199	0x3cc6070f	0.024173288
200	0xbcaa01e0	-0.020752847
201	0xbdfa1aeb	-0.122121654
202	0x3d982324	0.074285775
203	0xbc437513	-0.011929768
204	0xbd94a948	-0.0725885
205	0xbc9e8961	-0.019352617
206	0xbc93611e	-0.017990645
207	0xbabeeb80	-0.0014566034
208	0x3daf9f2c	0.085752815
209	0xbdd6bb4f	-0.10484945
210	0x3da7ddfe	0.081966385
211	0x3dc4affc	0.09603879
212	0xbc09c28c	-0.0084082
213	0xbd8ffc14	-0.07030502
214	0xbcd94ce3	-0.02652592
215	0xbd93685f	-0.071976416
216	0xbd3292be	-0.043596976
217	0x3d7cd2dc	0.06172453
218	0xbd44b220	-0.048021436
219	0x3dc45209	0.095859595
220	0x3d1b3cf1	0.037899915
221	0xbdf96565	-0.121775426
222	0x3d5413ff	0.051776882
223	0x3bb435b0	0.005499564
224	0x3d783a50	0.060602486
225	0x3d19b1c8	0.03752306
226	0xbdfde8b5	-0.12397901
227	0xbca124db	-0.019670894
228	0x3c7cc139	0.015426927
229	0x3d1a58e7	0.03768244
230	0xbdcb8c37	-0.09938853
231	0xbdc6a14b	-0.09698733
232	0x3dc9ebda	0.09859438
233	0x3dfed7a3	0.12443473
234	0xbd65bc59	-0.056087825
235	0xbcc187d9	-0.023624348
236	0xbddcf291	-0.10788453
237	0xbd8e67c9	-0.06953389
238	0xbd612a98	-0.05497226
239	0xbd7529a5	-0.05985417
