models/forecasting/lstm/model.pth (torch, 331164 bytes, 9 tensors)

lstm1.weight_ih_l0 f4 [320, 12]
00000000: dd9c 21bc 2540 91bd 8f7f 143b ff19 e6bd
00000010: b846 123d 47a6 5bbd 8f14 a53c e9ac 093e
00000020: 28b9 39be 5947 1e3e 17b0 69be 0b29 443e
00000030: 2404 19be 13ff fabc bb87 58be 415f a33d
00000040: 669a d23d fedd 753d e506 8fbc f31b 913d
00000050: ebd0 9c3d ba64 b23b 143e 5f3d 27d4 57be
00000060: e5d4 7cbe ad9b 113d e6e0 4abd 3aaf 1fbd
00000070: d316 81bc bbcc 5abe 5ee5 d13d f3b9 b5bc
00000080: 6705 04be 34c1 2c3d 5c7c a7ba 3f75 953c
00000090: e59b cd3d 6958 92bd 04c1 1fbe 2bad 253d
000000a0: d788 1a3e c6b9 90bd 209b d7bb fd15 35be
000000b0: 85e7 aa3e 2d85 2cbe 1209 033d 8156 75bd
000000c0: 8e8f 6dbd 6c71 0f3e 4951 28be 8c9a 92bd
000000d0: 7598 113d 6e5e a23d ef14 223e bc42 2d3d
000000e0: 7820 54be 6243 423e 859f 4e3e 19a6 15be
000000f0: 221a a03d a532 923d b0ef 72bd d7ae 46bc
00000100: 70af 88be 371d 2fbd 0649 573c f81f 0bbd
00000110: c6da 2c3e 4a0a 98bd 72d5 5e3e efae 543d
00000120: cc08 06bd 921b a53e d855 cd3d 5262 f1bc
00000130: 5b9e 533e 8b8b 4f3c dba3 7cbd da01 ccbc
00000140: 9496 33bc 669c 83be f031 5d3d 6d6d 37be
00000150: ff16 ab3e ad99 e83d 3108 bc3d 8c1c f1bc
00000160: 4cf0 0abe 962f 6dbc 1a20 4cbd 2b7c 68bd
00000170: f96f 84bd a187 973e 827e 093c d6c4 a4bd
00000180: 5dc9 4bbe 9dd5 b83d c8ef 243e f5f2 99bd
00000190: 6af5 c63d 5bc3 b13d 7168 f3bd a6f6 8cbd
000001a0: 4cb1 183d c2ce 883d 3152 e5bd 6430 3d3c
000001b0: d06a ba3e 78d2 a53c 0286 be3d 0921 a4bb
000001c0: 97e5 a53d e013 34bd 4a2d 56be 6ef2 1abe
000001d0: 8f07 193e b6be 863d 9381 ea3d a73e 30bd
000001e0: 13db 9d3e a613 38be d235 c9bc acf4 10bd
000001f0: 8338 a1bd bb6c 67bd 8b60 713d f054 23bd
00000200: 2f9d 9bbd 5b64 003d 33ed 333e 4a3b c13b
00000210: 5793 a83d de1b 4fbd cd73 21be 392c f5bc
00000220: 4f17 ae3d f6ec 963d e4d2 c2bd 6bcb 9b3b
00000230: cf70 fbbd 8e9e 883d 0cb3 0f3e 2ff9 693c
00000240: 28b5 463d 1f2a 8bbe 2b67 bc3d 04e4 40bd
00000250: 93f4 873d c538 fa3c 5b28 a23c 34f6 4e3d
00000260: cb4b 4b3e 7f84 0b3e f356 883d 64f6 ecbd
00000270: 2ebe d1bd 36db 54bc 57df 7bbd 1001 93bc
00000280: ab90 f63a 1ca0 23be 65c0 1d3e 384a 92bd
00000290: 36ba 223e 2b13 a5be cfcc f93d 5c31 3dbe
000002a0: 894c ec3c 7226 48be 21d5 633e fc8f e3bd
000002b0: 7d58 32bd 0403 d13d d9e3 31bc 92b8 fe3d
000002c0: a117 19be aa10 0c3e 158a 383e 97d3 89bd
000002d0: 41e2 3b3e b08b 893e 18fa 553e e281 68bc
000002e0: 864d 973d 6198 a43d 4d20 543d 1231 febb
000002f0: acd9 453c c284 b33c f17c de3d 1bbf f2bc
00000300: d050 b13d b00e 57bd e985 3cbe 9071 703d
00000310: 843d de3d 0aa6 7839 eb67 fc3c 5822 5f3e
00000320: 9536 a0be a893 503e 1346 e53c a553 1dbd
00000330: c9ad 573e 5eef 013e c2f3 b93d 8f04 48bb
00000340: dd2c 2d3d db97 53be 5907 963d 7844 52be
00000350: a191 573c 30db 633d 35fa 84bd 4c5e 43bd
00000360: d7a0 89be 1033 afbd f0e2 e7bd b541 84bd
00000370: 57d9 d7bd caff 023d 0021 203e f137 213d
00000380: f333 973c bb8f 0fbe cad2 0dbc 1b50 053c
00000390: 7296 a03e 6ff7 04be e5e8 1f3e 36b6 163e
000003a0: 87bf c93d b3d9 843e b2b9 8bbe c8a5 513e
000003b0: 0ff5 4abe 0fcf c5bc c9e3 64bc 7f77 993d
000003c0: 25b1 d8bd c5ab 083e 65b0 2ebe dad2 873d
000003d0: 471d d73d 65d0 153d a317 d73d de79 073d
000003e0: 3887 a53d 5ce8 f9bb 73c9 f33d dd85 c03d
000003f0: 0681 38bd 9435 36be a2a0 3f3e d448 cdbd
-0.009864059 -0.07092313 0.0022659039 -0.11235427 0.035711974 -0.05362537 0.020151405 0.13444866
-0.18137038 0.15456904 -0.22821079 0.19156282 -0.14942986 -0.030639207 -0.21145527 0.079771526
0.102833554 0.06002616 -0.017459342 0.07085409 0.076570354 0.0054441364 0.05450256 -0.21077023
-0.24690588 0.035548855 -0.049530886 -0.03898547 -0.015757954 -0.21367161 0.102488264 -0.022183394
-0.12892686 0.04217644 -0.0012778151 0.018244384 0.100395 -0.07145769 -0.15600973 0.04044835
0.15091263 -0.070666835 -0.0065797716 -0.17684169 0.3337976 -0.16847678 0.031991072 -0.05989695
-0.057998233 0.14008111 -0.16437258 -0.07158384 0.035545785 0.07928167 0.15828298 0.04229997
-0.20715511 0.18971017 0.2017804 -0.14614142 0.078174844 0.07138566 -0.059310615 -0.012126646
-0.26696348 -0.04275247 0.013139969 -0.033966035 0.1688033 -0.074238375 0.2176111 0.051924642
-0.032723233 0.32247597 0.10026139 -0.029465828 0.20665877 0.012667547 -0.061679702 -0.024903227
-0.010961194 -0.2570526 0.054002702 -0.17912836 0.33415982 0.11357436 0.0918125 -0.029432558
-0.13568228 -0.014476677 -0.049835302 -0.05675904 -0.064666696 0.29595664 0.008391978 -0.08045356
-0.19901033 0.090251185 0.16107094 -0.075170435 0.09714778 0.08679839 -0.11885155 -0.06882982
0.03727846 0.06680061 -0.111973174 0.011547182 0.36409616 0.02024196 0.09302904 -0.005008821
0.081004314 -0.043964267 -0.20915714 -0.15131542 0.1494429 0.06579344 0.114504956 -0.0430285
0.30831203 -0.17976245 -0.024561796 -0.035389587 -0.07872107 -0.056500178 0.05892996 -0.039875925
-0.0759834 0.031345706 0.17570953 0.0058969604 0.08231228 -0.050563686 -0.1576683 -0.029928314
0.085005395 0.073694155 -0.095128804 0.004754474 -0.12277376 0.06670867 0.14033145 0.014280601
0.048512608 -0.27180573 0.09199365 -0.047092453 0.06638446 0.030544648 0.019794634 0.050527766
0.19853131 0.13624762 0.06657209 -0.11570433 -0.10241352 -0.012991717 -0.06149229 -0.017944843
0.0018811425 -0.15979046 0.15405424 -0.07143062 0.15891346 -0.32241186 0.12197267 -0.1847586
0.028845089 -0.19545916 0.22249271 -0.11111447 -0.04354142 0.10205653 -0.010857546 0.12437548
-0.1495042 0.13678232 0.18021424 -0.06729811 0.18348028 0.26864386 0.20896184 -0.014191123
0.07387833 0.080368765 0.051788617 -0.0077573145 0.012075823 0.02191389 0.108636744 -0.029632142
0.08657992 -0.05250424 -0.18410458 0.05870205 0.10851577 0.00023712977 0.03081127 0.21790445
-0.31291643 0.20368826 0.027987516 -0.038409848 0.21062388 0.12688968 0.09079696 -0.0030520295
0.042279113 -0.20663397 0.0732562 -0.20533931 0.013157279 0.055628955 -0.06493036 -0.04769735
-0.26880524 -0.08554661 -0.11322582 -0.06457845 -0.10539501 0.03198222 0.15637589 0.03935999
0.018457389 -0.14019673 -0.008656213 0.008136774 0.3136478 -0.12985013 0.15616186 0.14717945
0.09850984 0.2594734 -0.27290112 0.20473397 -0.19820045 -0.024146585 -0.013970324 0.07493495
-0.10580663 0.13346775 -0.17059477 0.066320136 0.10503631 0.036575694 0.10502555 0.033075206
0.080824316 -0.0076265763 0.11903658 0.094005324 -0.04504492 -0.17793876 0.1871362 -0.100236565

lstm1.weight_hh_l0 f4 [320, 80]
00000000: a27d e53d 6b42 5abe 5ebf 0ebe 20e5 fa3c
00000010: b9d8 9b3a 7da4 a2bd 6357 6abd ec19 213d
00000020: ee93 3cbe 251d a0bc 8afb 53be 9f51 a0bd
00000030: 9bc0 47bd da77 8e3d 6f1b 94bd 9e1c c4bd
00000040: 55b0 cb3b 6ab9 593e 8462 843d 4d15 c1bd
00000050: a24d 16bd 7d58 113d 4aba 80be 6f5a 5cbb
00000060: 5405 ff3c 861e 30be 3b34 44be 32aa 4fbc
00000070: 3cea 873d 1792 c43c 3a22 46be d8ab 963e
00000080: 113b 01be 4e18 75be b834 7b3e 14a7 bebd
00000090: 7461 d8bd 9242 7b3c 19b3 443e fe78 c0bd
000000a0: 5f9d 8fbd 9218 d1bc 4a3e c03d 8137 e2bb
000000b0: 367f c83d f454 7a3d 3e11 e33e 7295 7f3e
000000c0: bfea 5dbe d09b e7bb 0bf3 463d 9ed8 6bbe
000000d0: 5d74 553e 1be5 7e3e 63eb 64be 00a9 2a3e
000000e0: 1eda 8fbe 64fc 163e 04a3 0aba ac80 993e
000000f0: 5235 26be 7afc 19bd 8263 7abd 50af 8d3d
00000100: 6dbb 27bd 6940 9cbe f64e 06bd fe42 6f3e
00000110: c61e fcbd 9357 b43d 18a1 96bd 5469 083e
00000120: ca5a 10be e05f b2bd 64b8 65be 1d04 0abe
00000130: 505a 4cbd 6bb5 993c 9db6 7ebc 7ece aebc
00000140: c5b7 463e ea84 4fbd 93ba 123e dac7 393e
00000150: 3b9b e7bc 13d1 90bc 391c 943d 6f04 3c3d
00000160: f726 2d3e 0ca0 86bd f4e0 acbd ff62 40bd
00000170: 8216 42be ef54 6abd a6b0 093e 24b2 a1bd
00000180: 68c4 e7bd 8bd2 fb3d 55ce 9e3d efcf 143e
00000190: 488a 7ebd 77e0 05be 6080 9abe f573 82bc
000001a0: 51c5 d5bd 93d6 193e d6a9 11bd 41fe 01be
000001b0: 5273 ccbb 3174 4f38 69ba 5f3e 4cad 063d
000001c0: 5fd4 203d 15f9 1d3e cc62 e33b dc73 b2bd
000001d0: d052 063d 21f0 9d3b 73db 7abd a00e 17be
000001e0: b4ac d73d 1059 fc3d 6dde 8d3d 1b9e 1b3e
000001f0: 2bf9 75bd a2ee 8cbc 2b94 f4bd fa7e 16bd
00000200: fa4d 87be 841c 65be 450a ed3d 9b71 bfbb
00000210: 4593 e43d 0b99 b1be 0cb3 5fbe 584e 3f3d
00000220: 123b 1abd 74a5 0dbe 1640 413e 2bdf f7bb
00000230: 0514 56be 380e 753d 3ff8 54be ade2 e9bc
00000240: 72e4 31bc 6453 36be 9139 a2bd ca5f 323d
00000250: 2f12 9dbd 76a4 f3bd 6841 84be 9c57 6b3c
00000260: ddcd 583d 2205 83bd d71b 91bd e58c 37be
00000270: ec58 623c 08bd 14bd dba9 263e 52e9 e93d
00000280: eb45 91be a4e1 be3c 11ab acbd 447f 9b3d
00000290: bc88 cebe 77d6 cebe e0e2 22bd 42bd 5fbd
000002a0: 9aba 84be a636 0fbd 3661 82be 28bb f7bc
000002b0: 63cd 88be 4c1f a93e cd19 9bbd eb1a 9bbe
000002c0: d701 b83e f403 103d f743 86be 7401 c1bc
000002d0: 79cc 323d ce2d 623e 957d f0bd 36c0 aabc
000002e0: a8f2 413e 9eb4 653e 53e6 64bd 6c8b 8ebd
000002f0: 80ab 6fbd f9aa c3be 59bc 2d3e 7fb6 48be
00000300: 55fe e3bc 72c0 0dbd 455f b3bb 57b1 c3be
00000310: 3231 393e 911d 02bf 0cd9 503e 549b 9a3d
00000320: 7210 623e b95a c7be 287b e7bd 5480 5b3e
00000330: ee74 88bd 37c2 143e 7954 9bbd 5d05 173e
00000340: 7f51 adbe e77e 31bd 3bf5 183e a051 c4be
00000350: 7381 8bbe c0e7 813d be01 143e 9abe 953c
00000360: 6119 6ebe bc32 23be b093 eebd 0dd3 abbc
00000370: c9ce 9d3e d0bd 83bd b47b 3d3e 44cb debe
00000380: 5273 213e 8104 1cbe 1d61 6c3d 0b91 d43d
00000390: 021c 4fbe 794b 643c c12c 943c 6f4a 60be
000003a0: 053b b9bc 5bb9 dc3d 8e48 153e 9930 eb3d
000003b0: a858 233e c35d 17bd 0ac4 33bb 0a01 79be
000003c0: ca86 a1be bbde 333d 5696 e2bd 1f6a 153e
000003d0: 42e7 a7bd 14ac c4bd 60d4 29be fba9 b83d
000003e0: 140c a7be f0a2 a2bd dcb0 6abe d3e0 943c
000003f0: 7f38 53be ef1b b23e 7237 fe3d c78d 60be
0.11205603 -0.21314399 -0.13940188 0.030626833 0.001189015 -0.0794153 -0.057212245 0.03933136
-0.18415806 -0.019545147 -0.20701423 -0.07828068 -0.048767667 0.069564536 -0.07231795 -0.09575771
0.006216089 0.21262136 0.06464103 -0.09427891 -0.03669513 0.03548478 -0.25142127 -0.0033623239
0.03113047 -0.17199144 -0.1916055 -0.012674855 0.066364735 0.023995442 -0.19348994 0.2942798
-0.12620188 -0.23935053 0.2453183 -0.093092114 -0.10565463 0.015335696 0.19208945 -0.093980774
-0.07012438 -0.025524411 0.09386881 -0.0069035892 0.097898886 0.061116174 0.44349092 0.24959353
-0.2167158 -0.007068135 0.048571628 -0.23031852 0.2084517 0.24892084 -0.22355418 0.16666031
-0.28096098 0.14744717 -0.00052885734 0.2998098 -0.16231278 -0.037594296 -0.061130054 0.06918204
-0.040950228 -0.3051789 -0.032790147 0.23365399 -0.12310557 0.08805766 -0.07354945 0.1332143
-0.14097133 -0.08709693 -0.2243362 -0.13478132 -0.049890816 0.018763265 -0.015546468 -0.021338698
0.1940604 -0.050663866 0.14328985 0.18142644 -0.028272262 -0.01767782 0.072319455 0.045902666
0.16909395 -0.06573495 -0.08441344 -0.04696941 -0.18953899 -0.057209905 0.13446292 -0.07895306
-0.113167584 0.12296017 0.077541985 0.14532445 -0.062143594 -0.13073908 -0.30176067 -0.015924433
-0.10438026 0.1502326 -0.03556236 -0.12694646 -0.006239333 4.9460858e-05 0.21848454 0.032880113
0.039265033 0.15427049 0.0069392677 -0.08713505 0.03279382 0.0048198854 -0.06124444 -0.14751673
0.105309874 0.12321675 0.0692719 0.15197031 -0.06005208 -0.017203633 -0.11942323 -0.036742188
-0.2642668 -0.22374159 0.115742244 -0.0058424002 0.11160902 -0.34687075 -0.21845645 0.046705574
-0.03765399 -0.13832647 0.18872103 -0.0075644455 -0.20906074 0.059828013 -0.20797823 -0.02855047
-0.010857688 -0.17805248 -0.07921136 0.043548383 -0.07669484 -0.11896603 -0.2583115 0.014364149
0.0529307 -0.063974634 -0.07085388 -0.17924841 0.013815146 -0.036313087 0.16275732 0.114214554
-0.28373656 0.023300953 -0.08431066 0.07592633 -0.40338695 -0.40398 -0.039767146 -0.05462385
-0.25923616 -0.034964226 -0.2546479 -0.03024061 -0.26719198 0.3303169 -0.075732805 -0.30293974
0.35938904 0.03516002 -0.26223728 -0.023560263 0.04365203 0.22087786 -0.11742703 -0.020843606
0.18940222 0.22432181 -0.055883717 -0.06960186 -0.058513165 -0.3821638 0.1696638 -0.19600867
-0.027831236 -0.03460736 -0.0054740035 -0.38221237 0.18085173 -0.50826365 0.20395297 0.07549158
0.22076586 -0.38936403 -0.11302787 0.21435672 -0.066629276 0.14527212 -0.07584471 0.1474814
-0.3385124 -0.043333914 0.14937298 -0.38343525 -0.272472 0.06343031 0.1445379 0.018279362
-0.23251869 -0.15937322 -0.11649263 -0.02097466 0.30821827 -0.06432688 0.1850422 -0.43514454
0.15766647 -0.15236093 0.057709802 0.10379227 -0.20225528 0.01393401 0.018087747 -0.21903394
-0.02261115 0.10777541 0.14578459 0.11483879 0.15951788 -0.036954653 -0.002743008 -0.24316803
-0.31548148 0.043913584 -0.110638306 0.14591263 -0.08198406 -0.09603134 -0.16584921 0.09016796
-0.32626402 -0.07941234 -0.22919029 0.01817361 -0.2062702 0.34786937 0.12412919 -0.21929084

lstm1.bias_ih_l0 f4 [320]
00000000: 6f77 673c d99a 0bbe c183 1cbd ca22 06bc
00000010: 2e01 bfbd bb2c 27be a0c8 dbbd ce60 e2bd
00000020: 2482 4dbd 28bf 153e 6714 26bc 08b6 90be
00000030: 395d 49be c656 b1bd 3615 903c fb98 8abe
00000040: 2f66 41bd 3537 39be edd8 d3bd 3043 5abe
00000050: 8ed3 79be 480e a3bd 0a91 83bc efb5 89be
00000060: 652d 8bbd 1fca cbbd 2eeb 27be 1551 2bbd
00000070: 4e44 b6be f1e1 8cbe eb75 06bb e758 73be
00000080: bc33 28bd 7b40 92bd 3657 0abe 2954 973a
00000090: c33a 2d3d 94a1 37be d6eb 19be 5861 7cbe
000000a0: 7adb 2cbe be74 5cbe bdfc 9ebd 1b94 4dbe
000000b0: 1541 083e 2d54 27be 713d 31be 89ee 43bd
000000c0: d140 453b 3897 96be 9cb4 7cbe 5bec e2bc
000000d0: 6140 8dbe 9f72 93bd 943d 10be b411 93bd
000000e0: 5cd2 debd b982 fcbd 0d19 3ebe 2c3a 58bd
000000f0: db1a 56be 1917 c8be f1e1 15be e73d d9bd
00000100: 6aed 36be 424d 6dbd d605 d0bd 7e12 3bbe
00000110: 778f 15be 8f83 fdbd 4ae1 b8bd 5351 06be
00000120: 7b87 b1be 0237 87be 65ae 5bbe 5013 82be
00000130: 7995 8dbe 255d 71be cd70 423d d98d 23be
00000140: 8994 103d a63e 1fbe 9491 b7bd cdea 103d
00000150: a94d 17bd 6b81 debc 438b 1b3d 2344 1abd
00000160: 968f 9dbd 93e9 f43d ba4a 0fbd a0fd 56bd
00000170: dd95 20be c5f1 94bd 4ec0 213e 5def e3bd
00000180: 1d69 693d a8f8 6fbe e147 c6bd ea43 5c3d
00000190: 5b07 80be 3649 07be 8cf7 2cbe 016b b9bd
000001a0: ec0f 1ebe ffa3 82bd 95d1 1ebd 6923 dc3d
000001b0: 943c 2e3c 66ed b1bd 59ea 8c3d c51e 57bd
000001c0: b331 c1bd 3c30 da3b d792 03be 956c 293d
000001d0: 1fca 213e 5aff f03d 86ef 52be 2ca0 dcbc
000001e0: 370b a4bd d91f 04bd a90f d9bd 0617 09be
000001f0: bfa8 d53d c630 3abe 76c4 0dbe 7806 a43d
00000200: 3baa 0a3c 4278 08be 77f2 43bd 205b 893d
00000210: 3cbf 1cbe 3dc2 87bd b3ee 2bbd 4916 e8bc
00000220: d683 033e 0831 23be 3ad5 fbbd f95a 3dbe
00000230: efb0 33bd 4510 75bb 7836 e2bc 12da 37be
00000240: aebb 71be d154 c0bc e111 79bd 199a a7be
00000250: c39b 38bd d9e6 e3bd 491a 423d 2535 26be
00000260: 8077 7fbe 3252 95bc bc81 bebc 6880 02be
00000270: bb3e 1bbb 1b7f a0bd f753 8b3d ff77 8bbd
00000280: 7aa7 2e3c d445 c33d 33b7 d03c 6694 653b
00000290: b800 fe3d c14e 23bb f5e5 3abd 67f9 75bd
000002a0: c243 9b3d 5710 2e3d bf1d 8d3d 8542 633d
000002b0: 8f9e 523c f034 f0bd ed51 0d3d a27e 2a3e
000002c0: 1c72 f6bd 8e84 463b 2008 393d 97d7 7e3d
000002d0: 00e1 eabc 33ee 06be 0ea0 4c3d 7b62 9a3d
000002e0: 4287 abbd 8507 253d ae12 ba3d 4dec 65bd
000002f0: d76d c53c 8844 95bd 43fa 41bd 76d0 523d
00000300: 6dd6 903d 234f c03c a803 ac3d 73fe 9e3b
00000310: d88d 3d3c c069 a93d edc9 0bbd 72f0 dd3b
00000320: 515c 233d efe2 5dba da5f 84bd 66e8 683d
00000330: c36a e1bd c2bc 24bd 8f77 043e 8c22 75bd
00000340: 1a37 773d 88b5 3d3d 1af9 a4bd 4c17 c8bb
00000350: 5fef 53bd fa3f 03be a686 983c 5c50 5b3c
00000360: f763 fb3d bd96 023d febc 95bd 9b11 a4bd
00000370: 6e3a d4bd ca02 a4bc 686c 8dbd e229 96bd
00000380: 24cd af3b 7bdc cebd 03a3 08be 6da9 0fbd
00000390: 14f2 023e 71fb 9bbb 8739 a0bc 7ac5 06bd
000003a0: c159 bd3c 45e2 543d 3b6d 6a3d e89d 973d
000003b0: 49d9 a33c 209d 8cbd aec3 0ebd b9d1 883b
000003c0: ffe8 44be ae65 88be c589 15be 25ea a6bd
000003d0: 3e60 1fbd ecf7 49be c2a0 11be 8d55 07be
000003e0: 7f75 ddbd 1706 37bd 99fa 223c 976b 77be
000003f0: 1e38 29be e92e 0ebe 4cb5 2fbe b81f 9abe
0.014127596 -0.13633288 -0.038211588 -0.008187005 -0.09326397 -0.16325657 -0.107316256 -0.1105362
-0.05017294 0.14623702 -0.0101367 -0.2826388 -0.19664468 -0.08659129 0.01758824 -0.2706984
-0.04721659 -0.18087466 -0.1034411 -0.21314692 -0.24397108 -0.07961708 -0.016060371 -0.26896617
-0.06795768 -0.09950661 -0.16398308 -0.041825373 -0.35598987 -0.2751613 -0.0020517062 -0.23764382
-0.041064963 -0.07141205 -0.13509831 0.0011545467 0.042292368 -0.17932731 -0.1503137 -0.24646509
-0.16880599 -0.21528909 -0.0776305 -0.20076029 0.13306077 -0.16340704 -0.17308594 -0.047834907
0.0030098448 -0.29412246 -0.24678272 -0.027700594 -0.2758818 -0.071995966 -0.1408599 -0.07181111
-0.108799666 -0.12329621 -0.18564244 -0.052789852 -0.20908682 -0.39080122 -0.14636971 -0.1060751
-0.17864004 -0.057935007 -0.10157363 -0.18268773 -0.14605509 -0.123786084 -0.090273455 -0.1311696
-0.34673676 -0.26409155 -0.21453245 -0.2540536 -0.276531 -0.23570688 0.047470856 -0.1597208
0.035297904 -0.15551242 -0.08963314 0.035380173 -0.036939297 -0.02716132 0.037974607 -0.037662636
-0.076934025 0.11958613 -0.034983374 -0.05248797 -0.15682168 -0.072726764 0.15796015 -0.11129639
0.05698501 -0.23434699 -0.096816786 0.053775705 -0.25005612 -0.13211522 -0.16891307 -0.090536125
-0.15435761 -0.06378936 -0.03877409 0.107489415 0.01063456 -0.08687858 0.06880636 -0.05251958
-0.094333075 0.006658582 -0.12848984 0.041363318 0.1579976 0.117674544 -0.20599183 -0.026931845
-0.080099516 -0.032256935 -0.1059869 -0.13387689 0.104325764 -0.18182668 -0.13844475 0.08009046
0.008463438 -0.13327125 -0.047838654 0.06706834 -0.15307325 -0.06628845 -0.04197569 -0.028330939
0.1284326 -0.15936673 -0.12296529 -0.18491735 -0.04386991 -0.003739373 -0.027613863 -0.17954281
-0.2360675 -0.023477944 -0.060808066 -0.32734755 -0.04507042 -0.11128015 0.04738835 -0.1623121
-0.2494793 -0.01822767 -0.023255222 -0.12744296 -0.0023688513 -0.078367434 0.068031244 -0.06809997
0.010660047 0.09534803 0.025477981 0.003503108 0.12402481 -0.0024918767 -0.04562946 -0.0600523
0.07581283 0.04249605 0.06890439 0.05548336 0.012855186 -0.11728847 0.03450196 0.16649869
-0.120334834 0.003029141 0.045173764 0.06221732 -0.028671741 -0.13176803 0.049957328 0.07538315
-0.08375408 0.040290374 0.09085594 -0.056133557 0.024100227 -0.07288462 -0.04735781 0.051468335
0.070721485 0.023475235 0.08399135 0.00485211 0.011569463 0.08272123 -0.03412812 0.006773048
0.03988296 -0.00084642967 -0.06463595 0.056862257 -0.11006691 -0.040219076 0.12936233 -0.0598474
0.060355283 0.0463157 -0.08055325 -0.006106293 -0.051741954 -0.12817374 0.018618893 0.013385858
0.12274926 0.031882036 -0.07311438 -0.080111705 -0.10362707 -0.020020861 -0.069054425 -0.07332207
0.005365031 -0.10100647 -0.13343434 -0.035073686 0.12787658 -0.0047601988 -0.019558681 -0.032903172
0.023114087 0.0519736 0.057233077 0.07403165 0.02000107 -0.06865907 -0.034854583 0.0041753915
-0.19229506 -0.26640075 -0.14603336 -0.08150128 -0.038910143 -0.19723481 -0.1422148 -0.13216229
-0.10813426 -0.044683542 0.009947442 -0.24162136 -0.16525313 -0.13885082 -0.17159003 -0.30102324

lstm1.bias_hh_l0 f4 [320]
00000000: 78c1 3cbe 5c3b 91be 84c0 5abd cf62 75bd
00000010: f23c 36be 41a3 05bd 0345 64be e038 d4bd
00000020: c347 8f3d 3e9f 2d3e fcfb ebbd f744 5dbe
00000030: 8f8f 44be 8ca6 ecbd 5d79 f53c b412 7dbe
00000040: 3abe 77be 4123 e7bd 3c65 7cbe 829b 5abe
00000050: cdea b1be 78bc 26be 764d a4bd ddc2 f2bd
00000060: 7b04 7a3d 5da5 8abe 746e b03c 5362 373d
00000070: a106 2abe e118 85be e8e3 2fbc 1373 0dbe
00000080: 07ca 24be 0b69 743d 1a86 23be 0e89 87bd
00000090: 8974 453d bb20 c5bd 2c70 2dbe 8c58 25be
000000a0: cf0a 5ebd fe3b 95bd 5525 e0bd 5d82 83be
000000b0: 8350 443d b1a5 6dbe 7f54 0fbe bd3b f7bd
000000c0: 4388 17be 93a9 8abe e8bf 7ebd 6de3 e2bd
000000d0: 1d6c 7fbe 0fae 20be c9eb a4bd a007 25be
000000e0: af00 37bc 3eb3 2dbe 30fc 18bd 5a91 7abe
000000f0: bf1b 02be aeef a9be 172d 1ebd 1a85 4abe
00000100: 0a05 b4bd 5480 59be 169b debc 8703 88be
00000110: 9160 a7be 497b 8dbe 3fc7 62be d561 27be
00000120: 13b8 90be 9a0b 6dbe c9fd 7cbe 8f32 75be
00000130: 7dec 19be aef5 04be fc0a 413c 4feb 40be
00000140: db72 4f3d 221e 27be 6490 92be 7043 ad3d
00000150: cddb d53d daf2 a23d 6c6c b7bd 6ce4 a4bd
00000160: 76da 5d3c 5eb0 6a3d a36f 7fbe 2eeb 10bd
00000170: 9311 2fbe e914 00bd 99de fbbc ce6a 38be
00000180: 75a8 2a3d b5eb 99bd e713 ef3c 85ae 72bd
00000190: b43b 62be 123d b5bd 5b64 703c 30b5 3dbe
000001a0: b8fb adbd 8291 16be 0359 59bc 1650 7cbd
000001b0: 0535 30be d50f aebc a456 c4bd 9d31 a43d
000001c0: 7f43 54bd 81e5 0cbe c052 5dbe 7714 ad3d
000001d0: 5b79 61bc dec3 d33d 7d04 79be 629b 97bd
000001e0: 0ed1 773d 9687 e83b d7ca aabd d87e 77bd
000001f0: b0e5 693e 5e08 cabd 3374 b2bd 6294 ed3d
00000200: 3b03 f83a dca5 d8bd 7847 f4bc 2452 80bd
00000210: a035 efbd 8381 a83d 2d21 e8bd 69d9 08be
00000220: 404a 353e 5def 9abd 2413 ecbd c1fc 0bbe
00000230: ac09 1bbe a3da 3ebe 24e0 83bd a727 67bd
00000240: c9b3 cebd ea35 ab3d 8253 2dbe cfdb bcbe
00000250: 8798 44be c572 cfbd a142 6cbd e7c7 1fbe
00000260: 9dc7 d4bd 7ac8 273e c67e 2dbd 754b 3ebe
00000270: 6c08 ec3d a347 cbbd dd59 aebd 211b 26be
00000280: 6986 983d 6aee 9f3d bbc6 4cbd a5ea e0bc
00000290: 5b9f 69bd 58a5 183e f331 153e 041e 813d
000002a0: 2acf f63c d7f3 debc eb3c a83c 161c 293d
000002b0: ee2c ca3c ecd0 623c ea85 a9bd 2e7f 2cbd
000002c0: 271e 343d e9d8 203d d0de 6d3a da45 22bd
000002d0: 8aee 853d 0253 643d 244e 063c b3dd c23d
000002e0: e07d 603d be6f 52bc 47bb 493c 2b8d a5bc
000002f0: f4a3 a83a 131f ae3d 6d9a 163c 35e1 163e
00000300: 9a1f 9f3d e0e8 873d 0145 b13c 5e82 113e
00000310: 5d74 c03d 0cc4 a2bc 6979 29bd dd6b de3c
00000320: 4992 5fbd 1e10 ed3d 1786 e33d 31f3 d8bb
00000330: 8511 8a3d 5409 dbbd 74a2 30bd 6161 343c
00000340: 779a 853d b9c8 b1bb 15d5 f83c 2e49 f63d
00000350: de5b ff3d 23c5 2e3d 6eb5 02bd f4e0 453d
00000360: d216 fe3d 3faf 8c3a 63f2 743d 9ebd fabc
00000370: 0bfa b43c e4e4 85bc ce50 f5bc 3d71 6a3d
00000380: 86df 0fbd 21c0 ae3d 48ef c9bb 0a73 83bb
00000390: 9771 1c3d 7b91 9a3d ce72 e53d 78a7 2cbd
000003a0: 8984 10bc 0952 253d 6599 0dbd ed33 853d
000003b0: 4a1b 663c c3c5 eb3d 7b4d 333e 4b43 d23d
000003c0: 7089 bfbd ad35 a9be e5bf 0bbe 003c 62bc
000003d0: ade6 71bd 76d6 1dbd f682 09be b484 8bbe
000003e0: ebf4 9dbd 0822 0d3d 35ca 10bd db35 24be
000003f0: 269f 05be dee3 7abe 69c7 b3bd a609 83be
-0.18433177 -0.283656 -0.053406253 -0.059908684 -0.17796686 -0.032626394 -0.22291951 -0.103624105
0.06996109 0.16955277 -0.115226716 -0.21608339 -0.19195388 -0.11555204 0.029965097 -0.24714166
-0.2419366 -0.11286021 -0.24647993 -0.21348384 -0.3474945 -0.16282833 -0.08022587 -0.118535735
0.06103943 -0.27079287 0.021537043 0.044771504 -0.16604091 -0.25995544 -0.010735489 -0.13813429
-0.16092692 0.05967049 -0.15969124 -0.06617938 0.04820684 -0.096253835 -0.16937321 -0.16147059
-0.054209527 -0.07286833 -0.109446205 -0.25685397 0.047928344 -0.23207738 -0.13997076 -0.12071941
-0.14798073 -0.270825 -0.062194735 -0.11078534 -0.24943586 -0.15691398 -0.08052785 -0.1611619
-0.011169597 -0.16962907 -0.03734988 -0.2446951 -0.12705897 -0.33190674 -0.03861722 -0.19777337
-0.087900236 -0.2124036 -0.02717356 -0.2656519 -0.32690862 -0.27633122 -0.22146319 -0.16345914
-0.28265437 -0.23148957 -0.24706186 -0.23945068 -0.1503162 -0.12984344 0.011782404 -0.18839763
0.050646644 -0.16320089 -0.28625786 0.08460128 0.10442314 0.079564765 -0.08956227 -0.080513805
0.013540855 0.057297103 -0.2494493 -0.035380535 -0.17096548 -0.03126994 -0.030745791 -0.18009493
0.04166456 -0.07515661 0.029184295 -0.059248466 -0.22093087 -0.08849539 0.014672364 -0.18526149
-0.08495277 -0.14703944 -0.013265851 -0.061599813 -0.17207725 -0.021247784 -0.09586838 0.080172755
-0.05182218 -0.13759424 -0.21613598 0.08451169 -0.013761844 0.10340093 -0.24318118 -0.07402684
0.060502104 0.007096241 -0.0833947 -0.060423702 0.22841525 -0.09864877 -0.087135695 0.116005674
0.0018921861 -0.1057851 -0.029819235 -0.06265667 -0.1168015 0.082278274 -0.11334453 -0.13364185
0.17704105 -0.07565186 -0.11527088 -0.13670637 -0.15140408 -0.18638091 -0.06439236 -0.0564343
-0.10092885 0.08359893 -0.16926387 -0.3688645 -0.1919881 -0.101293124 -0.05768073 -0.156036
-0.10389636 0.1638507 -0.04235723 -0.18583472 0.11525044 -0.09925773 -0.08513234 -0.16221286
0.07447512 0.07809146 -0.04999421 -0.027455637 -0.05703674 0.14906824 0.14569835 0.06304553
0.03012808 -0.027215881 0.02053686 0.04128655 0.024679627 0.013843756 -0.08277495 -0.042113476
0.043974068 0.03926936 0.0009074034 -0.039617397 0.06539638 0.055743225 0.008197341 0.09514942
0.054807544 -0.012844024 0.012312717 -0.020208916 0.0012866245 0.08502021 0.009192091 0.14734347
0.077696994 0.06636214 0.021639349 0.14209887 0.093971945 -0.019868873 -0.04137555 0.027151043
-0.054582868 0.1157534 0.1110956 -0.0066207875 0.06741623 -0.106951386 -0.043123677 0.011009545
0.065236025 -0.0054255393 0.030375043 0.12025677 0.12468694 0.042668473 -0.031911306 0.048310235
0.124066964 0.001073338 0.05980147 -0.030607995 0.022091886 -0.016344495 -0.029945757 0.0572369
-0.035125278 0.085327394 -0.0061625578 -0.0040115165 0.038194265 0.075472794 0.11203538 -0.0421519
-0.008820661 0.040361438 -0.034570117 0.06504045 0.014044592 0.115123294 0.17510025 0.10266741
-0.09352386 -0.33048764 -0.1364742 -0.01380825 -0.05905788 -0.038534604 -0.13428864 -0.27249682
-0.0771273 0.034456283 -0.03534909 -0.16036169 -0.13048992 -0.24500987 -0.08778269 -0.255933

lstm2.weight_ih_l0 f4 [320, 80]
00000000: e876 c23d 2e65 4bbe df4a 583e 1279 633e
00000010: 4a00 f3bd 0239 633c a8ce ed3b e86c e6bc
00000020: 43e3 81be 743a 4abe 45da 28be 0dd4 11be
00000030: fca9 77bc e4d8 043b 2245 6f3c 5b9e e73b
00000040: bef4 b1bd f6f3 903d 365f 703d 9c13 9fbd
00000050: 8cbf 7bbc 6690 edbd a59d 2fbe fdd3 353e
00000060: 3104 8e3c b61e debc c6dc 54bd 82d3 3fbd
00000070: cbd3 2ebe f9c0 6fbd 264e c03d 1e34 8abd
00000080: 02d0 70bd e20e 973d b28e 48be 2268 afbd
00000090: 8f87 04bd 15ea b3bd 0b5b ef3c 93f1 d93c
000000a0: 8c2c 6ebd 3015 adbc 792b 29be 390e 5f3e
000000b0: c3d6 313d 4648 8d3e 20ea 30bd 1911 903d
000000c0: 8e39 80be 60e4 43be 17ba 5d3e a8f8 0fbe
000000d0: d99c a63c 88ff 8cbd 74ba 95bd 0bc2 debd
000000e0: 83a2 1cbe d582 a0bd 1b22 0a3e 552c 38bd
000000f0: 41e2 63bd bf01 a3bd 49cc 13be e4e0 1ebe
00000100: 8b9b 9f3c 11de aabe a078 563e 2ae5 ae3d
00000110: 687f 0cbd 96f9 fbbd 0a11 3dbe 2383 36bd
00000120: b04d dbbd 3c16 ffbd 2aef 6e3e 8d78 6dbc
00000130: 6887 d33d 19af 883d 06b4 c1bd e648 fd3d
00000140: 80d1 8d3d 7cab 19bd c135 b13d 76d7 f63c
00000150: 59f4 acbc 23b7 093e 02f7 3cbe 88e2 b83c
00000160: c34f a4bd 3243 9e3d d2d2 f6bd 25ff 993d
00000170: 6ef0 81bd cd91 713e 4c6c b9bc a99b 553d
00000180: be5b 0cbd 734b b03d 17d9 273e 810f 08be
00000190: c344 42bd 47e1 d1bd 52de c0bc c7ae 223d
000001a0: 73af 3cbe abe0 9c3d 7836 49be 86f2 eebd
000001b0: 0990 fb3d 5eeb c0bc 6d13 3cbd 458a 61be
000001c0: bb74 153d 68fe babd b24d 18bd 3cae b7bc
000001d0: ad82 723d fa18 a2bd 90ac 803d bf7f c5bd
000001e0: 1104 923d f520 3abe 2bbc fe3d 7aac 4f3e
000001f0: d27b 6f3d 4e2b 093e ad12 773e 142b 303d
00000200: 264f 1abe 70e1 b3bd 290f 443d 8531 3cbe
00000210: 900d 973d b989 c23d 97a6 b73d a9a5 403c
00000220: dfc2 a53c fd4c e4bd 1feb 1d3e c1f7 ac3d
00000230: ea33 6dbc 4c6f 573e 3990 c9bc 4b97 293d
00000240: 3d77 3ebc fb36 e9bc a40d 0b3c c48e 30be
00000250: 327a 013c 8b3c b23d be49 e13a 6fe5 68be
00000260: 8a11 de3c a6ab 03be f6ff e93d 4126 493d
00000270: 06f1 c13d 2814 30bc fb95 9cbd 0f4d ec3c
00000280: 1b2f 03bd f1b5 33be 0d71 483e ab08 ffbc
00000290: 1e26 863d ac55 b5bd f6f1 33bc 8f49 2e3e
000002a0: bb07 55be db09 74bd 45cc 30bb b539 12be
000002b0: af69 cc3c 4dcb 3d3e cf7f 1e3d edf2 29bb
000002c0: f28b fa3b 25c6 1a3e 1832 1abb 36de 9b3b
000002d0: a603 a1bd 16fc 87bd 7a3c 723d f022 7dbd
000002e0: d290 14bb 02aa 98bb 93b6 3ebe 7b4a 47be
000002f0: 5092 633d 1ddf 77bd 91e7 2a3d 6814 39be
00000300: e14c ec3c 9014 d53d 45a9 a5bd 86e3 0fbe
00000310: d758 143e 2786 02be ae88 053d 5e5c 053d
00000320: d340 583d aa8d 3dbe 5de0 cabd ff87 5a3e
00000330: 20a7 4d3d b8bf 193d e625 a33d 38af a5bc
00000340: 88c7 f6bd 7d32 51be 410f b7bc d5b7 98bd
00000350: 0404 87bd 7dd5 9abd d48d efbd 4349 e4bd
00000360: 2b2b 16be 74a5 e0bb 6c38 e13d eb05 90bc
00000370: 31a0 393e 0ed8 093e 28bf 9d39 85ff 543d
00000380: ca43 61be d7b7 74be 2d71 e83b 2135 09bd
00000390: 2f34 353d 215e 0fbd 1d5d 71be 1472 14be
000003a0: 7436 72bc 8bb4 103d 3cf7 c2bc 93cd bfbd
000003b0: f50a 093e 207f 38bd 7853 913d 7eee 543d
000003c0: 344a 9f3b ec29 33be ecc3 413c d815 0f3d
000003d0: a15b 5a3d 0cb9 9f3b dd9a 003d 052a 4dbe
000003e0: 68c7 24be 8d6f 643b 6076 833d 7392 8cbd
000003f0: 8a25 503d abac 9fbd 553c 473e e449 c03d
0.09495336 -0.19862816 0.21122311 0.22214153 -0.118652895 0.013868572 0.0072573014 -0.028128102
-0.253687 -0.1974886 -0.16489513 -0.14241047 -0.015116211 0.0020270878 0.014603885 0.007068438
-0.08689259 0.07077782 0.05868455 -0.07767412 -0.015365493 -0.115998074 -0.1714998 0.17756648
0.017335983 -0.027114253 -0.05196836 -0.04683257 -0.1707298 -0.058533642 0.09389906 -0.06748222
-0.05879212 0.073758855 -0.19585684 -0.08564784 -0.03235584 -0.08784882 0.029218217 0.02660445
-0.058147952 -0.021128267 -0.1652049 0.2178277 0.043417703 0.27594203 -0.04319203 0.07034511
-0.2504391 -0.19130087 0.21653019 -0.14059699 0.020338463 -0.06884676 -0.07310954 -0.108768545
-0.15296368 -0.07837454 0.13489573 -0.044964153 -0.055635694 -0.079593174 -0.14433397 -0.15515476
0.019483348 -0.33372548 0.20944452 0.08539803 -0.03430119 -0.12303464 -0.18463531 -0.044558655
-0.10708177 -0.12455413 0.23333421 -0.014494074 0.10328561 0.06674022 -0.09458165 0.1236742
0.069247246 -0.037517056 0.08652831 0.030132037 -0.021112608 0.13448767 -0.18453601 0.022568956
-0.08023026 0.0772766 -0.120519295 0.07519368 -0.063446864 0.23590775 -0.022634648 0.052150402
-0.03426718 0.08608141 0.16391407 -0.13287164 -0.047428858 -0.10248046 -0.02354351 0.039717462
-0.18426304 0.076600395 -0.19649684 -0.116673514 0.12283332 -0.023549732 -0.045916963 -0.22025402
0.036488276 -0.091305554 -0.03718347 -0.022421949 0.059206653 -0.0791492 0.06282914 -0.09643506
0.07129682 -0.18176635 0.12438234 0.20280638 0.058467694 0.13395426 0.24128218 0.043009833
-0.15069255 -0.08783233 0.04786602 -0.18378265 0.07375634 0.09498925 0.08967321 0.011758246
0.020234523 -0.11147497 0.15421723 0.08445693 -0.014477709 0.2103855 -0.024604904 0.04140405
-0.011625108 -0.0284686 0.008487139 -0.17241961 0.007902669 0.08702954 0.0017188115 -0.22743772
0.027107973 -0.12858447 0.11425774 0.049108747 0.094698 -0.010746993 -0.07645794 0.028845338
-0.032027345 -0.17549874 0.19574375 -0.031132063 0.06550239 -0.08854231 -0.010982981 0.17020248
-0.2080373 -0.05957971 -0.0026977223 -0.14279826 0.024952738 0.18534584 0.038696107 -0.0025932149
0.0076460773 0.15114649 -0.0023528393 0.004756714 -0.07862024 -0.066398785 0.059139706 -0.061800897
-0.0022669327 -0.0046589384 -0.18624334 -0.19462006 0.055559456 -0.06051551 0.041724745 -0.1807419
0.028845252 0.104043126 -0.08088926 -0.14051637 0.14487015 -0.12746488 0.03260105 0.03255879
0.052796196 -0.18511072 -0.09906075 0.21340941 0.05020821 0.037536353 0.07966213 -0.020225152
-0.12049776 -0.20429416 -0.02234614 -0.07456938 -0.06592563 -0.07560251 -0.116969734 -0.11146786
-0.14664905 -0.006855661 0.1099709 -0.017580947 0.18127514 0.13461325 0.00030087796 0.052001495
-0.21998516 -0.23898254 0.0070935697 -0.033497933 0.04423922 -0.035001878 -0.23570676 -0.14496642
-0.01478349 0.03532843 -0.023799531 -0.09365382 0.13383086 -0.04504311 0.070959985 0.051985256
0.0048611406 -0.1749646 0.011826497 0.03493294 0.05331004 0.004874354 0.03139769 -0.2003556
-0.16091692 0.0034856529 0.064190626 -0.068638705 0.05081705 -0.07796606 0.19456609 0.093890935

lstm2.weight_hh_l0 f4 [320, 80]
00000000: e16e 22bc fcfd 30bc 8e0a 76be b3d1 c53d
00000010: 5f0c 153e 098c c8bd f11c 233e f788 69be
00000020: e72d 08be dba6 47be 0fc0 90bd 42e1 8e3d
00000030: c743 a0be a945 1f3b c19f 85bd 1212 c5bb
00000040: 38d0 303e d92f 583e d77b eebd 4392 08be
00000050: 353a 633d bf09 58bd 9ee6 fcbd 97f7 4d3e
00000060: 5753 463e dd1d b8bd 6d93 93be 1f27 88bd
00000070: b0a8 6cbe d007 383e d762 9fbd e698 9b3c
00000080: ea67 f8bd 8823 dbbb 3245 4abe 2f6c e33d
00000090: 9fdc 29be 5cae db3d bec8 883d 390b ce3d
000000a0: e599 15be 1d98 113c e626 883d 36fd 573e
000000b0: 98d0 663d daf6 0d3e 292a 94bd bb66 353d
000000c0: 871a 62bd ce18 febd 7fc9 753c f667 283d
000000d0: aaa2 203e f84d 253d b737 e0bd 1d22 0dbe
000000e0: 6db5 c1bd e69b 29be b5f4 90bd 12da e9bd
000000f0: 6c65 fe3c 9a8e 813c 6ff1 273e 9a4e 97be
00000100: e6b4 a5bd 3fe1 2ebe a351 6a3d 9724 d0bc
00000110: 38f2 0b3d 56f8 9d3c e9f7 083e 0425 543e
00000120: 1086 b33d 0700 f2bd e674 223c cdd0 81bd
00000130: a8a9 acbc cc0a 86bd e4d8 913b daee 89be
00000140: 5577 bbbd ebf1 023e 64cf 72be 1bc0 263e
00000150: f15d 653e e121 0cbd b80e a33d 870b 813d
00000160: d6cc 51bd e180 62be 431d 983d 543f 3ebc
00000170: 30ef 3cbd abca 18bb 4557 173e 32f6 a93d
00000180: 9b15 d63d e5b1 17bc 0835 c03d 3ec8 22bd
00000190: b71a fb3d 938a e03d 20c1 74be 3298 6abb
000001a0: 9c64 d73d f23c 0abe 8f30 18be 616b 03bc
000001b0: 2c3f 67be ffb3 313e 737b 223d 2ef8 083d
000001c0: 33fa 8ebd 1936 17bd 2482 593d 1af1 6dbd
000001d0: 600f f9bd 1d15 c5bd a6db 90bd b636 b83d
000001e0: 5244 49be 858b da3c 3e7d fe3d 7b74 213e
000001f0: ab3c f53c e709 373d 79af e13b a219 a63d
00000200: 754d 7dbd b6e8 05be 2fe9 883c 71d0 42bd
00000210: 7ca0 7abd 5f5c 263e 2ce1 4abd 9c99 91be
00000220: 55ef 063d a843 e3bd 32f7 183d 502c 33bc
00000230: 91bd 943d 2804 403d c758 da3d 9fd4 70be
00000240: 0763 c1bb 8c7a 25be 214d 103d 76fc 0e3e
00000250: ffac 283d 9b7e 3e3d f4cd 133e db6b c0bc
00000260: 3137 4cbd dd1a ff3d ef22 3dbc 8633 a63b
00000270: 0078 933d 7d54 d93d f404 51be c734 5ebd
00000280: 5a60 603c e700 3a3e fe69 6dbe 37bb c3bc
00000290: 8819 c13d f341 c83d 8784 613e 24c3 58ba
000002a0: e2c3 2bbc 9014 2cbd d29e 8c3d b9d5 1c3e
000002b0: c697 41be d2e5 10be 2938 8f3d efb0 19bd
000002c0: 6881 753b 6727 603c e86e 1d3d 9edb 413c
000002d0: 19eb cabc 087c 143e fa37 f9bd 8d58 8a3c
000002e0: 17c5 c0bc 7287 cabd 1687 5fbe 7701 b03c
000002f0: f6b6 d5bd 9939 8abb dd12 ddbd 3868 6ebd
00000300: 2df9 863d 5a7b 83bd 7beb 24be 4644 50bd
00000310: 3277 30be 786e a2bd 6dbb 3dbd d04d 63bd
00000320: 0f8d a6bd 84e1 393d a5fa 823d a2a0 d83c
00000330: e320 363d d017 873c 19a3 9f3d 9ed7 4abd
00000340: be93 963d 1195 49bd e210 86bc ff06 5fbd
00000350: 81e6 d0bd ecac 37bd 2d00 34be 9e35 5dbe
00000360: 813e 803d b71d 8ebc 0d46 ea3d d518 92bd
00000370: 44f6 1e3e feef 873d 4cf0 133d 79ba 63be
00000380: eeac a7bd bead 43be ff9e 653d fe9f b93d
00000390: 5a84 253e c900 953d 9229 cf3c 5bf1 9a3d
000003a0: c6d8 febb 9f9b be3d f077 c13c 5ab3 fcbd
000003b0: 198c 463e ddcb 563c 4877 91bd f214 87bc
000003c0: 7d3a bf3d 1224 193e e6a2 7bbe 8b38 a33d
000003d0: 585b 923e 87d7 e8bc 7f03 d3bd e245 8bbe
000003e0: 7963 fd3c 2c1f d0bd 6818 ea3d 41d7 31be
000003f0: 6a4e e73d 070e a2bd 14b5 32bd e70e 2e3e
-0.009914131 -0.010802742 -0.24027464 0.096591376 0.145555 -0.097923346 0.15929009 -0.22806154
-0.1329876 -0.19497244 -0.07067882 0.06976558 -0.3130171 0.0024302995 -0.06524611 -0.006014117
0.17266929 0.21112002 -0.11644714 -0.13337044 0.055475432 -0.05274367 -0.12348674 0.2011398
0.19367729 -0.08990071 -0.28823414 -0.06648087 -0.23111224 0.1797173 -0.07782524 0.018993806
-0.12129195 -0.0066875853 -0.19752958 0.11104619 -0.16588067 0.10726616 0.066789135 0.10060734
-0.14609487 0.008886364 0.06648044 0.21092686 0.056351274 0.13863698 -0.07234604 0.044287425
-0.05520108 -0.12407075 0.015001654 0.04111477 0.15687051 0.04035756 -0.10948127 -0.13782544
-0.09458432 -0.16563377 -0.07077924 -0.11418547 0.031054221 0.015815068 0.16400693 -0.29552156
-0.08091144 -0.17078112 0.05720676 -0.025408072 0.034166545 0.019283455 0.1337582 0.20717245
0.08765805 -0.118164115 0.009915566 -0.06338654 -0.021076992 -0.06545028 0.004450904 -0.26940042
-0.0915362 0.12787597 -0.23711926 0.1628422 0.22399117 -0.034211997 0.07961792 0.06301027
-0.051220737 -0.22119476 0.07427456 -0.011611778 -0.046126544 -0.002331416 0.14779384 0.08298911
0.1045334 -0.009258722 0.09385115 -0.039741747 0.12260955 0.10963931 -0.23901796 -0.0035796282
0.105172366 -0.13499811 -0.14862274 -0.008021207 -0.22582692 0.1735382 0.03966851 0.033439808
-0.069813155 -0.036916826 0.053102627 -0.05809126 -0.12161136 -0.09623168 -0.070731446 0.0899481
-0.19654968 0.026677856 0.12426232 0.1576709 0.029936155 0.044687178 0.006887373 0.08110358
-0.061841447 -0.13077053 0.016712753 -0.047562066 -0.061188206 0.16246174 -0.049531147 -0.28437507
0.03294309 -0.11096889 0.03734512 -0.010935858 0.072627194 0.046878964 0.10661464 -0.23518609
-0.0059016976 -0.16160029 0.035229806 0.13963494 0.041180607 0.04650746 0.14434034 -0.02348893
-0.049857322 0.12456296 -0.011543973 0.00507206 0.072006226 0.10611818 -0.20412046 -0.05424955
0.013694847 0.18164407 -0.23184964 -0.023892982 0.09428698 0.09778204 0.22023211 -0.00082688243
-0.010483714 -0.042011797 0.0686623 0.15315904 -0.18905553 -0.1415017 0.069931336 -0.037522253
0.0037461165 0.013681269 0.038435847 0.011832146 -0.024770306 0.14500439 -0.1216888 0.016887927
-0.02353148 -0.098891154 -0.21828875 0.021485073 -0.10435288 -0.004218292 -0.107946135 -0.05820486
0.06590495 -0.06420012 -0.16105454 -0.05084636 -0.1723297 -0.079312265 -0.04632132 -0.05549413
-0.081323735 0.045381084 0.06395463 0.026443783 0.044464957 0.016490847 0.0779478 -0.049522035
0.07352398 -0.049214426 -0.016365472 -0.05445003 -0.10200215 -0.044842646 -0.17578192 -0.21602485
0.06261922 -0.017348154 0.114391424 -0.071336426 0.1552363 0.06637572 0.036117837 -0.22239102
-0.081872806 -0.19109246 0.056059834 0.09063719 0.1616377 0.072755404 0.025288377 0.07565566
-0.0077773063 0.09307026 0.023616761 -0.12338896 0.1938938 0.013110128 -0.07102829 -0.01648948
0.09337328 0.14955166 -0.2457386 0.07969769 0.28585315 -0.028423084 -0.10303401 -0.27201754
0.030931221 -0.101621956 0.114304364 -0.17367269 0.11294253 -0.07912832 -0.04362972 0.16997872

lstm2.bias_ih_l0 f4 [320]
00000000: 0197 f2be a9d0 88be 0786 85be ad16 4dbe
00000010: 6703 93be c6a3 aebe 5790 a6be 151d e2bd
00000020: 2e9a bfbe f1f0 36be 5115 d5bd 2672 94be
00000030: b3d2 0dbe f0e0 a9bd 41ed a8be db95 10be
00000040: 7ff1 a2be c532 29be 557e 99be d682 c4bd
00000050: dd4b adbe 9b48 b3bd c5d3 2dbe 59e9 7fbe
00000060: aa6b 5cbe 7f17 c7be 030a babe f9ad e5bd
00000070: ed1a 33be ff4b debd f7ef b8be cb73 6dbe
00000080: 533d ddbe 96aa afbd 748e 76be 432b 5cbe
00000090: 78c3 cebe 3ad6 8bbe 655b b4be 0757 cfbe
000000a0: a2dd 9abe b850 12bf b1e8 c7be 38e1 22be
000000b0: a8c0 1cbe 8667 87be 7694 c8be 8160 a5be
000000c0: 7bf2 52be 56a0 95be c16b 2ebe 6d55 79be
000000d0: 6130 63be 0507 b1be ce54 89bd 375a c8bd
000000e0: 049f 54be 9e3a a2be dbec 47be 2f3f 8fbe
000000f0: f5e1 30be 2b01 0dbe 679b 4bbe 39b7 5abd
00000100: e51e 14be df64 afbe 3641 6cbe a2da 8ebe
00000110: a4f6 c0be a56c b5be e1fb b0be 06d9 8fbe
00000120: d8c5 6fbe 8cfc c9be 134a 99be b890 6abe
00000130: f762 4bbe cfdf 6ebe e3a2 bebe 2721 33be
00000140: 5a3a 05be 5afb b1bd ca67 81bc dda2 55be
00000150: 3cf3 96be 6aa5 a3be 77a3 96be daba 4bbe
00000160: 78fe 2cbe 637a 8cbe 1879 9cbe 2a99 d7be
00000170: 8e77 3bbe 476e 72be 900f c8be b4da 1fbd
00000180: ff30 70be e6c6 9fbe c1e1 22be fa16 cdbd
00000190: 4435 a3be 0ce8 56be 57d2 50be 38ec 37be
000001a0: 69dc 3fbd 1d0e c6be 8eed 4abe b042 b8be
000001b0: 57f5 50be 537a cabc 04a4 91be 0bde 95be
000001c0: 36d8 2ebe 3ecf fcbd 1857 43be 81ef 97be
000001d0: 0005 46be 30b3 c3bd b480 7bbd c6ab 37be
000001e0: ca2a dabd 5f28 a6be a05c 5cbe 4d8a 51be
000001f0: 1781 f6bd 433e 97bd 563e 9bbe 40ff 83be
00000200: a0e8 96be 58a8 a0be 6581 c5bd 6b51 f1bd
00000210: ee2a 0abe f8c3 9ebe 2cb1 26be 1e3a 61be
00000220: 6c7b 1bbd 6e85 15be c4a2 c9be 40f2 99be
00000230: 2200 72be 6fed a0be e074 9abd 0491 7cbe
00000240: 4fbe 7abe 67d7 1abe bb28 74bc fbfb 88be
00000250: e13e 04be d13e 04be d2e7 c0be 896f 46be
00000260: c39f 76be 892d b0be c1b6 9cbe 5a63 5bbe
00000270: 80b3 11be ecdd 79be c79d 48be b3b0 31be
00000280: 5c4c 6d3d 178f 883c b320 273d 3870 be3d
00000290: bb2a 0ebd 28c7 c2bd 38b8 763c 94b0 db3d
000002a0: 16fb 2d3d 2b64 98bd ff8c 0fbd 3ef8 e7bc
000002b0: 4b0a 0a3d c897 1b3d 98bc aebd a4a6 e4bd
000002c0: 3d15 083d 32c3 8e3d f38e b3bb 7d1b 8d3d
000002d0: 0259 ae3d 1efa 90bc 2106 cb3d 1d0b c43c
000002e0: 98f8 e8bc 4128 8fbd 117f a53d 081a 6f3d
000002f0: 17d7 8dbb 66e0 26bd e3e5 8b3d ace2 2ebd
00000300: ffb2 fcbc d2b5 903d fddc 7f3d b64a bcbc
00000310: 21a6 b13d efab 4c3d 958e d3bd 5533 c0bd
00000320: 955c c83d aca3 5abc b56f 2bbd 28cf 173d
00000330: fd16 b7bd c44b b63d 80ee 513d 2dff 38bd
00000340: ebb4 113c e627 b93d 0843 503d d813 9f3d
00000350: 3605 2bbd 7019 40bc 6685 983d d985 513d
00000360: 47f5 28bc bb07 5e3c 93a0 d9bd d8c6 71bb
00000370: 562b 0cbc 26c6 133d e125 1c3d e2bf b83d
00000380: 7f0c 263d a28b 083d 957c 8bbd f059 57bd
00000390: 1152 c0bd da09 fdbb 4b41 48bd 7631 813b
000003a0: 8c82 52bd 40cc a439 8680 403d 732d 943d
000003b0: 699e 7cbd 0e6f 04bd 62ad 21bd 76bf 8dbd
000003c0: 0654 d3be 4724 7abe d36d 83be 4d0b b9be
000003d0: c41d 4bbe fcf9 d6be 8725 77be 8a33 4ebe
000003e0: 59e2 b1be 2357 e8bd 54ad a3bd d228 debd
000003f0: 122d 03be ada6 afbd b483 8abe 4309 b2bd
-0.47380832 -0.26721695 -0.26078817 -0.20028181 -0.28713533 -0.34109324 -0.32531998 -0.11040703
-0.37422317 -0.1786535 -0.104044564 -0.28993338 -0.13849907 -0.082948565 -0.3299351 -0.14119665
-0.31824872 -0.16523273 -0.29979196 -0.095952675 -0.33846942 -0.08754083 -0.16975315 -0.24991359
-0.21525446 -0.38885114 -0.36335763 -0.11214823 -0.1749074 -0.10854339 -0.3612058 -0.23188703
-0.4321085 -0.085774586 -0.24077779 -0.21500878 -0.40383506 -0.2731188 -0.35225978 -0.40496084
-0.30247217 -0.5715442 -0.39044717 -0.15906227 -0.15307868 -0.2644617 -0.39175767 -0.3230019
-0.20600311 -0.2922389 -0.17033292 -0.24348994 -0.22186424 -0.34575668 -0.06705628 -0.09782832
-0.20763785 -0.31685346 -0.19523947 -0.27977893 -0.17273696 -0.13769977 -0.198835 -0.05339739
-0.1446491 -0.34256646 -0.23071751 -0.2790118 -0.37688172 -0.35434452 -0.34567168 -0.28095263
-0.23415315 -0.3945049 -0.29939327 -0.22906768 -0.19861971 -0.23327564 -0.37233648 -0.17493115
-0.1301054 -0.0869052 -0.01579656 -0.20862909 -0.29482448 -0.31962138 -0.2942159 -0.19895497
-0.16893947 -0.27437124 -0.30561137 -0.42109042 -0.18307325 -0.2367488 -0.39074373 -0.03902693
-0.2345619 -0.31206435 -0.15906431 -0.10014148 -0.31876576 -0.20986956 -0.20392738 -0.17961204
-0.04684106 -0.38682643 -0.19817182 -0.3598838 -0.2040609 -0.024716532 -0.28445446 -0.29270968
-0.17074665 -0.12344216 -0.19076192 -0.29674914 -0.19337845 -0.09555662 -0.061402038 -0.1793662
-0.106526926 -0.32452676 -0.21519709 -0.20462914 -0.12036341 -0.07384922 -0.30320996 -0.25780678
-0.29474354 -0.31378436 -0.09643821 -0.11783107 -0.13492939 -0.31008887 -0.16278523 -0.21994826
-0.0379595 -0.1460168 -0.39381993 -0.30067635 -0.23632863 -0.31431147 -0.075418234 -0.24664694
-0.2448666 -0.15121232 -0.014902289 -0.26754746 -0.12914611 -0.12914588 -0.37676865 -0.19378485
-0.24084382 -0.3440974 -0.3060818 -0.21424618 -0.1422863 -0.24401063 -0.19591437 -0.17352562
0.05793415 0.016669793 0.04080267 0.09298748 -0.03470872 -0.09510642 0.01505857 0.10727039
0.042475782 -0.074409805 -0.035046574 -0.028316613 0.033701222 0.037986547 -0.08532065 -0.11164597
0.03322338 0.06970824 -0.0054796874 0.068900086 0.08513071 -0.01769739 0.09913278 0.02393108
-0.028438851 -0.069901 0.080808766 0.058374435 -0.004328619 -0.040741347 0.06830957 -0.04269664
-0.03084707 0.070659295 0.06246661 -0.022984844 0.08674265 0.049968656 -0.1032993 -0.09384791
0.097832836 -0.0133446865 -0.04185458 0.037062794 -0.089399315 0.0890117 0.051252842 -0.04516523
0.008893232 0.09040813 0.050845176 0.07767457 -0.041753016 -0.011724815 0.07447319 0.051153038
-0.010312385 0.013551648 -0.1062633 -0.0036892202 -0.008555254 0.03607764 0.03812206 0.09020974
0.04053926 0.03333629 -0.068108715 -0.052576005 -0.09390653 -0.0077221217 -0.048890393 0.003942664
-0.05139403 0.00031432696 0.04699757 0.07235231 -0.06167451 -0.032332473 -0.03947199 -0.06921284
-0.41275042 -0.24427901 -0.25669727 -0.36141434 -0.19835573 -0.41987598 -0.2413541 -0.20136848
-0.34743002 -0.11344745 -0.07992044 -0.108476296 -0.12810162 -0.08576713 -0.27053607 -0.08693173

lstm2.bias_hh_l0 f4 [320]
00000000: 61b5 e8be 198d 55be 7214 8ebe 1bc4 15be
00000010: 75dd 91be 5c3b 98be b907 adbe 27e2 cbbd
00000020: 7a4f afbe 9de9 2bbd 8cfe 2bbe 462c 2fbe
00000030: b247 2ebd d463 abbd 359e 86be 8d41 f3bd
00000040: 25f0 bdbe 7e54 09be a257 50be 5fe0 40be
00000050: 0451 95be cd91 a4bd 74fe dbbd ad36 b7be
00000060: 701d d9bd dd33 b9be 9b59 9dbe a454 3fbe
00000070: 5b3a 37be 27d7 4cbd fd18 76be 4463 a9be
00000080: e08d 98be 2d81 06be 56f5 1bbe 834e c8be
00000090: 3057 d2be 0a30 2cbe d777 71be 2d3c 8abe
000000a0: 8c2b 6cbe 1ef5 19bf e62b ddbe 23ba 97be
000000b0: 712d 99be c832 54be e2df c7be 78b5 9cbe
000000c0: db56 44be 188a 13be 9e7a 7cbe 4082 07be
000000d0: 954e 65be c569 b7be 4881 2dbe 3c91 0dbd
000000e0: 5a36 5dbe 67c2 64be ce61 aabe b802 81be
000000f0: 2c96 82be cb14 79be bf8e f5bd d401 2abd
00000100: 947c a2bd 7556 9bbe a406 7cbe aadc e3be
00000110: 7b4b a8be df21 2abe 497b ddbe bce5 99be
00000120: 2e48 52be 4790 73be f010 80be c49d 44be
00000130: 04c5 81be 9388 78be d993 a1be 6956 b6be
00000140: ffd5 6abe fa13 03be a7ed 4abe 1511 04be
00000150: 6f8d 7fbe b74d 30be 1dc1 99be 41e6 f1bd
00000160: 670e 8fbe a532 89be 0b29 44be 23e5 73be
00000170: dd5c 0abe c11b 97be 927b c2be 5ca3 40bd
00000180: 07cf bebe 8077 9cbe af5e 87be 14d3 c7bd
00000190: 06de 9dbe d212 5abe af6b 30be 92aa 92be
000001a0: df43 47be 6b93 a2be fa74 67be fefb b5be
000001b0: 3171 3dbe b089 44be 7343 6cbe 2497 6bbe
000001c0: 33c9 8fbe ee06 5abd e2af 27be 780d 05be
000001d0: 547b 86be 859c c2bd cb57 80be 341c 40be
000001e0: 87dc 7cbc 1feb afbe 74b5 15be 3b3d 57be
000001f0: 259a f7bd b787 f8bd da64 8fbe 014e a0be
00000200: 1ef1 91be d1b1 30be 5bc9 22be 18f5 7dbe
00000210: a51e 2fbe 3a45 bdbe a2a3 33be db0f 9cbc
00000220: 16f8 22bc 0e05 59be 3857 96be 307e 29be
00000230: 3b26 18be 8574 9fbe 4792 9ebd 638e 81be
00000240: 544e 5cbe 0a37 11be 8031 0cbe 386b 4dbe
00000250: f167 58be 3e1d 9bbd fa24 bcbe d94a 84be
00000260: 56b6 84be 9763 16be a60f 59be 4332 a2be
00000270: 395e c0bd 15de 58bd e7b9 8bbe 025f b7be
00000280: a4f8 f4ba c33a 1dbd dd8b 483d 6483 b8bd
00000290: 24f7 97bb 99b5 7d3d 7619 c3bd 7463 a3bd
000002a0: 92fd 67bd efd8 cf3d 42ba df3d 6c29 c03c
000002b0: 5973 643d c21b 3a3d 9699 123d 9dc1 25bb
000002c0: 4fdd ebbc 7bbb 53bd 09e2 c63c ce22 25bc
000002d0: 95ea 76bd c8dc fa3c bbdb ee3c b5dd 79bd
000002e0: 4c7f acbd 9de4 1d3d f962 11bc 1b48 9c3d
000002f0: 0298 963d 42ac e9bc 6e28 73bd cc4c 473d
00000300: 8967 013c 3819 25bd e796 a3bc 5c30 d1bc
00000310: 5341 acbd 7aa6 59bc db4b 7f3d ebca e03d
00000320: 2d1e 4abd a183 5d3d 15b6 ba3c 04fa 9fbd
00000330: 0334 ad3c 1e12 00bd 495f 97bb b234 f13d
00000340: c0f0 1ebc 14d1 f0bd 63ed 4bbc c1dc 04bb
00000350: 5ad2 1b3d 1b6b ba3b fce1 b13d c687 8d3d
00000360: 5658 0dbd fade 6d3d 1377 953d 79db 023d
00000370: fe79 763c b219 cb3b 7770 96bd 985e c23d
00000380: 656d 99bc c04c ea3c 4865 07bd 3fdb ff3d
00000390: c487 203d 87b0 b0bd 92d8 a13d ac82 9e3c
000003a0: cadb 0c3c 79be 8dbc ca84 9cbd e478 46bc
000003b0: 9891 0dbd decd e5bb 3b02 133d 4d5c a23d
000003c0: aad0 aabe 7db0 50be a4db 8bbe 9c23 1fbe
000003d0: 0606 4abe 6634 f6be 996a a7be 9fec e0bd
000003e0: 52d5 c0be 8551 8bbd 7478 24be f6cc 27be
000003f0: 05e8 45be 3fd0 85be 043a 97be a6cf 6fbe
-0.4545088 -0.20854606 -0.27749974 -0.1462559 -0.2848927 -0.29732788 -0.33794954 -0.099552445
-0.34240323 -0.041970838 -0.1679632 -0.17106733 -0.042548843 -0.0836865 -0.26292577 -0.11877737
-0.37097278 -0.13411137 -0.2034593 -0.18835591 -0.29163373 -0.08035622 -0.107418925 -0.35783902
-0.10601318 -0.3617238 -0.30732426 -0.18684632 -0.17893355 -0.050009873 -0.2403297 -0.33083546
-0.29795742 -0.13135214 -0.15230307 -0.391224 -0.41082144 -0.168152 -0.23580872 -0.26999035
-0.23063487 -0.60139644 -0.43197554 -0.296342 -0.29917482 -0.20722497 -0.39037997 -0.306072
-0.19173758 -0.14408147 -0.2465615 -0.1323328 -0.22393258 -0.35822883 -0.16943848 -0.034562334
-0.21602765 -0.22339784 -0.33277744 -0.25197387 -0.25505197 -0.24324338 -0.11990117 -0.04150565
-0.07933918 -0.303394 -0.24611908 -0.4450429 -0.32870087 -0.16614483 -0.43258122 -0.30058086
-0.20535347 -0.23785506 -0.25012922 -0.19200808 -0.25345623 -0.24270849 -0.3155811 -0.356128
-0.22933196 -0.12800589 -0.1981722 -0.12897141 -0.24956296 -0.17217146 -0.30030146 -0.118114956
-0.27940676 -0.2679645 -0.19156282 -0.23817877 -0.13511987 -0.29513362 -0.37984902 -0.04703079
-0.37267324 -0.3055992 -0.26439425 -0.09757057 -0.30833453 -0.21296242 -0.17228578 -0.2864576
-0.19459485 -0.31753096 -0.22603217 -0.35543817 -0.1850021 -0.19193149 -0.23072605 -0.23006874
-0.2808319 -0.053229265 -0.16375688 -0.12993419 -0.26265967 -0.0950251 -0.2506698 -0.18760759
-0.015433437 -0.3435907 -0.1462 -0.21019451 -0.120899476 -0.121352606 -0.2800663 -0.31309512
-0.2850427 -0.17255332 -0.15897124 -0.24800527 -0.17101534 -0.36966878 -0.1754289 -0.01905053
-0.009946844 -0.21193334 -0.29363418 -0.16552043 -0.14858334 -0.31143585 -0.07742744 -0.25303945
-0.21514255 -0.14181152 -0.13690758 -0.20060432 -0.211334 -0.07573937 -0.3674696 -0.25838354
-0.2592036 -0.14686428 -0.21197376 -0.31678972 -0.093929715 -0.05294617 -0.2729027 -0.35814673
-0.0018689823 -0.038386118 0.04896151 -0.09009436 -0.0046376158 0.061940763 -0.09526341 -0.079779536
-0.056638308 0.10148799 0.10924198 0.023457251 0.055774067 0.04543663 0.035791002 -0.0025292404
-0.028792052 -0.051692467 0.024277704 -0.010079099 -0.06028231 0.030622855 0.02915751 -0.061002452
-0.084227175 0.0385481 -0.008873695 0.076309405 0.07353212 -0.028524522 -0.05936473 0.048657224
0.00789822 -0.040307254 -0.019969417 -0.025535755 -0.08410897 -0.01328432 0.0623282 0.109762035
-0.049345184 0.05408061 0.022791902 -0.078113586 0.021142965 -0.031267278 -0.004619513 0.11777629
-0.009700954 -0.117586285 -0.012446734 -0.002027318 0.038042404 0.0056890375 0.08685681 0.06910662
-0.03450807 0.058073975 0.07298102 0.031947587 0.015043734 0.0061981315 -0.0734567 0.094906986
-0.018728921 0.02860105 -0.033055574 0.1249299 0.039191976 -0.0862742 0.07902636 0.019349419
0.008597324 -0.017302739 -0.07642515 -0.0121137835 -0.034562677 -0.0070130667 0.0358908 0.07927761
-0.33362323 -0.20379825 -0.2731601 -0.15540928 -0.1972886 -0.48086852 -0.32698515 -0.10982632
-0.3766275 -0.06802658 -0.16061574 -0.1638678 -0.1932679 -0.26135442 -0.2953645 -0.23419055
