models/forecasting/lstm/model.pth (torch, 136284 bytes, 9 tensors)

lstm1.weight_ih_l0 f4 [200, 12]
000000 5b 17 c6 bd ce 66 27 be 15 7c 41 bc 5d 9b 8f bc
       -0.096724235 -0.1634781 -0.011809369 -0.017530138
000010 0f 2b 8b 3e 7a 08 a1 bd 28 c4 5c 3e 47 e4 43 3b
       0.2718129 -0.07862945 0.21559203 0.0029890703
000020 51 ab ac bd 6f 87 8d 3e 95 ce a9 bd 40 10 4d 3e
       -0.084311135 0.2764239 -0.082913555 0.2002573
000030 f7 26 99 bd 35 b0 dd 3d 95 2b 93 bd 77 16 f7 bd
       -0.07478135 0.108246244 -0.07186047 -0.12064832
000040 e5 de c3 bd fd 64 06 3e b8 68 66 3e 26 59 50 3e
       -0.09563998 0.13124461 0.22500885 0.20346507
000050 f0 db c2 3d 90 75 f3 bd ec dd 29 3e b9 2b c3 bc
       0.09514606 -0.11887658 0.16588563 -0.02382456
000060 d3 10 c8 be fa a7 1d be bd b4 a2 3e 9b 76 da 3c
       -0.39075336 -0.15396109 0.31778517 0.026667884
000070 a3 a4 e0 be 22 28 17 3f bb 4a 3f 3e 0d c0 17 be
       -0.43875608 0.5904561 0.18680851 -0.14819355
000080 9c a0 e5 bd 7a cc 62 be b1 35 16 bf 5b d2 86 3c
       -0.112122744 -0.22148314 -0.58675677 0.016457727
000090 8b d0 12 3e 8b 66 ca bd fe 72 ca 3b 25 89 dc 3e
       0.14337365 -0.0988284 0.006178259 0.43073383
0000a0 f9 eb a3 3c 38 93 1a 3d f6 7e d3 bd ef 7b 88 3d
       0.020009981 0.037738055 -0.1032695 0.066642635
0000b0 0b 77 8a 3d 88 e9 be 3d 6e 82 69 be d7 ef 72 be
       0.06760987 0.09321886 -0.22803661 -0.23724304
0000c0 ca 61 36 be e2 cd b4 3d 3d 97 d1 bd f4 a9 5a bc
       -0.17810741 0.088283315 -0.102339245 -0.013346184
0000d0 12 1b 18 3d 02 9d c0 3d 46 bf 16 3e 6a b4 cd 3d
       0.03713519 0.09404947 0.14721403 0.10044177
0000e0 64 90 30 bd 0d 0f 11 3e 5d 60 88 bc 18 c7 18 be
       -0.04310645 0.14165898 -0.016647512 -0.14919698
0000f0 62 65 3c 3e 53 9a ff 3c af 75 d4 be 08 af bd bd
       0.1839805 0.031201517 -0.41496035 -0.092619
000100 ce eb 3e be 96 ff a8 bd da e9 1a be fb e1 bb bd
       -0.1864464 -0.08251874 -0.1512827 -0.09173962
000110 e0 68 c4 3d 6d 30 1a 3e a6 ac b8 3e 41 a3 19 3c
       0.09590316 0.15057535 0.3606922 0.009377302
000120 ea 82 57 bd d2 67 dd 3d 27 1f af be 3c 21 eb bc
       -0.052615084 0.10810818 -0.34203455 -0.02870237
000130 51 52 d0 3e 3f 43 eb 3e 95 6a 2e be 0a 2e 32 bd
       0.40687802 0.45949742 -0.17032845 -0.043500938
000140 e0 ed 96 be 4f 24 ed bd ef 56 db 3d b1 d9 65 be
       -0.2947836 -0.11579191 0.10709941 -0.22446324
000150 c8 78 af 3e d0 15 73 3d 25 bc 29 bd 1c 78 58 be
       0.34271836 0.059346974 -0.041439194 -0.21139568
000160 91 36 70 3d 0e a4 f9 bd 2a 04 ac bd a5 bf a4 3d
       0.05864579 -0.12189494 -0.08399232 0.08044366
000170 39 9b 9e 3d 56 e6 4c 3e d1 82 df 3b c2 a1 a7 bd
       0.0774445 0.20009741 0.0068210145 -0.0818515
000180 85 1f 3e bf 1b 24 2d 3f 3e 1b 06 3e a9 01 43 bf
       -0.74266845 0.6763322 0.1309633 -0.7617441
000190 32 b7 d0 3e fd 31 d4 3e 76 13 2b bf cd ba e6 3d
       0.40764767 0.41444388 -0.6682657 0.11266098
0001a0 72 a9 ee 3d 43 59 cb 3d ad 8d 65 be 18 67 34 be
       0.11653413 0.09929135 -0.22417326 -0.17617452
0001b0 13 95 14 3f f7 89 e6 3e 21 da c4 be c5 a4 72 bf
       0.5803997 0.45027134 -0.3844767 -0.9478267
0001c0 08 c2 1f 3f 93 b2 01 bf 88 97 a3 3e c7 42 e3 3e
       0.62405443 -0.5066311 0.31951547 0.44386885
0001d0 c4 24 c5 be dc 4c 3f 3f 21 de 13 be 2a a9 84 3d
       -0.38504612 0.74726653 -0.14440204 0.06477578
0001e0 31 46 8d 3e d3 f4 87 bd 84 8f 88 bc eb 85 d4 bc
       0.27592614 -0.066384934 -0.016669996 -0.025942763
0001f0 47 ca 6d be 84 ac 32 be 1e 11 bb 3c 83 5a ed bc
       -0.23221694 -0.17448622 0.02283531 -0.028973823
000200 45 5a 4c bc c2 29 15 3e 7c 07 7a 3e ce ac b4 3b
       -0.012472694 0.1456671 0.24416918 0.005513764
000210 0d 4b 93 3e 92 4b a7 be 2a 3b 94 bd 66 51 be 3e
       0.28768197 -0.32674843 -0.07237847 0.37171477
000220 0e 05 e2 3d 97 61 19 3e bd 4c e6 bd 8b 27 ef 3c
       0.1103612 0.14978634 -0.112451054 0.02919366
000230 7a 7f 96 be 3f 65 85 bc b6 34 d2 bc 0f 12 ea bc
       -0.29394132 -0.01628363 -0.0256599 -0.028573064
000240 df c2 18 be 47 c2 df bc be 0d 71 be 48 28 1c bc
       -0.14918087 -0.027314318 -0.23540398 -0.009531088
000250 52 c9 23 3e 8b 91 79 3e 34 66 10 3c 2e c6 97 bd
       0.15994766 0.24371926 0.00881343 -0.07410847
000260 c0 92 dd be a1 1e a1 3e cc b9 da 3c 8d c5 c8 bd
       -0.43276024 0.3146868 0.026699923 -0.09803305
000270 f5 2a ca 3d a3 a2 9a bb 71 9d f4 3d 2c 44 36 be
       0.09871475 -0.004719095 0.11944092 -0.17799443
000280 48 08 16 3c 5b 2d 8b 3d 68 21 86 3d 6f 0f 1d 3e
       0.009157248 0.0679576 0.065493405 0.15337919
000290 b5 e0 4b bd a9 41 6a bd ab 95 8f 3e 74 e5 05 be
       -0.049774844 -0.057191525 0.28043875 -0.1307581
0002a0 61 f2 68 3e f0 79 0c 3e 92 12 00 bd 5b c4 09 be
       0.2274871 0.1371839 -0.03126771 -0.1345381
0002b0 44 3f 19 3e ca a5 dc 3d 9a b5 2a 3e 4a 7f c2 bd
       0.1496554 0.10773809 0.16670838 -0.09496935
0002c0 63 2d d2 be 16 ae a0 3e 3d 0d 5b 3e 34 68 35 be
       -0.41050252 0.31382817 0.21391769 -0.17715532
0002d0 fe 60 91 3e 61 58 c1 3d 06 29 e5 3d 60 f7 58 3d
       0.28394312 0.09440685 0.11189465 0.05297029
0002e0 6c 34 72 3d ec 6e 4e bc 1d 92 cb 3d 0b dc 46 3e
       0.059132025 -0.012599688 0.09939978 0.19419877
0002f0 58 c7 9b be b0 c8 b7 3e 52 b2 33 3e fc a6 01 be
       -0.30425525 0.358953 0.17548493 -0.12661356
000300 41 10 77 bd 21 d3 c0 be 6f 32 47 bd f1 d6 35 3f
       -0.060318235 -0.3766108 -0.04863208 0.710311
000310 df 27 78 be 9c 54 52 3f c8 d2 01 bf 09 6a de bd
       -0.2423396 0.82160354 -0.5071225 -0.10860068
000320 0e 40 a8 bd cb 91 79 3d d2 0f 1f 3c 82 2c dd 3d
       -0.082153425 0.060930055 0.009708362 0.10799505
000330 dd 0f bf 3f 70 a0 49 3e 83 06 3e 3f 12 15 d1 bd
       1.4926716 0.19690108 0.74228686 -0.10209097
000340 d1 94 e0 3e 38 6e 39 3e 70 27 12 3f fd be 9c be
       0.43863538 0.18108451 0.57091427 -0.30614462
000350 26 04 0f 3e ea fc 4b 3e 49 73 c4 be b6 c4 8f be
       0.13966426 0.19920698 -0.38369206 -0.28079766
000360 54 a0 dd 3e 83 7a 64 be 1a 4c 55 3d 9c a3 50 3e
       0.43286383 -0.2231236 0.05207453 0.20374912
000370 af cd 6b bd e9 3b aa 3d dd 69 51 bd 22 79 2e 3e
       -0.057569202 0.08312208 -0.05112635 0.17038396
000380 12 40 64 be 9f 6c c2 3c d1 a8 8e 3c 8d 76 2b 3b
       -0.22290066 0.023733435 0.017414482 0.002616319
000390 c8 5f 34 be ef 3b 27 3f 0f 3b a9 3d 47 31 4c bf
       -0.17614663 0.65325826 0.08263218 -0.7976269
0003a0 a7 5f 9f 3d 55 c6 02 3f 42 5d 4d be 5a 70 ee bd
       0.07781916 0.5108388 -0.20055106 -0.11642523
0003b0 d6 ec 89 be ed 94 e0 3e b1 b0 ee 3e a6 0c ca 3d
       -0.26938504 0.4386362 0.4661918 0.09865694
0003c0 a7 43 2d 3f d8 8f 05 3f 73 71 77 3f 6c 9b 3c be
       0.67681354 0.52172613 0.96657485 -0.18418664
0003d0 5b 7b 42 3f ad 94 3e 3e db 8a 00 be fe 56 3d be
       0.75969476 0.18611403 -0.12552969 -0.18490216
0003e0 a9 31 33 be 8d b2 4a 3e f1 85 0d 3f 3c ef 00 3e
       -0.17499413 0.19794674 0.55282503 0.1259126
0003f0 9c 2d 1a 3e d1 4a b5 bd 72 0e cd bd 25 16 0a be
       0.15056461 -0.08852161 -0.10012521 -0.1348501

lstm1.weight_hh_l0 f4 [200, 50]
000000 e6 2b 51 3e 44 72 9e be ac 82 e4 bd 26 42 43 be
       0.20426902 -0.30946553 -0.11157736 -0.19068202
000010 8d b6 91 3e 54 3f 2c 3e e5 bd a2 be 29 2d 91 3d
       0.28459588 0.16821033 -0.31785503 0.07088692
000020 19 6f cf be 68 a1 e2 be fd 94 f4 3d 28 72 94 bd
       -0.40514448 -0.44263768 0.1194248 -0.07248336
000030 44 04 c5 be eb 6a 55 3e ee 15 0f bf 86 7f 5d be
       -0.38479817 0.20841567 -0.5589284 -0.21630678
000040 1c 51 d5 bc 8d 3f 05 3e 43 c5 c0 bd a4 00 a6 3e
       -0.026039653 0.13012524 -0.09412625 0.32422364
000050 a1 2d 3e be 2d 39 dc 3c 19 ce a4 3e a7 54 a1 bd
       -0.18572094 0.026882732 0.3218849 -0.07877474
000060 0a 1e 5f be 31 56 8d bd 09 33 0a be c5 64 a6 be
       -0.21788803 -0.06901205 -0.13496031 -0.32498756
000070 c2 8b 95 be 23 19 a4 3e 88 25 0c bf ac db 40 3f
       -0.2920819 0.32050428 -0.5474477 0.7533519
000080 9a 83 38 3d e1 1e c3 be 22 a6 f8 bc a6 c7 cc be
       0.04504738 -0.38109496 -0.030352656 -0.3999607
000090 8e 0e 3c bf 7c 54 d1 3e e4 25 ed bd 23 28 b4 bd
       -0.7345971 0.4088477 -0.11579493 -0.08796718
0000a0 fb 27 cb 3d b5 b1 07 3e 00 84 2c be b1 9c b2 be
       0.09919735 0.13251384 -0.16847229 -0.3488517
0000b0 69 14 d4 bd 1f c0 ab be 50 23 b6 3d 65 bf 2e 3e
       -0.103554554 -0.33545014 0.08893454 0.17065199
0000c0 c2 80 c2 3e 82 6a aa bd 78 f6 b6 3d 47 94 39 be
       0.3798886 -0.08321096 0.08933729 -0.1812297
0000d0 2f c0 af be fe 16 44 3e 02 5e a1 3d 62 33 f5 3e
       -0.34326312 0.19149396 0.07879259 0.47890764
0000e0 0d bf af be 78 14 cf bd 32 8b 19 bf 82 35 12 bf
       -0.34325448 -0.10111326 -0.5997802 -0.57112896
0000f0 ec fe 9c 39 c6 c5 91 be a4 76 09 bf 21 4c a2 3c
       0.0002994457 -0.28471202 -0.53696656 0.019811692
000100 2f 1d 24 be c1 af 3d be d2 36 fc 3d 24 6b 7e 3e
       -0.16026758 -0.18524076 0.12315144 0.24845558
000110 5c 17 42 bd 87 cf 64 3e 91 e9 8c 3e fc 72 22 3e
       -0.04738556 0.2234479 0.27521947 0.15864176
000120 c7 52 99 3e 8b e2 a7 3d 7a 72 39 be 62 29 cb bd
       0.29945967 0.081975065 -0.18110076 -0.099200025
000130 b0 3f 99 3d 99 b6 fa 3d ae f7 bb bd 05 1d 96 3c
       0.074828506 0.12241859 -0.091781005 0.018324384
000140 fd 49 f9 be 99 2a 05 3f 82 ec b3 bd 17 81 34 be
       -0.4868926 0.52018124 -0.08785345 -0.17627369
000150 02 17 f8 bc fd 5a 5d bd e6 05 7f be 6b aa 59 3e
       -0.030284408 -0.05404185 -0.24904594 0.21256416
000160 f8 7a 2e be 20 cd 7e 3c 7e 8f 90 3e 35 06 82 3e
       -0.17039096 0.015551835 0.28234476 0.2539536
000170 c8 f8 b2 be 8c bd cb be 52 27 da 3e 63 e7 b1 be
       -0.3495543 -0.3979305 0.42608124 -0.34746847
000180 49 8f 7c 3e 30 ce 82 3e d0 dc fe 3e dc b9 54 3e
       0.24664034 0.25547934 0.49777842 0.20774025
000190 97 e0 2c 3d 32 a0 06 bd c2 1f 00 be 2c 4a af be
       0.042206373 -0.032867618 -0.12512115 -0.34236276
0001a0 27 af 5d 3b d0 3c 1a be 15 62 97 3c 86 b6 44 be
       0.0033826323 -0.1506226 0.018479386 -0.19210252
0001b0 50 e5 02 bf 7b fc 5a 3c a0 87 19 3e 64 e7 90 3d
       -0.51131153 0.01336586 0.14993143 0.07075384
0001c0 52 83 d1 be 37 2c 12 be ee c5 ab 3e ef ee 13 be
       -0.40920502 -0.14274679 0.33549446 -0.14446615
0001d0 e0 d4 e2 3e 72 28 b9 be 19 7a 46 be 37 de 04 3f
       0.44303036 -0.3616367 -0.19382514 0.5190157
0001e0 5a 82 00 3f 16 66 c0 be 40 62 5b 3e df 62 c5 3c
       0.501989 -0.37577885 0.21424198 0.024094997
0001f0 a7 44 f2 bd 51 b9 a5 3e 9c a5 42 3e 28 d8 06 3e
       -0.11829501 0.32367948 0.19008487 0.13168395
000200 3f a3 30 bf e9 f7 74 bd 29 21 6f be f0 b8 46 b8
       -0.68999094 -0.059806738 -0.23352493 -4.7379115e-05
000210 16 b4 ba bb 93 c4 04 be 4d fc 5b bd 71 2f 81 3d
       -0.0056977374 -0.12965612 -0.05370741 0.06307877
000220 2f b1 64 bd be b4 58 be f9 7b 5e 3c f0 75 df 3d
       -0.055833038 -0.21162698 0.013579362 0.10911167
000230 55 13 96 3e 10 24 0f be 1e 56 21 be 8f 4a f8 be
       0.29311624 -0.139786 -0.15755507 -0.48494384
000240 75 90 74 3d 65 38 fd bb 06 32 e0 3e 1f bd 02 3c
       0.059708077 -0.00772767 0.43788165 0.00797966
000250 5c 42 cf bd 38 df 91 3e 99 bf 48 3e 4f 98 a2 bd
       -0.10120079 0.28490615 0.19604339 -0.07939207
000260 11 5c 87 be f9 23 67 3e bf 1e e4 3b 5d 88 0a 3e
       -0.2643743 0.22572316 0.006961673 0.13528581
000270 62 2d 0a bf d1 23 03 bd 40 d1 d2 be b8 2e bd bd
       -0.539755 -0.03201658 -0.4117527 -0.092374265
000280 81 af 77 bd 2e bd a0 be 23 a8 2a be 1f 64 ca be
       -0.060470108 -0.31394333 -0.16665702 -0.3952951
000290 11 03 ba be e7 0f 0f be aa e2 a6 3e 03 73 1b 3e
       -0.36330464 -0.1397091 0.32594806 0.15180592
0002a0 f2 4c c4 3c b3 73 22 3f 91 d1 a6 3e f3 cf d8 bd
       0.023962472 0.63457793 0.3258176 -0.10586538
0002b0 b9 4c e5 3d b5 e7 a4 3e 88 f9 01 3e 1d 16 35 be
       0.11196274 0.32208028 0.12692845 -0.17684217
0002c0 49 d3 a1 3d b8 83 63 3e 11 5f db bd e0 3c 12 bd
       0.079016276 0.22218215 -0.10711492 -0.035702586
0002d0 be 9f 85 be 89 b0 60 3e ce a9 ee 3d b4 11 db 3d
       -0.26098436 0.21942343 0.116534814 0.10696736
0002e0 69 ba ef 3c f3 89 d7 3e 60 22 c6 be 51 3f b0 3e
       0.029263692 0.42097434 -0.386981 0.34423307
0002f0 fb 8d 82 bd 63 41 81 bd 5f 21 0c be f5 2a 91 3e
       -0.06374737 -0.063113 -0.13684605 0.28353086
000300 c6 82 58 be c9 f3 14 be 2d c3 05 3f ba fa 6f bf
       -0.21143636 -0.14546122 0.5225094 -0.93741953
000310 38 b9 b9 3e b3 73 49 3e 03 8a 1b 3e c8 5e 8c bd
       0.36274123 0.19673042 0.15189366 -0.068540156
000320 77 f5 47 3e 7c e9 59 3e 88 23 bb 3d 9b 7a a5 3e
       0.19527231 0.21280473 0.091376364 0.32320103
000330 3e d4 1c 3e b5 82 88 3d b4 a3 b2 be c0 e4 9c bd
       0.15315339 0.066655554 -0.3489052 -0.07660818
000340 ba 6a c7 bb 1e 86 c7 bd 02 df 8b 3e 57 13 37 be
       -0.006085721 -0.09742378 0.2731858 -0.17878471
000350 a0 bf 94 bc 1c cb de 3d ca db 1f be c3 0d 27 3e
       -0.01815778 0.10878584 -0.15611187 0.16313843
000360 02 84 7d 3e 76 97 e4 bd 17 25 53 3e cb 92 07 3e
       0.24757388 -0.111617014 0.20619617 0.13239591
000370 38 85 b2 3e f5 a3 a5 bb 8b 54 f4 3c 7e 22 10 3e
       0.34867263 -0.0050549456 0.02982547 0.14075658
000380 fe c0 15 3e 23 74 1c be 5d e1 a5 3c f1 ea 18 be
       0.14624402 -0.15278678 0.020249063 -0.14933373
000390 6a a8 b8 be b7 7f b7 bd d0 22 0b be c3 e1 bc 3d
       -0.3606599 -0.089599065 -0.13587499 0.09222748
0003a0 ac 05 a1 3e 31 6a ae 3c ec 29 fc 3d 54 b8 d1 3e
       0.3144964 0.02129087 0.123126835 0.40960944
0003b0 61 af 83 be 3d aa 4c 3e 38 e0 84 be f4 fb 98 be
       -0.2571974 0.19986816 -0.25952315 -0.29879725
0003c0 16 c5 b2 3d 04 03 cf 3e e5 d3 b8 be cd 9a 01 be
       0.087289974 0.40431988 -0.36099163 -0.12656708
0003d0 fe ec ca 3e aa 5d cb be 54 55 3d 3e 94 eb 7e 3e
       0.39633936 -0.39719898 0.18489581 0.24894553
0003e0 23 85 57 3e 34 89 1f 3f 88 09 69 bc a0 c4 8c 3d
       0.21046881 0.6231873 -0.014223464 0.06873441
0003f0 85 82 01 be 6a 87 28 be 06 99 40 bd ce d9 bb 3d
       -0.12647445 -0.16457906 -0.047020935 0.09172402

lstm1.bias_ih_l0 f4 [200]
000000 12 de d9 be 77 8c b2 be 9b 5b d8 be 4e e0 02 bf
       -0.4255224 -0.3487279 -0.4225739 -0.5112351
000010 f7 dc 0e bf d8 e6 41 3e 90 cc 6c 3e ea a6 d6 be
       -0.55805916 0.18935716 0.2312491 -0.4192422
000020 3a 78 4e bc 40 5e 5e 3b 8e 77 c0 be 32 26 d7 be
       -0.012601906 0.003393069 -0.37591213 -0.42021328
000030 a6 9e a2 3d 50 bc dc be 8c 14 f1 bc b4 e3 09 be
       0.07940416 -0.4311242 -0.029428743 -0.13465768
000040 03 c8 e7 be 2c 69 d2 be c9 d1 40 bf 0b c4 7f 3e
       -0.45269784 -0.41095865 -0.75320107 0.24977128
000050 59 03 a8 be 6e 1c c5 bd 00 ba 02 be ed 5b 1a bf
       -0.32815054 -0.09624563 -0.12766266 -0.6029652
000060 dd 5e 82 be 75 41 d4 be 99 e8 d9 be 34 18 81 be
       -0.25463 -0.4145619 -0.4256027 -0.25213778
000070 7e 41 78 ba ef 7d b4 be 89 bf ca 3e 53 e3 24 3e
       -0.00094702083 -0.3525233 0.39599255 0.16102342
000080 16 26 c0 be f8 e5 08 bf 5b 43 ab be 88 2a fc be
       -0.37529057 -0.53475904 -0.33449826 -0.492512
000090 b8 84 14 3d 03 8e 8e 3e 8f cb 26 be 49 a4 ed be
       0.036259383 0.2784272 -0.16288589 -0.46414402
0000a0 6c d3 b5 be e5 6e a6 3c 0c c9 7d be 59 30 94 3e
       -0.35512865 0.02031655 -0.24783725 0.28943136
0000b0 68 21 b8 3e df 64 de be a1 32 e1 3e e8 32 ba bd
       0.35962987 -0.43436334 0.4398394 -0.09091741
0000c0 ea 0d b7 3c 8f f5 d6 be c0 f5 92 be d8 2d 57 be
       0.022345502 -0.4198422 -0.28703117 -0.21013582
0000d0 f9 6f 67 be 79 2d a0 be 4c 03 b5 be 82 36 0f 3d
       -0.22601308 -0.31284693 -0.35354078 0.034964092
0000e0 2b 5c 4f 3e 45 9b 43 be ac 17 a8 3c ad 46 0a be
       0.20250003 -0.191022 0.0205191 -0.13503523
0000f0 87 53 ca bd aa e2 83 be 70 e6 5b 3d da cd c1 be
       -0.09879213 -0.25758868 0.05368656 -0.37852365
000100 78 4e a0 bd 23 68 80 be 40 40 94 3e 2f d5 46 be
       -0.07827467 -0.2507945 0.2895527 -0.1941726
000110 22 86 e5 be 3c 70 8d 3e c2 11 c9 be 74 e8 06 3e
       -0.44828898 0.2762469 -0.3927136 0.13174611
000120 f9 ce 52 be 1f 05 d6 be 6b be 82 bd db 53 d4 be
       -0.20586766 -0.41800782 -0.063839756 -0.41470227
000130 a3 c6 28 be 88 be b5 be d1 26 0d 3d 7f 6c 90 3a
       -0.16482024 -0.35496926 0.034460846 0.0011018662
000140 a6 9e ba 3e 4e cc 82 be bb b5 23 be ea 88 ef be
       0.36449164 -0.25546497 -0.15987293 -0.46784145
000150 4a e9 06 be a1 e5 ca be dd e5 a1 3e ef d6 2a 3e
       -0.1317493 -0.39628318 0.31620684 0.16683553
000160 26 44 13 bc 94 4d f0 be 6c 96 9f bd a2 3e 81 3e
       -0.008988416 -0.46934187 -0.077923626 0.25243098
000170 d9 17 ad be 48 0c db 3e 45 27 4c 3d b8 cd ba be
       -0.33807257 0.42782807 0.049842138 -0.36485076
000180 6c 7b 2d be f9 e6 5b be 79 e7 cd be bb 2f 13 be
       -0.16941613 -0.21474828 -0.40215662 -0.14373676
000190 14 f3 79 3e e3 79 ee 3b 7f 7e c1 3d 54 47 84 bd
       0.24409133 0.0072777136 0.09447955 -0.06458917
0001a0 43 ed e4 bc d4 fc e5 bd 05 d6 8b 3e de 27 bd 3d
       -0.027945166 -0.11229864 0.2731172 0.0923612
0001b0 37 d9 02 3e f2 67 73 3e 90 ca 92 bb 3f 8c 62 bd
       0.12778173 0.2377012 -0.0044797137 -0.05530953
0001c0 08 3a b9 3e 99 96 d4 3d 13 c4 2f 3e 3f b4 3f 3c
       0.36177087 0.10380287 0.1716464 0.011700689
0001d0 62 23 1f 3d 43 cb c0 3e c9 0f 20 3c 55 c9 6b be
       0.038852103 0.37655076 0.0097693885 -0.23026021
0001e0 41 69 44 be 90 84 5a 3d f7 5c 9a bd 36 00 7a 3c
       -0.19180776 0.053349078 -0.07537263 0.015258839
0001f0 be 1c ca 3d d3 0f a2 3d ce b9 9a 3d e2 99 3c be
       0.098687634 0.079131745 0.07554971 -0.18418077
000200 61 bd ec 3d ad 3f e0 bd e8 7f 25 3f 28 65 c1 be
       0.11559559 -0.10949645 0.64648294 -0.3777249
000210 e5 ce a7 bc fb 07 cd bc 41 17 8c bd c4 6e ca bd
       -0.020484397 -0.02502822 -0.06840373 -0.09884408
000220 eb 46 f7 3e e7 68 c0 be bf 38 01 3d 24 11 87 3e
       0.48296294 -0.37580034 0.031548258 0.26380265
000230 f2 20 ac bd 2d a4 d9 be bc ce 28 3d 17 9e e3 3e
       -0.08404721 -0.4250807 0.041212782 0.4445655
000240 75 78 95 be d0 ea 40 3e 02 80 89 be 1d 98 dd bd
       -0.29193464 0.18839574 -0.26855475 -0.10820029
000250 e2 d1 d5 bd a3 33 ec bd 7a a9 b6 be 7a 9a ab be
       -0.104404226 -0.115332864 -0.35676175 -0.33516294
000260 78 02 01 bf c8 8b f3 be a7 bd ce be 4c fb 51 be
       -0.5039439 -0.47567582 -0.40379068 -0.20506018
000270 a7 60 75 be ff 1f 21 be a8 02 06 3f 42 1e b8 3e
       -0.23962651 -0.15734862 0.52347803 0.35960585
000280 9f ab fc be 56 49 f9 be e5 26 5b be 74 8e 21 be
       -0.49349687 -0.48688763 -0.21401556 -0.15776998
000290 02 13 26 be 84 99 1b be 72 f6 dc be 2f 95 68 3d
       -0.16218188 -0.1519528 -0.43156773 0.056782898
0002a0 2d 3a 3e bf 2c d4 ce 3e de 3c 3d be e5 87 a5 be
       -0.7430752 0.4039625 -0.1848025 -0.32330242
0002b0 98 3f d3 bd 21 68 e2 be f8 13 01 3e bc 86 a0 be
       -0.10314864 -0.4422007 0.12605274 -0.31352794
0002c0 b9 8e ba be 03 2f e6 be 6e a3 2d be 0e b0 a4 be
       -0.36437014 -0.44957742 -0.16956875 -0.3216557
0002d0 69 a7 e7 3e 16 71 5e 3d 44 f0 ab be 41 ca bf be
       0.4524491 0.054307066 -0.33581746 -0.37458995
0002e0 fa aa ba be 65 af f9 be 26 83 94 bc 4b 61 da 3d
       -0.3645857 -0.48766628 -0.018128943 0.106630884
0002f0 1e 6c a1 be 0b 66 a7 be 00 e4 a7 be 40 a6 58 3e
       -0.315278 -0.3269504 -0.32791138 0.2115717
000300 b9 a2 a8 be 2d f4 35 3f f9 a2 b8 3e fb bc 1e be
       -0.32936648 0.7107571 0.36061838 -0.15501778
000310 eb b1 ab 3e 01 85 a8 be 41 34 b8 bd 12 f1 9f be
       0.33534178 -0.32913974 -0.08994342 -0.3123861

lstm1.bias_hh_l0 f4 [200]
000000 3a fc 0d bf be 07 fa be 7a e8 82 be 20 f4 a0 be
       -0.5546299 -0.48834032 -0.2556799 -0.31436253
000010 bb ac b5 be 7c 3e e0 3d 70 c0 69 3e 9e 1c b9 be
       -0.35483345 0.10949418 0.22827315 -0.36154646
000020 48 20 9d 3c d7 35 f7 3d 34 1d a7 be 4f 6e a2 be
       0.019180432 0.12070816 -0.32639468 -0.31724784
000030 2d b9 bd 3d 8e 88 d9 be 40 5e c3 bc 1e 5f 9d be
       0.09263835 -0.42486995 -0.023848653 -0.3073663
000040 9f 4a f5 be ae 95 b7 be 95 d2 25 bf 56 60 0d 3e
       -0.47908494 -0.35856384 -0.6477445 0.1380628
000050 6a f3 60 be 89 6f 95 be 29 95 7d bd b1 22 02 bf
       -0.21967855 -0.29186657 -0.06190983 -0.50834185
000060 90 62 03 be 39 f7 c0 be f1 42 e2 be 3f b5 75 be
       -0.12830567 -0.37688616 -0.44191697 -0.23994921
000070 df 93 31 be 5d 10 c1 be 04 3d 06 3f 21 57 39 3e
       -0.17341565 -0.37707797 0.5243685 0.18099643
000080 ed 6a b5 be cb 34 f1 be 35 74 b0 be 3e c0 bb be
       -0.3543314 -0.4711059 -0.3446366 -0.36670107
000090 8d a5 e4 bd a7 24 d7 3e db e6 a8 be b7 b6 06 bf
       -0.11164389 0.4202015 -0.3298863 -0.5262255
0000a0 13 13 d1 be 12 3b 41 3e 81 1d d9 be e9 08 69 3e
       -0.40834865 0.1887019 -0.42405322 0.22757305
0000b0 b7 1b 43 3e 43 c1 6e be db d0 db 3e b6 b4 f2 bd
       0.19053541 -0.23315911 0.42932782 -0.11850874
0000c0 96 ca 9a bd d6 26 de be 3e d5 03 bf 32 93 97 be
       -0.075581715 -0.43389004 -0.51497257 -0.2960449
0000d0 74 88 a7 be dd 1b fc be 4e df a9 be 09 8f 93 3e
       -0.32721293 -0.49240008 -0.3317818 0.28820065
0000e0 20 31 8a 3e 7a 23 80 be 19 8e 28 3d 19 5f 8d be
       0.26990604 -0.25027066 0.04115114 -0.27611616
0000f0 96 26 7e be fa 3e d5 be a2 ae 05 3d a4 de 9d be
       -0.24819407 -0.4164961 0.032637246 -0.30833924
000100 28 17 8f bd f9 57 db bc 0d 9c 5e 3e 2b 81 3e be
       -0.069868386 -0.026775347 0.21739216 -0.18603961
000110 02 fc 0a bf 10 cb a7 3e ca b8 9e be da 6b f1 bc
       -0.54290783 0.32772112 -0.31000358 -0.029470373
000120 01 60 b9 bb 07 d1 00 bf af 09 8f be 2d 1c 63 be
       -0.0056571965 -0.5031895 -0.27937075 -0.22178717
000130 c4 26 cf be 6d 1e 5b be b2 e1 a5 3d c8 9b 4f be
       -0.40459263 -0.21398325 0.080996886 -0.2027427
000140 d9 78 87 3e 94 d4 31 be dc 27 06 be 0b e4 9d be
       0.26459387 -0.17366248 -0.13101143 -0.30838045
000150 bc a5 66 be d3 cd 29 be 39 08 de 3e 0c b0 79 3e
       -0.2252416 -0.16582422 0.43365648 0.24383563
000160 8c 9c 84 be 65 67 7d be 09 2c 5f bd f6 d1 52 3e
       -0.25900686 -0.24746473 -0.054485355 0.20587906
000170 b5 59 20 be 77 9b 90 3e e9 3f 65 3d 51 7b cc be
       -0.1565922 0.2824361 0.055969153 -0.39937833
000180 d1 cd ca bc c8 ac c7 bb 71 d8 60 be db 91 84 bd
       -0.024756344 -0.006093595 -0.21957566 -0.06473132
000190 85 1a 3e 3e d2 5c fc 3d 35 fc ad 3d 0b 57 44 bd
       0.18564804 0.123223916 0.0849537 -0.047934573
0001a0 d7 fe bf 3c 75 a5 9c be 07 2f e2 3e 16 76 ac 3d
       0.023436947 -0.30594984 0.44176504 0.084209606
0001b0 e4 38 22 3e d7 b7 c0 3e ba 29 a6 bb a8 90 45 bd
       0.15842015 0.3764026 -0.005070892 -0.048233658
0001c0 61 ce 0d 3e 25 7d bd 3d b3 3d ee 3d c9 8c 1d bd
       0.13848259 0.09252385 0.11632862 -0.03846434
0001d0 e5 8a 9b bd 23 44 aa 3e e6 93 5c 3d 77 fe d8 be
       -0.075948514 0.3325511 0.053851984 -0.4238164
0001e0 53 3c 39 be 5e 0b 63 bd 2b f8 1d be 79 a2 9c bc
       -0.18089418 -0.055430762 -0.154267 -0.019120442
0001f0 7d be af 3e 0d ec 28 3d cf 78 3f bd ec 0a b7 3c
       0.3432502 0.04124074 -0.04674607 0.022344075
000200 c1 25 29 3e ec 70 66 3d 63 0a 1e 3f e4 55 c1 be
       0.16518308 0.056260034 0.617346 -0.37760842
000210 8a e3 3d bd 15 7d 9c 3c 9e 68 ff 3c 67 87 3d bb
       -0.046359576 0.019102613 0.031177815 -0.0028919817
000220 47 91 b4 3e 3d a4 ef be 9f d1 ac 3d d6 10 81 3e
       0.35267088 -0.4680499 0.084384196 0.25208157
000230 46 5b c3 bc 45 b4 ef be 38 77 8b 3d d5 2e df 3e
       -0.023847234 -0.46817222 0.068098485 0.43590418
000240 9d 32 e4 be 46 de 4e 3e 0f db 15 bd 8f 61 eb 3c
       -0.44569865 0.20201978 -0.036585864 0.028733043
000250 89 39 76 be 4d 5b 25 be 33 b5 07 bf e2 4c b8 be
       -0.24045385 -0.1614811 -0.53010863 -0.35996157
000260 b6 16 b9 be 46 7d e6 be 89 27 b3 be 31 50 9d be
       -0.3615014 -0.4501745 -0.349911 -0.30725244
000270 73 7b 97 be df 22 89 be d3 b3 d0 3e 8c 44 d0 3e
       -0.29586372 -0.26784417 0.40762195 0.40677297
000280 d8 e5 89 be f7 81 12 bf 68 01 af be 90 c9 a7 bd
       -0.2693317 -0.5722956 -0.3418076 -0.08192742
000290 5d 9c b5 3d 78 42 7c be e3 24 28 bf dc b3 82 bd
       0.088677146 -0.24634731 -0.65681285 -0.06381962
0002a0 fb 79 66 bf d2 ce 03 3f 62 77 46 3d 5a ff 75 be
       -0.9002988 0.5148746 0.048453696 -0.2402319
0002b0 08 54 21 be 05 86 dc be e4 52 e9 bd 4c 14 f8 be
       -0.15754712 -0.43071 -0.11392763 -0.48452985
0002c0 1d 61 da be 98 97 d3 be d7 bf c6 be 54 00 1a be
       -0.42652217 -0.41326594 -0.38818237 -0.15039188
0002d0 0d 33 c8 3e d8 dd 1b 3e be e6 ba be a1 88 bf be
       0.3910145 0.15221345 -0.36504167 -0.37408927
0002e0 d9 42 0a be 9d c2 cd be 17 53 00 3e 75 fd 81 3e
       -0.13502063 -0.4018754 0.12531696 0.25388685
0002f0 7c 91 a4 be 2b dc d5 be be 9b d8 be fc 00 1f 3e
       -0.32142246 -0.41769537 -0.42306322 0.1552772
000300 7c 8d d6 be a5 28 31 3f e4 1c 85 3e 92 6a 87 be
       -0.4190482 0.69202644 0.25998604 -0.26448494
000310 23 cc 41 3e bd 96 c4 be ba b3 ee bd 67 ec d7 be
       0.18925528 -0.38396254 -0.11655374 -0.42172548

lstm2.weight_ih_l0 f4 [200, 50]
000000 22 f2 8f be fc 95 fa bc b0 b5 92 3b b8 c0 fe 3d
       -0.2811442 -0.030589096 0.0044772252 0.12439102
000010 d2 45 06 3e 66 3c 0c 3f 9c c7 34 bf df 06 08 be
       0.13112572 0.5477966 -0.7061708 -0.13283871
000020 be 11 4f bf 4b c8 f8 be 22 bd 53 bd df 68 f2 be
       -0.8088645 -0.4859031 -0.051694043 -0.47345635
000030 58 fb 13 bf e0 c3 f7 be 0d e0 15 bf 1b 42 6f 3d
       -0.57805395 -0.48391628 -0.58545 0.058412652
000040 45 67 8f 3e 9d c5 b8 be ca fd 87 3e 25 05 00 3f
       0.28008476 -0.36088267 0.26560813 0.5000785
000050 64 ca d2 3e 9e 9a c5 be b2 db 29 3f 59 54 b7 3d
       0.41170037 -0.38594526 0.66350853 0.08951635
000060 84 ad a1 be 93 7b 6a 3e fa 55 f7 3c cb ef 9d 3e
       -0.31577694 0.22898702 0.030192364 0.3084701
000070 b2 dc 2c bf 3a 47 0a 3b fe b8 2e bf 27 83 27 bd
       -0.67524254 0.0021099583 -0.68251026 -0.04089656
000080 63 ef 8b 3e 90 15 e1 bd 83 16 b9 3d 0e 31 5f 3e
       0.27331075 -0.10990441 0.09037497 0.21796057
000090 2c 75 a2 be 9b ce 14 3d 67 fd 98 be a3 67 4e be
       -0.3173002 0.036329847 -0.2988083 -0.20156722
0000a0 11 26 d9 bd 17 f4 90 3e 5e 16 df bd c1 a5 e4 be
       -0.10602964 0.28311226 -0.10892938 -0.4465771
0000b0 13 35 4a 3f 53 79 3b be b7 4f 6d bd d7 e0 a1 3c
       0.78987235 -0.18308 -0.05793735 0.019760532
0000c0 84 99 a9 3b b0 32 fb 3e 20 5e 57 be 72 8a c2 bd
       0.005175771 0.4906211 -0.21032 -0.094990626
0000d0 b0 c9 e1 3e 1c 1e eb 3c 83 1b d6 3d 5c 4e 2f 3f
       0.44099188 0.02870088 0.10454466 0.6847894
0000e0 b1 42 9b be 36 87 79 be 14 95 66 bc 53 05 42 bf
       -0.3032432 -0.24367985 -0.014073629 -0.75789374
0000f0 fb 01 de bc fb 6c be be e1 70 0f bf 6d 25 21 bf
       -0.027100554 -0.3719252 -0.56031615 -0.6294773
000100 87 c0 af be 6b 56 c2 3d 80 20 20 3e 93 c6 9d be
       -0.34326574 0.09489139 0.15637398 -0.30815563
000110 6c 4b ff 3b b0 00 01 3f e5 40 bb 3e 8b fe 9a bd
       0.0077909734 0.50391674 0.36572948 -0.075680815
000120 ad 0b 8f 3e 8b b2 b9 bd c9 be fd bd d0 dc 42 3d
       0.27938595 -0.090672575 -0.12389905 0.047573864
000130 a3 90 00 bd e0 2b 3b 3d 82 af c1 bd e7 1b 77 bc
       -0.031387936 0.04569614 -0.094573036 -0.015082336
000140 85 fa 06 be 97 e2 ee 3e a8 3f 95 3e f8 b9 76 bc
       -0.13181503 0.4665725 0.29150128 -0.015058987
000150 38 c8 2d be f9 04 5b 3e c3 58 1c bf 2c 69 4e 3f
       -0.16970909 0.21388616 -0.6107294 0.8062923
000160 b2 b9 02 bf 7f 78 55 be 4f b4 c7 3d ff 53 13 3f
       -0.510646 -0.20846747 0.09751188 0.5755004
000170 34 88 35 ba 77 03 99 be 69 4a 3d 3f 03 ec fa be
       -0.0006924898 -0.29885456 0.73941666 -0.49008188
000180 c7 ac 80 3e c3 e6 72 bd ba ea 50 bd 52 0d ff 3e
       0.2513182 -0.059302103 -0.051005103 0.4981485
000190 7d b0 81 bd da 37 b2 bd 52 cf 74 bd 4f 25 63 3e
       -0.063324906 -0.08702059 -0.05976803 0.22182201
0001a0 63 68 19 3e 75 f1 90 3e 96 83 30 bf 14 6c a0 bc
       0.14981227 0.28309217 -0.68950784 -0.019582786
0001b0 3a 7e c5 be 14 3d 12 bf b2 ba 4f be 74 65 1a be
       -0.38572866 -0.5712445 -0.20286062 -0.15077764
0001c0 b6 eb a8 be 24 86 da 3d be d2 90 be 90 7e 7e 3e
       -0.32992333 0.106701165 -0.28285784 0.24852967
0001d0 50 c1 ea 3d 0d 1e e5 bd ef d2 94 3e 21 c5 8d 3e
       0.11462653 -0.11187372 0.2906718 0.2768946
0001e0 75 c1 d0 3e d8 65 66 bd 89 94 b8 3c 64 22 2b 3e
       0.40772596 -0.05624947 0.022531765 0.16712338
0001f0 f1 20 88 bd 1a 94 44 3a 01 c8 d9 3d b6 71 14 3e
       -0.06646908 0.00074988755 0.10633851 0.14496502
000200 57 7a 3e be 33 d6 99 bd d3 6d fa be a6 a7 ee 3e
       -0.18601356 -0.075115584 -0.48911914 0.4661228
000210 e2 0c bc 3d b6 12 4b bd c9 5c 25 3e e7 c5 dd 3e
       0.09182145 -0.04957839 0.16148676 0.4331505
000220 37 8e ab be 90 0c 9a 3e ea 19 b8 bc 6d f3 46 be
       -0.3350694 0.3008771 -0.022473294 -0.19428797
000230 e1 4c 24 3d 12 ff 3d 3e 60 3a 1f bd 22 69 be be
       0.04011238 0.18554333 -0.03887403 -0.37189585
000240 19 6f 8a 3f d4 02 1c bf eb 4b 9b bd 32 10 e3 bc
       1.0815154 -0.60941815 -0.075828396 -0.027717683
000250 4c 7d bc 3e f9 1d 60 3e 14 2a 8d bd 71 8c 91 3c
       0.36814344 0.21886434 -0.068927914 0.017767163
000260 f6 2e 5a bd 8a ec a0 bd 31 ef 30 3e 86 a1 ac 3e
       -0.05326744 -0.07857616 0.17278744 0.33716983
000270 6c 84 10 bf 67 8f ab 3d 51 53 0c bf d7 77 58 be
       -0.5645206 0.08376961 -0.5481463 -0.21139465
000280 85 17 f1 3d e3 e7 12 bc 08 27 a4 bd 7f 7c ab be
       0.11772064 -0.008966419 -0.08015257 -0.3349342
000290 cc 9c 94 be 86 73 8a be e6 2d f4 bc 48 0c cb be
       -0.29025877 -0.27041262 -0.029807042 -0.39657807
0002a0 74 5a 61 3e 96 be e7 3e e2 0b d6 3e 59 49 1f be
       0.22007161 0.45262593 0.4180594 -0.15555324
0002b0 c8 22 6d 3e b0 3e 08 3e 9b 14 0f 3c 75 0a 95 3d
       0.23157799 0.13305163 0.00873294 0.07277385
0002c0 35 c8 a4 bd 63 e6 f3 3c fa eb 00 3c ab 8a 88 bb
       -0.08045999 0.029772943 0.007868761 -0.004166921
0002d0 9a cd f7 be ba c8 05 3f b5 8d 01 3e 12 ac 49 3e
       -0.4839905 0.5225941 0.12651713 0.19694546
0002e0 c6 2f dd bc bd 24 18 3e 25 32 a4 be 9f 6b 0e 3f
       -0.02700032 0.14857765 -0.32069507 0.55632967
0002f0 d9 bb 0f 3d 4d e6 27 bf 4e 46 8d 3d dd 03 6f 3e
       0.035091255 -0.65585786 0.06898175 0.23341317
000300 e9 cf 44 be d9 41 35 bf d4 f3 82 3f 5d 28 a1 bd
       -0.19219936 -0.708036 1.023066 -0.07869027
000310 9f 54 10 bd 43 81 67 3d 83 32 9b 3e dc 3b 58 3e
       -0.03523695 0.056519758 0.30311975 0.21116585
000320 4e c1 87 3d c5 47 4c bc cb 4e 15 3f 38 82 06 3e
       0.06628667 -0.012468283 0.58323354 0.13135612
000330 92 fd 3a bd 30 96 37 3e ca 4a 51 bf e1 ea 64 3e
       -0.04565198 0.17928386 -0.81754744 0.22355224
000340 c5 a5 9b be b6 4a 12 be 44 0b 29 be 50 0e 33 3d
       -0.3039991 -0.14286312 -0.16508204 0.04371482
000350 a7 e5 90 be 1e 69 f1 bd 8f f2 12 bf e8 bc 99 3e
       -0.2830021 -0.11787628 -0.57401365 0.30026937
000360 c0 c3 73 bc a2 f6 d1 be a3 b4 1b be e2 72 ef bd
       -0.014878213 -0.41008478 -0.15205626 -0.11691834
000370 25 b8 d1 3e 97 59 49 3c 2d 5b a9 be ab 3a af 3e
       0.40960804 0.012289426 -0.33077374 0.34224448
000380 ef 45 f2 be c3 1d d7 be 08 18 13 3e 8d cb 04 3b
       -0.4731898 -0.42014894 0.14364636 0.0020262927
000390 4d 98 04 3f aa 4a d7 3d 45 90 62 3e 09 fd c9 3e
       0.5179489 0.10512288 0.22125347 0.39450863
0003a0 34 eb 81 bd 92 a9 f6 bd 21 d2 1b bc 32 0e ef 3d
       -0.063436896 -0.12044062 -0.009510548 0.116726294
0003b0 f1 f1 17 bf 3d 35 d0 3e 06 00 b1 3d fd af 8f be
       -0.5935355 0.40665618 0.086425826 -0.28063956
0003c0 e4 f7 f6 3c 13 69 4d 3f e5 d0 36 3e 48 2c ec be
       0.0301475 0.80238456 0.17853124 -0.46127534
0003d0 82 7d c1 3e 44 0e 78 3e 43 2c e9 3e 9c d7 65 be
       0.37791067 0.24224192 0.45541582 -0.2244553
0003e0 7b 20 87 bc 7e ec 22 be 18 50 29 be 0f 60 01 be
       -0.01649498 -0.15910527 -0.1653446 -0.126343
0003f0 5c 63 33 3e 15 0b fe 3c 6f 92 a6 3d 7d 78 42 3e
       0.17518371 0.031011144 0.08133399 0.18991275

lstm2.weight_hh_l0 f4 [200, 50]
000000 d9 02 1e 3d 4f 2a ca bd 1c 48 a9 bd b7 bb 4e 3e
       0.038576934 -0.09871351 -0.08265707 0.20188795
000010 9f 0f 0a bd 51 25 e6 bd e7 09 53 be 43 45 62 bc
       -0.033706304 -0.11237586 -0.20609246 -0.013810459
000020 f8 6a 21 bd 22 bf 2c 3e 56 f7 5b bd 0e 69 10 3e
       -0.039408654 0.16869786 -0.053702675 0.14102575
000030 33 26 ba 3d 74 79 dc bd 1b f8 30 bb 41 90 7f be
       0.09089317 -0.10765353 -0.002700335 -0.24957372
000040 63 af 23 3e 30 9e fe bd e4 95 2a 3d 67 bd 45 be
       0.15984873 -0.124325156 0.041646853 -0.19310533
000050 aa 4d 38 be 59 f7 23 3c 1b 47 4a 3c 05 80 4f bb
       -0.17998376 0.010007703 0.012346054 -0.0031662
000060 2c 74 86 3d 95 28 2c bd 94 96 15 be 84 cc 1e 3e
       0.06565127 -0.04203089 -0.14608222 0.15507704
000070 bf b2 36 bd cd 6e 6e bd 3a c3 17 3e 4d 2e 8f 3c
       -0.04460406 -0.058211137 0.14820567 0.017478133
000080 0c 61 13 3e 88 3e 11 3e c2 83 d5 3c ef e8 2c be
       0.14392489 0.1418401 0.026063804 -0.16885732
000090 1f 29 5a be 35 1c 74 3e 03 c2 9a bd 4c ef 92 3e
       -0.21304749 0.23838885 -0.07556536 0.28698194
0000a0 46 6d b1 be d9 7c 5a be ee e9 d2 bc f0 86 48 bd
       -0.34653682 -0.21336688 -0.025746312 -0.04895681
0000b0 1d dc 90 bd 04 1c 44 3e 5c b5 b9 3d 47 86 07 3e
       -0.07073233 0.19151312 0.09067795 0.13234816
0000c0 12 12 ef bd f3 25 56 be 29 c2 51 be 89 03 f3 bd
       -0.116733685 -0.20912914 -0.20484222 -0.11865909
0000d0 2e 09 6b bd 92 84 79 3e 37 ae 2c be e3 34 0e be
       -0.0573818 0.24366978 -0.16863333 -0.13887362
0000e0 a9 64 19 bd 46 95 7e bd 0b a9 21 be a1 6c 99 3e
       -0.037449513 -0.062154077 -0.15787141 0.2996569
0000f0 0f 58 86 3d 43 28 8b 3d 84 5d c0 3d 5c c8 b7 bd
       0.065597646 0.06794789 0.09392837 -0.089737624
000100 9f 57 b4 bc b8 84 1b be 43 80 96 3e 81 11 cd 3d
       -0.022014437 -0.15187347 0.2939473 0.10013104
000110 8e 3e 30 bc 52 4b b0 3b 91 48 96 be bb e7 29 3e
       -0.010757102 0.0053800726 -0.2935224 0.16592304
000120 75 c8 e6 bd b7 e7 ed bd dd 72 39 3d 21 85 d6 3c
       -0.11268703 -0.11616462 0.045275558 0.026186528
000130 ae da 11 be 3d 68 a1 3e fe e1 ee 3c 52 6d 29 3c
       -0.14243576 0.3152484 0.029160496 0.010341005
000140 41 6f b5 3d 3f 63 db 3d c8 a0 4a 3d 3c fc da 3d
       0.088591106 0.10712289 0.04946974 0.10692641
000150 21 f2 e2 3d 60 27 11 be 88 39 90 be b6 19 4c 3c
       0.11081339 -0.14175177 -0.28168893 0.012457302
000160 d8 de 16 3c 11 d7 ed bd f8 fd 8f be 8c 54 73 be
       0.0092084035 -0.11613286 -0.2812345 -0.23762721
000170 5d 14 be bc cb 20 73 3b bb 06 05 be ad bd 95 3e
       -0.02320307 0.0037098404 -0.12990849 0.29246274
000180 82 22 13 3d d4 6e 45 be d5 45 f3 bc 8c 78 04 bd
       0.03592158 -0.19280559 -0.029696384 -0.032341525
000190 40 33 48 be 65 a3 58 3e fd 69 61 be 4b a2 aa be
       -0.195508 0.2115608 -0.22013088 -0.33326945
0001a0 87 6e d1 3c f6 c9 64 3d 90 69 c1 3d 51 1a 85 3d
       0.025565399 0.055856667 0.094439626 0.0649916
0001b0 90 68 93 be 1b 96 38 3e 9c 12 34 3d ec 07 4c 3e
       -0.28790712 0.1802601 0.04396306 0.19924897
0001c0 ec 98 c8 3d d0 e4 93 bc 12 60 71 3e 2f 1b 00 3c
       0.097947925 -0.018053442 0.23571804 0.007818981
0001d0 90 79 12 3e ff 5d fd bc be 7e d8 bd f1 be 4b bd
       0.14304185 -0.03092861 -0.10571049 -0.049742643
0001e0 02 9e 12 bd c7 77 ac 3d bb 27 63 bd 5c 7a 21 bd
       -0.03579522 0.08421283 -0.05545781 -0.03942333
0001f0 c4 a2 b0 3d fd 85 66 be 18 9a 80 bd bf 7f 97 3e
       0.08624795 -0.2251205 -0.06279391 0.2958965
000200 16 80 2a be 11 ac 49 be 9a 1a d8 3d 64 80 a1 3d
       -0.16650423 -0.19694544 0.10551949 0.07885817
000210 f8 af 15 ba 2b ba 95 3e 2a 9d 0d be 79 bc 43 be
       -0.00057101203 0.29243597 -0.13829485 -0.19114865
000220 35 75 02 be 21 e9 5c 3e e4 6d fc 3d 27 1a c7 bd
       -0.12740023 0.21573307 0.123256475 -0.09721785
000230 6f c2 78 bd 65 71 b6 bd 90 08 e4 3d dd 0d 16 3d
       -0.0607323 -0.08908347 0.11134446 0.036634315
000240 92 94 73 be 37 31 1b 3e 8b fa 66 3e 8b 99 a5 3d
       -0.23787144 0.15155493 0.22556512 0.080859266
000250 21 f2 bb 3c b2 5c dd 3c 67 ac 0d be fc 8f d7 bd
       0.022942604 0.02702174 -0.13835298 -0.1052551
000260 b8 fd 0e 3e ec 79 3c 3e 25 59 89 be 46 aa db 3d
       0.13963974 0.18405885 -0.26825824 0.107258365
000270 77 50 7c be a1 cc 66 bb bd 30 54 bd 9c e0 9f 3e
       -0.2464007 -0.0035217183 -0.051804293 0.3122605
000280 9d 00 bd be ac 65 c7 bc 55 d9 08 3d a5 d1 c8 bd
       -0.3691453 -0.024340473 0.03341039 -0.098056115
000290 a8 b4 1d 3d 6a f8 81 be 1b 73 ca 3d 6e 37 20 bd
       0.038502365 -0.25384837 0.09885236 -0.039115362
0002a0 b0 7c 39 3d 07 15 e8 bd 75 ce e6 be d4 3c 4f 3e
       0.045284927 -0.11332136 -0.4507939 0.20238048
0002b0 d8 4a d3 be 3d ec 30 be d2 a2 e1 3e 1a 83 42 3e
       -0.4126804 -0.17277618 0.44069535 0.18995324
0002c0 45 2b b4 be 56 e3 26 3e c2 c5 e2 bc 02 7b d7 bd
       -0.35189262 0.1629766 -0.027682189 -0.10521509
0002d0 3b 25 ed 3c 38 fb 26 3c f9 66 64 bd b5 f4 cf 3e
       0.028948417 0.010191731 -0.055762265 0.40616384
0002e0 4d 30 95 3e f4 5b a4 be 0d de e5 be cd d8 52 be
       0.29138413 -0.32101405 -0.44895974 -0.20590515
0002f0 19 63 54 be 58 f5 79 3e 5c 6f a4 be 2b cb 97 be
       -0.20740928 0.24409997 -0.3211621 -0.29647192
000300 6d 18 36 be 08 47 53 be 81 36 de bd aa 77 ec 3e
       -0.17782755 -0.20632565 -0.108502395 0.46185046
000310 e0 16 23 be 34 f9 97 be 82 0c 08 be 83 af e3 bd
       -0.15926695 -0.29682314 -0.13286021 -0.111174606
000320 0c 20 2e bd 7d 7a a9 bd 34 18 21 be 91 1a cc 3d
       -0.04251103 -0.08275316 -0.15731889 0.09966005
000330 ba a4 6f bd d4 88 27 3e 73 81 98 bd 69 e9 dd 3d
       -0.058506705 0.1636079 -0.074465655 0.10835535
000340 32 91 74 3e 72 97 c0 3d aa 1e 00 3e 9c cf 0a 3e
       0.23883513 0.09403886 0.12511697 0.13555759
000350 7b 72 05 3e 76 ba eb bd 20 37 2f bd 0f 24 8e bd
       0.13031952 -0.11510174 -0.04277718 -0.069404714
000360 33 32 0e 3e 2e c7 91 bd 1d bf 56 bd c2 f5 f8 be
       0.13886337 -0.07118069 -0.052428354 -0.48624998
000370 f2 9d 0e bd ea 36 3d 3b 7b ee bb bd ea 81 be 3c
       -0.034818597 0.0028871843 -0.09176346 0.023255307
000380 d1 f5 3d 3e 01 19 83 bc 89 75 de bd 20 25 af 3c
       0.18550803 -0.016003134 -0.10862262 0.021380007
000390 b6 b5 d8 bd ae b5 f5 bd ef c5 ae 3d 1a d2 12 3d
       -0.105815336 -0.11997543 0.085338466 0.0358449
0003a0 1b 8b 69 3d 2e 17 b6 3b 2d d6 a8 bd 32 5d 9d bc
       0.057017427 0.0055569625 -0.08243976 -0.019209478
0003b0 a7 44 6e 3d f9 ef 4c bd 9a 3e 2a 3d 5e 8d c0 bd
       0.05817094 -0.050033543 0.041563608 -0.09401964
0003c0 36 49 0e be 41 f0 43 bd 5c 44 8e bd 28 bf 9e bd
       -0.13895115 -0.047836546 -0.06946632 -0.07751304
0003d0 39 fd c2 bd 6b bb cc bc 2d 8a 01 3e b6 04 72 bc
       -0.09520955 -0.024991712 0.12650366 -0.014771631
0003e0 74 1a a1 bd 40 c8 89 bc 7c 3e 1b be 61 67 41 3e
       -0.07866374 -0.01681912 -0.15160555 0.18887092
0003f0 fd d0 a8 bb 78 83 e6 3d fa a3 49 be 4c 27 20 3d
       -0.0051518665 0.112555444 -0.19691458 0.039099976

lstm2.bias_ih_l0 f4 [200]
000000 60 06 24 bf b7 a5 33 bf d6 e7 dc be 5f d5 ed be
       -0.6407223 -0.70174736 -0.43145627 -0.46451852
000010 b2 24 28 be a6 7f 01 bf 2c bc 6b bf 4d e8 32 bf
       -0.16420248 -0.505854 -0.92084 -0.6988571
000020 35 a4 0c bf 60 02 b6 be 7a 38 4c bf 50 e4 b6 be
       -0.5493806 -0.35548687 -0.79773676 -0.35721064
000030 d7 93 0d bf d6 b3 02 bf 8f 1a 9e be 9e a1 c2 be
       -0.5530371 -0.5105566 -0.30879638 -0.3801393
000040 0b 92 95 be fd df 4a be a5 3b 27 bf aa 99 dc be
       -0.29212984 -0.19812007 -0.65325385 -0.43085986
000050 e1 46 a6 be 33 74 db be 18 a9 03 bf a4 f7 d2 be
       -0.3247595 -0.4286209 -0.5142989 -0.4120456
000060 06 6b d8 bd 91 ac 0f bf e2 96 65 be f5 23 05 bf
       -0.10567288 -0.5612269 -0.22420838 -0.5200799
000070 2f 38 8f be 7b 70 a5 be d8 f3 f3 be 80 24 1b bf
       -0.27972552 -0.32312378 -0.47646976 -0.6060257
000080 c8 13 c1 be 4d 7f 12 bf 40 e7 18 bf 8e b3 ce be
       -0.37710404 -0.57225496 -0.5972786 -0.40371364
000090 22 83 a9 be f6 c3 2a bf 41 0e 16 bf 98 04 25 bf
       -0.3310786 -0.6670526 -0.586155 -0.64460135
0000a0 89 10 00 bf 0e c2 a1 be 53 b5 24 bf 63 8a 94 be
       -0.5002523 -0.31593364 -0.6433918 -0.2901183
0000b0 1f 9a d7 be cc 2d 91 be ab 9c a8 be 61 a6 00 bf
       -0.42109773 -0.28355253 -0.32932028 -0.50253874
0000c0 9e eb 06 bf f1 e4 47 bf 66 d2 d5 be 99 06 ad be
       -0.52703273 -0.7808371 -0.41762084 -0.33794096
0000d0 0a fa 06 be 9f 5c 9c be ce 21 8b be dd 69 82 be
       -0.1318132 -0.30539414 -0.27174228 -0.25471392
0000e0 ff 44 18 bf f8 fd 64 be f6 70 cb be c7 08 4e be
       -0.5948028 -0.22362506 -0.3973462 -0.20120536
0000f0 4f 05 1d bf ed 6d 2b be 93 1f 80 be ba dd cd be
       -0.61336225 -0.16741152 -0.2502409 -0.40208226
000100 91 f0 73 be 15 24 ae bd cb f3 16 be fd 44 66 bd
       -0.23822238 -0.08502976 -0.14741437 -0.056218136
000110 51 a4 a4 be 36 9d 28 bf 55 22 cb bd ea 30 6c be
       -0.32156613 -0.65864885 -0.09918658 -0.23065534
000120 96 c6 e8 be a8 97 6d be 5e 7f de bd db 04 be be
       -0.4546401 -0.23202384 -0.10864137 -0.3711308
000130 ef 25 24 be 3f 83 b9 be 29 87 a4 be a7 3f 1f be
       -0.16030096 -0.36232945 -0.3213437 -0.15551625
000140 64 e1 91 be c3 47 b2 be 44 a5 2d be bf cd 4a be
       -0.28492272 -0.34820375 -0.16957575 -0.19805048
000150 72 33 d9 be 4f 6a 02 bf 29 1a f7 bd d8 2d 00 bf
       -0.42422062 -0.50943464 -0.120655365 -0.5006995
000160 dd 06 ec be 4b 05 c3 be 6d 17 21 be 8d 46 ad be
       -0.46098986 -0.38089976 -0.15731592 -0.33842888
000170 e3 37 df be 39 97 2c be 12 62 30 bf df 23 3d be
       -0.43597326 -0.16854562 -0.68899643 -0.18470715
000180 68 3f c1 be dc 88 9c be 5f 98 7c be 1c 87 2b bf
       -0.37743688 -0.30573165 -0.246675 -0.67003036
000190 3e 1b c6 3b 50 6c 29 3e 67 df fb bd bc d2 4d bc
       0.006045728 0.16545224 -0.1229847 -0.01256245
0001a0 4a 3d 1c be ec fc b5 bc 18 96 a6 bd 8d 78 c3 3d
       -0.15257755 -0.02221533 -0.08134097 0.095444776
0001b0 a9 a7 ac bd 21 e7 e2 bd 79 97 8e bd 6b f7 13 3e
       -0.08430416 -0.110792406 -0.06962485 0.14449851
0001c0 37 9b d4 bc e9 8f 46 3c a3 f6 c8 bd ed c1 c8 3d
       -0.025952918 0.012119272 -0.09812667 0.098026134
0001d0 8e 57 57 bd 94 42 ae bd 56 f0 d6 bd 97 75 59 3e
       -0.052573733 -0.085087925 -0.10495059 0.21236263
0001e0 1e 92 b7 3d 7b 11 85 3d ba 5d af bd aa 18 4a 3e
       0.089634165 0.06497475 -0.08562799 0.19735971
0001f0 51 79 26 3d 09 12 09 3d 52 cf 0e 3d e2 da 03 3e
       0.04064304 0.033464465 0.034865685 0.12876466
000200 19 fa b2 bd 61 cc 0b 3d c6 d5 83 be 3b a8 37 3d
       -0.087391086 0.034130458 -0.25749034 0.04483817
000210 89 97 bb 3d 43 9e fc bc 63 d5 66 be ab bb 79 3d
       0.091597624 -0.030837184 -0.22542338 0.06096999
000220 e0 df 83 bc aa 78 9a 3d 0d 7d 90 3d 5a 0d 8a bb
       -0.016097963 0.07542546 0.070551015 -0.0042130174
000230 ff 2e f6 3d 37 20 b0 3d ce 45 05 bc d1 a4 71 3d
       0.120206825 0.085998945 -0.0081343185 0.05899507
000240 b9 16 a4 bc ad a5 5c bd 31 05 2d 3d e8 2f 87 bc
       -0.020030366 -0.05386894 0.04224128 -0.016502336
000250 a1 b0 a0 bd 9b 7c e5 3c 91 22 27 bf c3 8f 36 bf
       -0.07846189 0.028013518 -0.6528712 -0.7131311
000260 c5 9f 64 be 33 3b 24 bf d8 a4 39 be 91 46 10 bf
       -0.22326572 -0.6415283 -0.18129289 -0.56357676
000270 9e 6e 3e bf 04 99 2b bf 06 72 0a bf 1d 90 8f be
       -0.7438754 -0.6703036 -0.54080236 -0.28039637
000280 0c 72 2d bf 96 bc 98 be 31 73 45 bf 80 ea 03 bf
       -0.67752147 -0.2983138 -0.77128893 -0.51529694
000290 f8 99 d8 be 45 d3 87 be e4 22 67 be d8 bd a1 be
       -0.4230497 -0.26528373 -0.22571903 -0.31590152
0002a0 de 78 d7 be 9d 90 1b bf 90 ce 2d be ae 6f 8c be
       -0.42084402 -0.6076754 -0.16973329 -0.27428955
0002b0 e1 8c 09 bf 6f 96 e2 be 3a f9 ab be 52 ea 14 bf
       -0.5373059 -0.44255397 -0.33588582 -0.58170044
0002c0 05 b6 7f be cf 9e 8e be 29 cc c6 be a2 ee ab be
       -0.24971779 -0.27855536 -0.38827637 -0.335805
0002d0 d5 7b 14 bf 83 71 ff be bc ea ce be 84 1c 20 bf
       -0.5800145 -0.4989129 -0.40413463 -0.6254351
0002e0 cb a5 32 bf d9 d9 fe be 35 29 c8 be d2 02 05 bf
       -0.6978423 -0.4977558 -0.39093938 -0.5195743
0002f0 e4 64 ef be 2b 59 1b bf 4c fc b9 be 4a 8c 83 be
       -0.4675666 -0.60682935 -0.363253 -0.2569297
000300 e9 a0 13 bf 48 1d e1 be 47 58 0f bf 05 9d c5 be
       -0.57667404 -0.43967652 -0.55994076 -0.3859636
000310 4c 37 b3 be 5b 81 ce be e4 8c a2 be 6c 38 3f bf
       -0.35003126 -0.40333065 -0.31748116 -0.7469547

lstm2.bias_hh_l0 f4 [200]
000000 85 85 27 bf 15 84 3a bf 32 94 69 be 63 63 24 bf
       -0.6543811 -0.7285779 -0.22810438 -0.6421415
000010 db 1e 59 be 52 53 00 bf 70 a6 5e bf 47 b9 fe be
       -0.21203177 -0.50127137 -0.86972713 -0.4975073
000020 41 e1 3f bf f1 0a a1 be 9c cb 18 bf 24 f0 b9 be
       -0.74953085 -0.3145366 -0.59685683 -0.36316025
000030 2a f8 46 bf d7 18 d4 be 81 cc eb be b1 ca 76 be
       -0.7772242 -0.414252 -0.46054462 -0.24100758
000040 78 ec 95 be 1f ea 2e be a5 dc 18 bf 80 5e b5 be
       -0.29281974 -0.17081498 -0.59711677 -0.3542366
000050 1b a1 6c be 6f 64 e3 be 9a d9 0b bf e8 e5 f3 be
       -0.23108332 -0.44412562 -0.5462891 -0.47636342
000060 d8 6f 17 be de 63 07 bf 1c 87 41 be 9b d1 b0 be
       -0.14788759 -0.5288676 -0.18899196 -0.34534916
000070 23 58 b4 be 5d e2 8c be 26 80 d6 be 07 1b 02 bf
       -0.35223493 -0.2751645 -0.41894644 -0.5082249
000080 ff 9a ba be 7d e0 13 bf 77 71 1c bf 2b 07 81 be
       -0.36446378 -0.57764417 -0.61110634 -0.2520078
000090 15 8e b2 be 77 f9 ec be 6b 3e 10 bf 0a 2d e3 be
       -0.34874025 -0.46284077 -0.5634524 -0.443703
0000a0 fd 68 c2 be 17 d1 fb be b3 89 25 bf c4 cc cc be
       -0.37970725 -0.4918296 -0.6466324 -0.39999974
0000b0 6c 6c 0c bf 7b e8 0a be b1 7f f3 be c1 14 12 bf
       -0.5485294 -0.13565247 -0.47558358 -0.5706292
0000c0 1c ae aa be 5f 31 44 bf ac 00 b4 be 9f 60 c1 be
       -0.3333596 -0.76637834 -0.35156763 -0.3776903
0000d0 e3 8c 07 be 50 b4 dc be d0 ef 8d be d0 67 6e be
       -0.13237338 -0.43106318 -0.27722025 -0.23281789
0000e0 81 84 20 bf 24 4d 9b be c2 ae b2 be bd 1c 85 be
       -0.62702185 -0.3033229 -0.34898955 -0.25998488
0000f0 9c cb 0d bf e1 cc 57 be 08 97 c3 be 08 3b b4 be
       -0.5538881 -0.21074249 -0.38201165 -0.35201287
000100 f5 56 8f be 4a b5 52 be 35 97 24 be 75 3a 73 bd
       -0.2799603 -0.20576969 -0.16073306 -0.05938192
000110 68 21 0c be 28 c6 11 bf 75 b0 71 be 38 1e 92 be
       -0.13684618 -0.5694299 -0.2360247 -0.2853868
000120 32 61 f6 be d9 36 9f be d2 61 de bd b1 0e b7 be
       -0.4812103 -0.31096533 -0.108585015 -0.35753396
000130 a4 4a 68 be cb 31 61 be 1e a7 5a be 8e 9d 8f bd
       -0.22684723 -0.21991651 -0.21352813 -0.07012473
000140 4a c7 71 be 4d 35 7c be de 78 91 be 74 65 1b be
       -0.23611179 -0.24629708 -0.28412527 -0.1517542
000150 50 2e cb be e7 a2 d6 be cc b1 39 be 18 2d f7 be
       -0.3968377 -0.4192116 -0.1813423 -0.4827659
000160 06 98 2b bf 37 69 32 be 62 c6 b4 be b3 69 9b be
       -0.67028844 -0.17422949 -0.35307604 -0.3035408
000170 25 06 44 be 79 a5 2d be 8b 56 04 bf 7b 98 69 be
       -0.19142969 -0.16957654 -0.51694554 -0.22812073
000180 10 11 94 be cc 0e 97 be 7a 45 ea be 81 e8 0c bf
       -0.28919268 -0.29503477 -0.4575613 -0.5504227
000190 b0 52 c1 3d 80 18 15 bd d5 e8 d0 3d db 4b 5a bd
       0.094395995 -0.03640032 0.10200659 -0.053294998
0001a0 90 19 58 be 75 f4 3c 3d ae aa 8b bc 4f 17 2b bd
       -0.21103501 0.04613157 -0.01704916 -0.041770276
0001b0 d2 67 84 bd 17 cc 42 3d ee f8 80 3d 04 44 b2 bd
       -0.06465115 0.047557916 0.062974796 -0.08704379
0001c0 17 00 61 bd 7d 0b cc 3d 4d 42 05 3e f3 b1 a1 3d
       -0.054931726 0.09963129 0.13013573 0.07895269
0001d0 b7 3e 9c bd 42 60 10 bd 0a ab ee 3c ca c0 69 3e
       -0.076291494 -0.03524805 0.029134292 0.2282745
0001e0 92 d7 5d bd da 5b 04 bd a1 a7 9c 3c af 78 09 3e
       -0.054160662 -0.03231416 0.0191229 0.13424943
0001f0 1a 8d b3 bd ab c1 09 bd c1 09 c8 3d 1b 1f ea bc
       -0.08767147 -0.03363196 0.097674854 -0.028579285
000200 e0 da 32 3c 77 42 6a bc a3 3e 94 bd 19 e6 aa bc
       0.010916442 -0.014298073 -0.072385095 -0.020861672
000210 db f9 2b 3d 82 2d 29 be be ba 33 bd 56 ad a5 3d
       0.041986328 -0.16521266 -0.043879263 0.08089702
000220 60 f7 ae 3d cf 3e 82 bc 2e 83 4e bd 5b 1d 29 3c
       0.08543277 -0.01589909 -0.05041807 0.01032194
000230 18 0f 87 3d 21 e1 45 3d 5d e9 2e 3e 21 af b6 3d
       0.06594676 0.048310403 0.17081209 0.08920122
000240 6f 95 4f 3c 0b 60 cd bd 4e 0b cf bd 51 ec 4f 3d
       0.012669905 -0.10028084 -0.10109578 0.05076248
000250 17 36 c5 3d c1 46 18 3e 79 f3 14 bf 11 b6 f2 be
       0.096294574 0.1487074 -0.5818401 -0.4740453
000260 61 d1 84 be 2f a5 0e bf ed 73 c0 be 0c b6 e2 be
       -0.25940993 -0.557208 -0.37588444 -0.44279516
000270 8e d5 31 bf 19 bb 2f bf 92 0b 36 bf 61 13 03 bf
       -0.69466484 -0.68644863 -0.71111405 -0.51201445
000280 e6 aa 34 bf b8 1d e9 be 22 69 1b bf 3e d4 0d bf
       -0.7057327 -0.45530486 -0.60707295 -0.5540198
000290 4a a3 8a be 34 68 6c be 32 b4 44 be 16 87 b3 be
       -0.27077705 -0.23086625 -0.19209364 -0.35064
0002a0 bf cd 2a bf 25 6e 0e bf bd b8 94 be 1c 69 d5 be
       -0.66720194 -0.5563682 -0.29047194 -0.41681755
0002b0 f8 86 12 bf 2d 0d 17 bf d3 42 f7 bd c1 30 1b bf
       -0.57237196 -0.5900448 -0.120732926 -0.6062127
0002c0 ab 5c 5a be 3c 71 f0 be b7 94 9c be e4 72 94 be
       -0.21324413 -0.4696139 -0.3058221 -0.28993905
0002d0 6d f9 0f bf 96 14 2d bf 14 9c a5 be 43 62 19 bf
       -0.5623997 -0.67609537 -0.3234564 -0.5991556
0002e0 8e 8a 33 bf a4 1e d8 be fc ff ba be b9 1b 13 bf
       -0.7013329 -0.42210877 -0.36523426 -0.57464176
0002f0 18 84 c3 be b1 07 c4 be 7b af b0 be 3e a3 f2 be
       -0.38186717 -0.38287118 -0.3450888 -0.4739017
000300 c7 af f4 be 70 1f fe be d5 fe f4 be 20 5d 5b be
       -0.47790357 -0.4963336 -0.4785067 -0.21422243
000310 7d 40 e3 be 97 3b 0a bf 65 a0 0f bf 88 32 4d bf
       -0.44385138 -0.53997177 -0.5610412 -0.8015523
